…
 ) # set x2 to FloatTensor x = torch . cat (( x1 , x2 ), 0 ) return F . log_softmax ( x , dim = 1 ), F . log_softmax ( x1 , dim = 1 ), F . log_softmax ( x2 , dim = 1 ) input1 = ( 1 , 300 ) input2 = ( 1 , 300 ) dtypes = ( torch . FloatTensor , torch . LongTensor ) total_params , trainable_params = mdnc . contribs . torchsummary . summary ( TestTupleOutModule (), ( input1 , input2 ), device = 'cpu' , dtypes = dtypes ) Output ---------------------------------------------------------------- Layer (type) Output Shape Param # ================================================================ Linear-1 [-1, 1, 50] 15,050 Linear-2 [-1, 1, 10] 510 Linear-3 [-1, 1, 50] 15,050 Linear-4 [-1, 1, 10] 510 TestTupleOutModule-5 [-1, 1, 10] 0 [-1, 1, 10] [-1, 1, 10] ================================================================ Total params: 31,120 Trainable params: 31,120 Non-trainable params: 0 ---------------------------------------------------------------- Input size (MB): 0.00 Forward/backward pass size (MB): 0.00 Params size (MB): 0.12 Estimated Total Size (MB): 0.12 ------------------------------------------------------------
…
rs along the depth of the network. Examples \u00b6 Example Codes 1 2 3 4 5 import mdnc net = mdnc . modules . conv . AE1d ( 64 , [ 2 , 2 , 3 , 3 , 3 ], in_planes = 3 , out_planes = 1 ) print ( 'The number of convolutional layers along the depth is {0} .' . format ( net . nlayers )) mdnc . contribs . torchsummary . summary ( net , ( 3 , 128 ), device = 'cpu' ) Output The number of convolutional layers along the depth is 25. ---------------------------------------------------------------- Layer (type) Output Shape Param # ================================================================ Conv1d-1 [-1, 64, 128] 960 InstanceNorm1d-2 [-1, 64, 128] 128 PReLU-3 [-1, 64, 128] 64 Conv1d-4 [-1, 64, 128] 12,288 _ConvModernNd-5 [-1, 64, 128] 0 InstanceNorm1d-6 [-1, 64, 128] 128 PReLU-7 [-1, 64, 128] 64 Conv1d-8 [-1, 64, 64] 12,288 _ConvModernNd-9 [-1, 64, 64] 0 _BlockConvStkNd-10 [-1, 64, 64] 0 InstanceNorm1d-11 [-1, 64, 64] 128 PReLU-12 [-1, 64, 64] 64 Conv1d-13 [-1, 128, 64] 24,576 _ConvModernNd-14 [-1, 128, 64] 0 InstanceNorm1d-15 [-1, 128, 64] 256 PReLU-16 [-1, 128, 64] 128 Conv1d-17 [-1, 128, 32] 49,152 _ConvModernNd-18 [-1, 128, 32] 0 _BlockConvStkNd-19 [-1, 128, 32] 0 InstanceNorm1d-20 [-1, 128, 32] 256 PReLU-21 [-1, 128, 32] 128 Conv1d-22 [-1, 256, 32] 98,304 _ConvModernNd-23 [-1, 256, 32] 0 InstanceNorm1d-24 [-1, 256, 32] 512 PReLU-25 [-1, 256, 32] 256 Conv1d-26 [-1, 256, 32] 196,608 _ConvModernNd-27 [-1, 256, 32] 0 InstanceNorm1d-28 [-1, 256, 32] 512 PReLU-29 [-1, 256, 32] 256 Conv1d-30 [-1, 256, 16] 196,608 _ConvModernNd-31 [-1, 256, 16] 0 _BlockConvStkNd-32 [-1, 256, 16] 0 InstanceNorm1d-33 [-1, 256, 16] 512 PReLU-34 [-1, 256, 16] 256 Conv1d-35 [-1, 512, 16] 393,216 _ConvModernNd-36 [-1, 512, 16] 0 InstanceNorm1d-37 [-1, 512, 16] 1,024 PReLU-38 [-1, 512, 16] 512 Conv1d-39 [-1, 512, 16] 786,432 _ConvModernNd-40 [-1, 512, 16] 0 InstanceNorm1d-41 [-1, 512, 16] 1,024 PReLU-42 [-1, 512, 16] 512 Conv1d-43 [-1, 512, 8] 786,432 _ConvModernNd-44 [-1, 512, 8] 0 _BlockConvStkNd-45 [-1, 512, 8] 0 InstanceNorm1d-46 [-1, 512, 8] 1,024 PReLU-47 [-1, 512, 8] 512 Conv1d-48 [-1, 1024, 8] 1,572,864 _ConvModernNd-49 [-1, 1024, 8] 0 InstanceNorm1d-50 [-1, 1024, 8] 2,048 PReLU-51 [-1, 1024, 8] 1,024 Conv1d-52 [-1, 1024, 8] 3,145,728 _ConvModernNd-53 [-1, 1024, 8] 0 InstanceNorm1d-54 [-1, 1024, 8] 2,048 PReLU-55 [-1, 1024, 8] 1,024 Upsample-56 [-1, 1024, 16] 0 Conv1d-57 [-1, 512, 16] 1,572,864 _ConvModernNd-58 [-1, 512, 16] 0 _BlockConvStkNd-59 [-1, 512, 16] 0 InstanceNorm1d-60 [-1, 512, 16] 1,024 PReLU-61 [-1, 512, 16] 512 Conv1d-62 [-1, 512, 16] 786,432 _ConvModernNd-63 [-1, 512, 16] 0 InstanceNorm1d-64 [-1, 512, 16] 1,024 PReLU-65 [-1, 512, 16] 512 Conv1d-66 [-1, 512, 16] 786,432 _ConvModernNd-67 [-1, 512, 16] 0 InstanceNorm1d-68 [-1, 512, 16] 1,024 PReLU-69 [-1, 512, 16] 512 Upsample-70 [-1, 512, 32] 0 Conv1d-71 [-1, 256, 32] 393,216 _ConvModernNd-72 [-1, 256, 32] 0 _BlockConvStkNd-73 [-1, 256, 32] 0 InstanceNorm1d-74 [-1, 256, 32] 512 PReLU-75 [-1, 256, 32] 256 Conv1d-76 [-1, 256, 32] 196,608 _ConvModernNd-77 [-1, 256, 32] 0 InstanceNorm1d-78 [-1, 256, 32] 512 PReLU-79 [-1, 256, 32] 256 Conv1d-80 [-1, 256, 32] 196,608 _ConvModernNd-81 [-1, 256, 32] 0 InstanceNorm1d-82 [-1, 256, 32] 512 PReLU-83 [-1, 256, 32] 256 Upsample-84 [-1, 256, 64] 0 Conv1d-85 [-1, 128, 64] 98,304 _ConvModernNd-86 [-1, 128, 64] 0 _BlockConvStkNd-87 [-1, 128, 64] 0 InstanceNorm1d-88 [-1, 128, 64] 256 PReLU-89 [-1, 128, 64] 128 Conv1d-90 [-1, 128, 64] 49,152 _ConvModernNd-91 [-1, 128, 64] 0 InstanceNorm1d-92 [-1, 128, 64] 256 PReLU-93 [-1, 128, 64] 128 Upsample-94 [-1, 128, 128] 0 Conv1d-95 [-1, 64, 128] 24,576 _ConvModernNd-96 [-1, 64, 128] 0 _BlockConvStkNd-97 [-1, 64, 128] 0 InstanceNorm1d-98 [-1, 64, 128] 128 PReLU-99 [-1, 64, 128] 64 Conv1d-100 [-1, 64, 128] 12,288 _ConvModernNd-101 [-1, 64, 128] 0 InstanceNorm1d-102 [-1, 64, 128] 128 PReLU-103 [-1, 64, 128] 64 Conv1d-104 [-1, 64, 128] 12,288 _ConvModernNd-105 [-1, 64, 128] 0 _BlockConvStkNd-106 [-1, 64, 128] 0 Conv1d-107 [-1, 3, 128] 963 AE1d-108 [-1, 3, 128] 0 ================================================================ Total params: 11,427,651 Trainable params: 11,427,651 Non-trainable params: 0 ---------------------------------------------------------------- Input size (MB): 0.00 Forward/backward pass size (MB): 6.26 Params size (MB): 43.59 Estimated Total Size (MB): 49.85 ----------------------------------------------------------------","title":
…
long the depth of the network. Examples \u00b6 Example Codes 1 2 3 4 5 import mdnc net = mdnc . modules . conv . AE2d ( 64 , [ 2 , 2 , 3 , 3 , 3 ], in_planes = 3 , out_planes = 1 ) print ( 'The number of convolutional layers along the depth is {0} .' . format ( net . nlayers )) mdnc . contribs . torchsummary . summary ( net , ( 3 , 64 , 63 ), device = 'cpu' ) Output The number of convolutional layers along the depth is 25. ---------------------------------------------------------------- Layer (type) Output Shape Param # ================================================================ Conv2d-1 [-1, 64, 64, 63] 4,800 InstanceNorm2d-2 [-1, 64, 64, 63] 128 PReLU-3 [-1, 64, 64, 63] 64 Conv2d-4 [-1, 64, 64, 63] 36,864 _ConvModernNd-5 [-1, 64, 64, 63] 0 InstanceNorm2d-6 [-1, 64, 64, 63] 128 PReLU-7 [-1, 64, 64, 63] 64 Conv2d-8 [-1, 64, 32, 32] 36,864 _ConvModernNd-9 [-1, 64, 32, 32] 0 _BlockConvStkNd-10 [-1, 64, 32, 32] 0 InstanceNorm2d-11 [-1, 64, 32, 32] 128 PReLU-12 [-1, 64, 32, 32] 64 Conv2d-13 [-1, 128, 32, 32] 73,728 _ConvModernNd-14 [-1, 128, 32, 32] 0 InstanceNorm2d-15 [-1, 128, 32, 32] 256 PReLU-16 [-1, 128, 32, 32] 128 Conv2d-17 [-1, 128, 16, 16] 147,456 _ConvModernNd-18 [-1, 128, 16, 16] 0 _BlockConvStkNd-19 [-1, 128, 16, 16] 0 InstanceNorm2d-20 [-1, 128, 16, 16] 256 PReLU-21 [-1, 128, 16, 16] 128 Conv2d-22 [-1, 256, 16, 16] 294,912 _ConvModernNd-23 [-1, 256, 16, 16] 0 InstanceNorm2d-24 [-1, 256, 16, 16] 512 PReLU-25 [-1, 256, 16, 16] 256 Conv2d-26 [-1, 256, 16, 16] 589,824 _ConvModernNd-27 [-1, 256, 16, 16] 0 InstanceNorm2d-28 [-1, 256, 16, 16] 512 PReLU-29 [-1, 256, 16, 16] 256 Conv2d-30 [-1, 256, 8, 8] 589,824 _ConvModernNd-31 [-1, 256, 8, 8] 0 _BlockConvStkNd-32 [-1, 256, 8, 8] 0 InstanceNorm2d-33 [-1, 256, 8, 8] 512 PReLU-34 [-1, 256, 8, 8] 256 Conv2d-35 [-1, 512, 8, 8] 1,179,648 _ConvModernNd-36 [-1, 512, 8, 8] 0 InstanceNorm2d-37 [-1, 512, 8, 8] 1,024 PReLU-38 [-1, 512, 8, 8] 512 Conv2d-39 [-1, 512, 8, 8] 2,359,296 _ConvModernNd-40 [-1, 512, 8, 8] 0 InstanceNorm2d-41 [-1, 512, 8, 8] 1,024 PReLU-42 [-1, 512, 8, 8] 512 Conv2d-43 [-1, 512, 4, 4] 2,359,296 _ConvModernNd-44 [-1, 512, 4, 4] 0 _BlockConvStkNd-45 [-1, 512, 4, 4] 0 InstanceNorm2d-46 [-1, 512, 4, 4] 1,024 PReLU-47 [-1, 512, 4, 4] 512 Conv2d-48 [-1, 1024, 4, 4] 4,718,592 _ConvModernNd-49 [-1, 1024, 4, 4] 0 InstanceNorm2d-50 [-1, 1024, 4, 4] 2,048 PReLU-51 [-1, 1024, 4, 4] 1,024 Conv2d-52 [-1, 1024, 4, 4] 9,437,184 _ConvModernNd-53 [-1, 1024, 4, 4] 0 InstanceNorm2d-54 [-1, 1024, 4, 4] 2,048 PReLU-55 [-1, 1024, 4, 4] 1,024 Upsample-56 [-1, 1024, 8, 8] 0 Conv2d-57 [-1, 512, 8, 8] 4,718,592 _ConvModernNd-58 [-1, 512, 8, 8] 0 _BlockConvStkNd-59 [-1, 512, 8, 8] 0 InstanceNorm2d-60 [-1, 512, 8, 8] 1,024 PReLU-61 [-1, 512, 8, 8] 512 Conv2d-62 [-1, 512, 8, 8] 2,359,296 _ConvModernNd-63 [-1, 512, 8, 8] 0 InstanceNorm2d-64 [-1, 512, 8, 8] 1,024 PReLU-65 [-1, 512, 8, 8] 512 Conv2d-66 [-1, 512, 8, 8] 2,359,296 _ConvModernNd-67 [-1, 512, 8, 8] 0 InstanceNorm2d-68 [-1, 512, 8, 8] 1,024 PReLU-69 [-1, 512, 8, 8] 512 Upsample-70 [-1, 512, 16, 16] 0 Conv2d-71 [-1, 256, 16, 16] 1,179,648 _ConvModernNd-72 [-1, 256, 16, 16] 0 _BlockConvStkNd-73 [-1, 256, 16, 16] 0 InstanceNorm2d-74 [-1, 256, 16, 16] 512 PReLU-75 [-1, 256, 16, 16] 256 Conv2d-76 [-1, 256, 16, 16] 589,824 _ConvModernNd-77 [-1, 256, 16, 16] 0 InstanceNorm2d-78 [-1, 256, 16, 16] 512 PReLU-79 [-1, 256, 16, 16] 256 Conv2d-80 [-1, 256, 16, 16] 589,824 _ConvModernNd-81 [-1, 256, 16, 16] 0 InstanceNorm2d-82 [-1, 256, 16, 16] 512 PReLU-83 [-1, 256, 16, 16] 256 Upsample-84 [-1, 256, 32, 32] 0 Conv2d-85 [-1, 128, 32, 32] 294,912 _ConvModernNd-86 [-1, 128, 32, 32] 0 _BlockConvStkNd-87 [-1, 128, 32, 32] 0 InstanceNorm2d-88 [-1, 128, 32, 32] 256 PReLU-89 [-1, 128, 32, 32] 128 Conv2d-90 [-1, 128, 32, 32] 147,456 _ConvModernNd-91 [-1, 128, 32, 32] 0 InstanceNorm2d-92 [-1, 128, 32, 32] 256 PReLU-93 [-1, 128, 32, 32] 128 Upsample-94 [-1, 128, 64, 64] 0 Conv2d-95 [-1, 64, 64, 64] 73,728 _ConvModernNd-96 [-1, 64, 64, 64] 0 _BlockConvStkNd-97 [-1, 64, 64, 64] 0 InstanceNorm2d-98 [-1, 64, 64, 63] 128 PReLU-99 [-1, 64, 64, 63] 64 Conv2d-100 [-1, 64, 64, 63] 36,864 _ConvModernNd-101 [-1, 64, 64, 63] 0 InstanceNorm2d-102 [-1, 64, 64, 63] 128 PReLU-103 [-1, 64, 64, 63] 64 Conv2d-104 [-1, 64, 64, 63] 36,864 _ConvModernNd-105 [-1, 64, 64, 63] 0 _BlockConvStkNd-106 [-1, 64, 64, 63] 0 Conv2d-107 [-1, 3, 64, 63] 4,803 AE2d-108 [-1, 3, 64, 63] 0 ================================================================ Total params: 34,241,859 Trainable params: 34,241,859 Non-trainable params: 0 ---------------------------------------------------------------- Input size (MB): 0.05 Forward/backward pass size (MB): 79.62 Params size (MB): 130.62 Estimated Total Size (MB): 210.29 ----------------------------------------------------------------","titl
…
the depth of the network. Examples \u00b6 Example Codes 1 2 3 4 5 import mdnc net = mdnc . modules . conv . AE3d ( 64 , [ 2 , 2 , 3 , 3 , 3 ], in_planes = 3 , out_planes = 1 ) print ( 'The number of convolutional layers along the depth is {0} .' . format ( net . nlayers )) mdnc . contribs . torchsummary . summary ( net , ( 3 , 31 , 32 , 30 ), device = 'cpu' ) Output The number of convolutional layers along the depth is 25. ---------------------------------------------------------------- Layer (type) Output Shape Param # ================================================================ Conv3d-1 [-1, 64, 31, 32, 30] 24,000 InstanceNorm3d-2 [-1, 64, 31, 32, 30] 128 PReLU-3 [-1, 64, 31, 32, 30] 64 Conv3d-4 [-1, 64, 31, 32, 30] 110,592 _ConvModernNd-5 [-1, 64, 31, 32, 30] 0 InstanceNorm3d-6 [-1, 64, 31, 32, 30] 128 PReLU-7 [-1, 64, 31, 32, 30] 64 Conv3d-8 [-1, 64, 16, 16, 15] 110,592 _ConvModernNd-9 [-1, 64, 16, 16, 15] 0 _BlockConvStkNd-10 [-1, 64, 16, 16, 15] 0 InstanceNorm3d-11 [-1, 64, 16, 16, 15] 128 PReLU-12 [-1, 64, 16, 16, 15] 64 Conv3d-13 [-1, 128, 16, 16, 15] 221,184 _ConvModernNd-14 [-1, 128, 16, 16, 15] 0 InstanceNorm3d-15 [-1, 128, 16, 16, 15] 256 PReLU-16 [-1, 128, 16, 16, 15] 128 Conv3d-17 [-1, 128, 8, 8, 8] 442,368 _ConvModernNd-18 [-1, 128, 8, 8, 8] 0 _BlockConvStkNd-19 [-1, 128, 8, 8, 8] 0 InstanceNorm3d-20 [-1, 128, 8, 8, 8] 256 PReLU-21 [-1, 128, 8, 8, 8] 128 Conv3d-22 [-1, 256, 8, 8, 8] 884,736 _ConvModernNd-23 [-1, 256, 8, 8, 8] 0 InstanceNorm3d-24 [-1, 256, 8, 8, 8] 512 PReLU-25 [-1, 256, 8, 8, 8] 256 Conv3d-26 [-1, 256, 8, 8, 8] 1,769,472 _ConvModernNd-27 [-1, 256, 8, 8, 8] 0 InstanceNorm3d-28 [-1, 256, 8, 8, 8] 512 PReLU-29 [-1, 256, 8, 8, 8] 256 Conv3d-30 [-1, 256, 4, 4, 4] 1,769,472 _ConvModernNd-31 [-1, 256, 4, 4, 4] 0 _BlockConvStkNd-32 [-1, 256, 4, 4, 4] 0 InstanceNorm3d-33 [-1, 256, 4, 4, 4] 512 PReLU-34 [-1, 256, 4, 4, 4] 256 Conv3d-35 [-1, 512, 4, 4, 4] 3,538,944 _ConvModernNd-36 [-1, 512, 4, 4, 4] 0 InstanceNorm3d-37 [-1, 512, 4, 4, 4] 1,024 PReLU-38 [-1, 512, 4, 4, 4] 512 Conv3d-39 [-1, 512, 4, 4, 4] 7,077,888 _ConvModernNd-40 [-1, 512, 4, 4, 4] 0 InstanceNorm3d-41 [-1, 512, 4, 4, 4] 1,024 PReLU-42 [-1, 512, 4, 4, 4] 512 Conv3d-43 [-1, 512, 2, 2, 2] 7,077,888 _ConvModernNd-44 [-1, 512, 2, 2, 2] 0 _BlockConvStkNd-45 [-1, 512, 2, 2, 2] 0 InstanceNorm3d-46 [-1, 512, 2, 2, 2] 1,024 PReLU-47 [-1, 512, 2, 2, 2] 512 Conv3d-48 [-1, 1024, 2, 2, 2] 14,155,776 _ConvModernNd-49 [-1, 1024, 2, 2, 2] 0 InstanceNorm3d-50 [-1, 1024, 2, 2, 2] 2,048 PReLU-51 [-1, 1024, 2, 2, 2] 1,024 Conv3d-52 [-1, 1024, 2, 2, 2] 28,311,552 _ConvModernNd-53 [-1, 1024, 2, 2, 2] 0 InstanceNorm3d-54 [-1, 1024, 2, 2, 2] 2,048 PReLU-55 [-1, 1024, 2, 2, 2] 1,024 Upsample-56 [-1, 1024, 4, 4, 4] 0 Conv3d-57 [-1, 512, 4, 4, 4] 14,155,776 _ConvModernNd-58 [-1, 512, 4, 4, 4] 0 _BlockConvStkNd-59 [-1, 512, 4, 4, 4] 0 InstanceNorm3d-60 [-1, 512, 4, 4, 4] 1,024 PReLU-61 [-1, 512, 4, 4, 4] 512 Conv3d-62 [-1, 512, 4, 4, 4] 7,077,888 _ConvModernNd-63 [-1, 512, 4, 4, 4] 0 InstanceNorm3d-64 [-1, 512, 4, 4, 4] 1,024 PReLU-65 [-1, 512, 4, 4, 4] 512 Conv3d-66 [-1, 512, 4, 4, 4] 7,077,888 _ConvModernNd-67 [-1, 512, 4, 4, 4] 0 InstanceNorm3d-68 [-1, 512, 4, 4, 4] 1,024 PReLU-69 [-1, 512, 4, 4, 4] 512 Upsample-70 [-1, 512, 8, 8, 8] 0 Conv3d-71 [-1, 256, 8, 8, 8] 3,538,944 _ConvModernNd-72 [-1, 256, 8, 8, 8] 0 _BlockConvStkNd-73 [-1, 256, 8, 8, 8] 0 InstanceNorm3d-74 [-1, 256, 8, 8, 8] 512 PReLU-75 [-1, 256, 8, 8, 8] 256 Conv3d-76 [-1, 256, 8, 8, 8] 1,769,472 _ConvModernNd-77 [-1, 256, 8, 8, 8] 0 InstanceNorm3d-78 [-1, 256, 8, 8, 8] 512 PReLU-79 [-1, 256, 8, 8, 8] 256 Conv3d-80 [-1, 256, 8, 8, 8] 1,769,472 _ConvModernNd-81 [-1, 256, 8, 8, 8] 0 InstanceNorm3d-82 [-1, 256, 8, 8, 8] 512 PReLU-83 [-1, 256, 8, 8, 8] 256 Upsample-84 [-1, 256, 16, 16, 16] 0 Conv3d-85 [-1, 128, 16, 16, 16] 884,736 _ConvModernNd-86 [-1, 128, 16, 16, 16] 0 _BlockConvStkNd-87 [-1, 128, 16, 16, 16] 0 InstanceNorm3d-88 [-1, 128, 16, 16, 15] 256 PReLU-89 [-1, 128, 16, 16, 15] 128 Conv3d-90 [-1, 128, 16, 16, 15] 442,368 _ConvModernNd-91 [-1, 128, 16, 16, 15] 0 InstanceNorm3d-92 [-1, 128, 16, 16, 15] 256 PReLU-93 [-1, 128, 16, 16, 15] 128 Upsample-94 [-1, 128, 32, 32, 30] 0 Conv3d-95 [-1, 64, 32, 32, 30] 221,184 _ConvModernNd-96 [-1, 64, 32, 32, 30] 0 _BlockConvStkNd-97 [-1, 64, 32, 32, 30] 0 InstanceNorm3d-98 [-1, 64, 31, 32, 30] 128 PReLU-99 [-1, 64, 31, 32, 30] 64 Conv3d-100 [-1, 64, 31, 32, 30] 110,592 _ConvModernNd-101 [-1, 64, 31, 32, 30] 0 InstanceNorm3d-102 [-1, 64, 31, 32, 30] 128 PReLU-103 [-1, 64, 31, 32, 30] 64 Conv3d-104 [-1, 64, 31, 32, 30] 110,592 _ConvModernNd-105 [-1, 64, 31, 32, 30] 0 _BlockConvStkNd-106 [-1, 64, 31, 32, 30] 0 Conv3d-107 [-1, 3, 31, 32, 30] 24,003 AE3d-108 [-1, 3, 31, 32, 30] 0 ================================================================ Total params: 102,699,843 Trainable params: 102,699,843 Non-trainable params: 0 ---------------------------------------------------------------- Input size (MB): 0.34 Forward/backward pass size (MB): 408.27 Params size (MB): 391.77 Estimated Total Size (MB): 800.38 ----------------------------------------------------------------","t
…
cause the same padding is used for the input. In this case, if we want to make a reverse layer, we could specify the output_size for the up-sampling layer, for example: Example 2 Codes 1 2 3 4 import mdnc layer = mdnc . modules . conv . ConvModern1d ( 32 , 16 , kernel_size = 3 , output_size = 255 , padding = 1 , scaler = 'up' ) mdnc . contribs . torchsummary . summary ( layer , ( 32 , 128 ), device = 'cpu' ) Output ---------------------------------------------------------------- Layer (type) Output Shape Param # ================================================================ InstanceNorm1d-1 [-1, 32, 128] 64 PReLU-2 [-1, 32, 128] 32 Upsample-3 [-1, 32, 255] 0 Conv1d-4 [-1, 16, 255] 1,536 ConvModern1d-5 [-1, 16, 255] 0 ================================================================ Total params: 1,632 Trainable params: 1,632 Non-trainable params: 0 ---------------------------------------------------------------- Input size (MB): 0.02 Forward/backward pass size (MB): 0.19 Params size (MB): 0.01 Estimated Total Size (MB): 0.21 ----------------------------------------------------------------","title":"<span class
…
r both two axes of the input size. In this case, if we want to make a reverse layer, we could specify the output_size for the up-sampling layer, for example: Example 2 Codes 1 2 3 4 import mdnc layer = mdnc . modules . conv . ConvModern2d ( 32 , 16 , kernel_size = 3 , output_size = ( 4 , 255 ), padding = 1 , scaler = 'up' ) mdnc . contribs . torchsummary . summary ( layer , ( 32 , 4 , 128 ), device = 'cpu' ) Output ---------------------------------------------------------------- Layer (type) Output Shape Param # ================================================================ InstanceNorm2d-1 [-1, 32, 4, 128] 64 PReLU-2 [-1, 32, 4, 128] 32 Upsample-3 [-1, 32, 4, 255] 0 Conv2d-4 [-1, 16, 4, 255] 4,608 ConvModern2d-5 [-1, 16, 4, 255] 0 ================================================================ Total params: 4,704 Trainable params: 4,704 Non-trainable params: 0 ---------------------------------------------------------------- Input size (MB): 0.06 Forward/backward pass size (MB): 0.75 Params size (MB): 0.02 Estimated Total Size (MB): 0.83 ----------------------------------------------------------------","title":"<span class
…
ize. In this case, if we want to make a reverse layer, we could specify the output_size for the up-sampling layer, for example: Example 2 Codes 1 2 3 4 import mdnc layer = mdnc . modules . conv . ConvModern3d ( 32 , 16 , kernel_size = ( 3 , 1 , 3 ), output_size = ( 32 , 4 , 63 ), padding = ( 1 , 0 , 1 ), scaler = 'up' ) mdnc . contribs . torchsummary . summary ( layer , ( 32 , 16 , 4 , 32 ), device = 'cpu' ) Output ---------------------------------------------------------------- Layer (type) Output Shape Param # ================================================================ InstanceNorm3d-1 [-1, 32, 16, 4, 32] 64 PReLU-2 [-1, 32, 16, 4, 32] 32 Upsample-3 [-1, 32, 32, 4, 63] 0 Conv3d-4 [-1, 16, 32, 4, 63] 4,608 ConvModern3d-5 [-1, 16, 32, 4, 63] 0 ================================================================ Total params: 4,704 Trainable params: 4,704 Non-trainable params: 0 ---------------------------------------------------------------- Input size (MB): 0.25 Forward/backward pass size (MB): 4.94 Params size (MB): 0.02 Estimated Total Size (MB): 5.21 ----------------------------------------------------------------","title":"<span class
…
erNet1d ( 64 , [ 3 , 3 , 3 , 3 , 3 ], in_length = 32 , out_size = 128 , out_planes = 3 ) print ( 'The number of convolutional layers along the depth is {0} .' . format ( net . nlayers )) print ( 'The input size is {0} .' . format ( net . input_size )) mdnc . contribs . torchsummary . summary ( net , net . input_size , device = 'cpu' ) Output The number of convolutional layers along the depth is 18. The input size is (32,). ---------------------------------------------------------------- Layer (type) Output Shape Param # ================================================================ Conv1d-1 [-1, 1024, 4] 132,096 Conv1d-2 [-1, 1024, 4] 3,145,728 InstanceNorm1d-3 [-1, 1024, 4] 2,048 PReLU-4 [-1, 1024, 4] 1,024 Conv1d-5 [-1, 512, 4] 1,572,864 _ConvModernNd-6 [-1, 512, 4] 0 InstanceNorm1d-7 [-1, 512, 4] 1,024 PReLU-8 [-1, 512, 4] 512 Conv1d-9 [-1, 512, 4] 786,432 _ConvModernNd-10 [-1, 512, 4] 0 InstanceNorm1d-11 [-1, 512, 4] 1,024 PReLU-12 [-1, 512, 4] 512 Upsample-13 [-1, 512, 8] 0 Conv1d-14 [-1, 512, 8] 786,432 _ConvModernNd-15 [-1, 512, 8] 0 _BlockConvStkNd-16 [-1, 512, 8] 0 InstanceNorm1d-17 [-1, 512, 8] 1,024 PReLU-18 [-1, 512, 8] 512 Conv1d-19 [-1, 256, 8] 393,216 _ConvModernNd-20 [-1, 256, 8] 0 InstanceNorm1d-21 [-1, 256, 8] 512 PReLU-22 [-1, 256, 8] 256 Conv1d-23 [-1, 256, 8] 196,608 _ConvModernNd-24 [-1, 256, 8] 0 InstanceNorm1d-25 [-1, 256, 8] 512 PReLU-26 [-1, 256, 8] 256 Upsample-27 [-1, 256, 16] 0 Conv1d-28 [-1, 256, 16] 196,608 _ConvModernNd-29 [-1, 256, 16] 0 _BlockConvStkNd-30 [-1, 256, 16] 0 InstanceNorm1d-31 [-1, 256, 16] 512 PReLU-32 [-1, 256, 16] 256 Conv1d-33 [-1, 128, 16] 98,304 _ConvModernNd-34 [-1, 128, 16] 0 InstanceNorm1d-35 [-1, 128, 16] 256 PReLU-36 [-1, 128, 16] 128 Conv1d-37 [-1, 128, 16] 49,152 _ConvModernNd-38 [-1, 128, 16] 0 InstanceNorm1d-39 [-1, 128, 16] 256 PReLU-40 [-1, 128, 16] 128 Upsample-41 [-1, 128, 32] 0 Conv1d-42 [-1, 128, 32] 49,152 _ConvModernNd-43 [-1, 128, 32] 0 _BlockConvStkNd-44 [-1, 128, 32] 0 InstanceNorm1d-45 [-1, 128, 32] 256 PReLU-46 [-1, 128, 32] 128 Conv1d-47 [-1, 64, 32] 24,576 _ConvModernNd-48 [-1, 64, 32] 0 InstanceNorm1d-49 [-1, 64, 32] 128 PReLU-50 [-1, 64, 32] 64 Conv1d-51 [-1, 64, 32] 12,288 _ConvModernNd-52 [-1, 64, 32] 0 InstanceNorm1d-53 [-1, 64, 32] 128 PReLU-54 [-1, 64, 32] 64 Upsample-55 [-1, 64, 64] 0 Conv1d-56 [-1, 64, 64] 12,288 _ConvModernNd-57 [-1, 64, 64] 0 _BlockConvStkNd-58 [-1, 64, 64] 0 InstanceNorm1d-59 [-1, 64, 64] 128 PReLU-60 [-1, 64, 64] 64 Conv1d-61 [-1, 64, 64] 12,288 _ConvModernNd-62 [-1, 64, 64] 0 InstanceNorm1d-63 [-1, 64, 64] 128 PReLU-64 [-1, 64, 64] 64 Conv1d-65 [-1, 64, 64] 12,288 _ConvModernNd-66 [-1, 64, 64] 0 InstanceNorm1d-67 [-1, 64, 64] 128 PReLU-68 [-1, 64, 64] 64 Upsample-69 [-1, 64, 128] 0 Conv1d-70 [-1, 64, 128] 12,288 _ConvModernNd-71 [-1, 64, 128] 0 _BlockConvStkNd-72 [-1, 64, 128] 0 Conv1d-73 [-1, 3, 128] 963 DecoderNet1d-74 [-1, 3, 128] 0 ================================================================ Total params: 7,505,667 Trainable params: 7,505,667 Non-trainable params: 0 ---------------------------------------------------------------- Input size (MB): 0.00 Forward/backward pass size (MB): 1.88 Params size (MB): 28.63 Estimated Total Size (MB): 30.51 ---------------------------------------------------------------- Example 2 C
…
d ( 64 , [ 3 , 3 , 3 , 3 , 3 ], in_length = None , out_size = 128 , out_planes = 3 ) print ( 'The number of convolutional layers along the depth is {0} .' . format ( net . nlayers )) print ( 'The input size is {0} .' . format ( net . input_size )) mdnc . contribs . torchsummary . summary ( net , net . input_size , device = 'cpu' ) Output The number of convolutional layers along the depth is 17. The input size is (1024, 4). ---------------------------------------------------------------- Layer (type) Output Shape Param # ================================================================ Conv1d-1 [-1, 1024, 4] 3,145,728 InstanceNorm1d-2 [-1, 1024, 4] 2,048 PReLU-3 [-1, 1024, 4] 1,024 Conv1d-4 [-1, 512, 4] 1,572,864 _ConvModernNd-5 [-1, 512, 4] 0 InstanceNorm1d-6 [-1, 512, 4] 1,024 PReLU-7 [-1, 512, 4] 512 Conv1d-8 [-1, 512, 4] 786,432 _ConvModernNd-9 [-1, 512, 4] 0 InstanceNorm1d-10 [-1, 512, 4] 1,024 PReLU-11 [-1, 512, 4] 512 Upsample-12 [-1, 512, 8] 0 Conv1d-13 [-1, 512, 8] 786,432 _ConvModernNd-14 [-1, 512, 8] 0 _BlockConvStkNd-15 [-1, 512, 8] 0 InstanceNorm1d-16 [-1, 512, 8] 1,024 PReLU-17 [-1, 512, 8] 512 Conv1d-18 [-1, 256, 8] 393,216 _ConvModernNd-19 [-1, 256, 8] 0 InstanceNorm1d-20 [-1, 256, 8] 512 PReLU-21 [-1, 256, 8] 256 Conv1d-22 [-1, 256, 8] 196,608 _ConvModernNd-23 [-1, 256, 8] 0 InstanceNorm1d-24 [-1, 256, 8] 512 PReLU-25 [-1, 256, 8] 256 Upsample-26 [-1, 256, 16] 0 Conv1d-27 [-1, 256, 16] 196,608 _ConvModernNd-28 [-1, 256, 16] 0 _BlockConvStkNd-29 [-1, 256, 16] 0 InstanceNorm1d-30 [-1, 256, 16] 512 PReLU-31 [-1, 256, 16] 256 Conv1d-32 [-1, 128, 16] 98,304 _ConvModernNd-33 [-1, 128, 16] 0 InstanceNorm1d-34 [-1, 128, 16] 256 PReLU-35 [-1, 128, 16] 128 Conv1d-36 [-1, 128, 16] 49,152 _ConvModernNd-37 [-1, 128, 16] 0 InstanceNorm1d-38 [-1, 128, 16] 256 PReLU-39 [-1, 128, 16] 128 Upsample-40 [-1, 128, 32] 0 Conv1d-41 [-1, 128, 32] 49,152 _ConvModernNd-42 [-1, 128, 32] 0 _BlockConvStkNd-43 [-1, 128, 32] 0 InstanceNorm1d-44 [-1, 128, 32] 256 PReLU-45 [-1, 128, 32] 128 Conv1d-46 [-1, 64, 32] 24,576 _ConvModernNd-47 [-1, 64, 32] 0 InstanceNorm1d-48 [-1, 64, 32] 128 PReLU-49 [-1, 64, 32] 64 Conv1d-50 [-1, 64, 32] 12,288 _ConvModernNd-51 [-1, 64, 32] 0 InstanceNorm1d-52 [-1, 64, 32] 128 PReLU-53 [-1, 64, 32] 64 Upsample-54 [-1, 64, 64] 0 Conv1d-55 [-1, 64, 64] 12,288 _ConvModernNd-56 [-1, 64, 64] 0 _BlockConvStkNd-57 [-1, 64, 64] 0 InstanceNorm1d-58 [-1, 64, 64] 128 PReLU-59 [-1, 64, 64] 64 Conv1d-60 [-1, 64, 64] 12,288 _ConvModernNd-61 [-1, 64, 64] 0 InstanceNorm1d-62 [-1, 64, 64] 128 PReLU-63 [-1, 64, 64] 64 Conv1d-64 [-1, 64, 64] 12,288 _ConvModernNd-65 [-1, 64, 64] 0 InstanceNorm1d-66 [-1, 64, 64] 128 PReLU-67 [-1, 64, 64] 64 Upsample-68 [-1, 64, 128] 0 Conv1d-69 [-1, 64, 128] 12,288 _ConvModernNd-70 [-1, 64, 128] 0 _BlockConvStkNd-71 [-1, 64, 128] 0 Conv1d-72 [-1, 3, 128] 963 DecoderNet1d-73 [-1, 3, 128] 0 ================================================================ Total params: 7,373,571 Trainable params: 7,373,571 Non-trainable params: 0 ---------------------------------------------------------------- Input size (MB): 0.02 Forward/backward pass size (MB): 1.85 Params size (MB): 28.13 Estimated Total Size (MB): 29.99 ----------------------------------------------------------------","title":"<
…
 ( 64 , [ 3 , 3 , 3 , 3 , 3 ], in_length = 32 , out_size = ( 64 , 63 ), out_planes = 3 ) print ( 'The number of convolutional layers along the depth is {0} .' . format ( net . nlayers )) print ( 'The input size is {0} .' . format ( net . input_size )) mdnc . contribs . torchsummary . summary ( net , net . input_size , device = 'cpu' ) Output The number of convolutional layers along the depth is 18. The input size is (32,). ---------------------------------------------------------------- Layer (type) Output Shape Param # ================================================================ Conv2d-1 [-1, 1024, 2, 2] 132,096 Conv2d-2 [-1, 1024, 2, 2] 9,437,184 InstanceNorm2d-3 [-1, 1024, 2, 2] 2,048 PReLU-4 [-1, 1024, 2, 2] 1,024 Conv2d-5 [-1, 512, 2, 2] 4,718,592 _ConvModernNd-6 [-1, 512, 2, 2] 0 InstanceNorm2d-7 [-1, 512, 2, 2] 1,024 PReLU-8 [-1, 512, 2, 2] 512 Conv2d-9 [-1, 512, 2, 2] 2,359,296 _ConvModernNd-10 [-1, 512, 2, 2] 0 InstanceNorm2d-11 [-1, 512, 2, 2] 1,024 PReLU-12 [-1, 512, 2, 2] 512 Upsample-13 [-1, 512, 4, 4] 0 Conv2d-14 [-1, 512, 4, 4] 2,359,296 _ConvModernNd-15 [-1, 512, 4, 4] 0 _BlockConvStkNd-16 [-1, 512, 4, 4] 0 InstanceNorm2d-17 [-1, 512, 4, 4] 1,024 PReLU-18 [-1, 512, 4, 4] 512 Conv2d-19 [-1, 256, 4, 4] 1,179,648 _ConvModernNd-20 [-1, 256, 4, 4] 0 InstanceNorm2d-21 [-1, 256, 4, 4] 512 PReLU-22 [-1, 256, 4, 4] 256 Conv2d-23 [-1, 256, 4, 4] 589,824 _ConvModernNd-24 [-1, 256, 4, 4] 0 InstanceNorm2d-25 [-1, 256, 4, 4] 512 PReLU-26 [-1, 256, 4, 4] 256 Upsample-27 [-1, 256, 8, 8] 0 Conv2d-28 [-1, 256, 8, 8] 589,824 _ConvModernNd-29 [-1, 256, 8, 8] 0 _BlockConvStkNd-30 [-1, 256, 8, 8] 0 InstanceNorm2d-31 [-1, 256, 8, 8] 512 PReLU-32 [-1, 256, 8, 8] 256 Conv2d-33 [-1, 128, 8, 8] 294,912 _ConvModernNd-34 [-1, 128, 8, 8] 0 InstanceNorm2d-35 [-1, 128, 8, 8] 256 PReLU-36 [-1, 128, 8, 8] 128 Conv2d-37 [-1, 128, 8, 8] 147,456 _ConvModernNd-38 [-1, 128, 8, 8] 0 InstanceNorm2d-39 [-1, 128, 8, 8] 256 PReLU-40 [-1, 128, 8, 8] 128 Upsample-41 [-1, 128, 16, 16] 0 Conv2d-42 [-1, 128, 16, 16] 147,456 _ConvModernNd-43 [-1, 128, 16, 16] 0 _BlockConvStkNd-44 [-1, 128, 16, 16] 0 InstanceNorm2d-45 [-1, 128, 16, 16] 256 PReLU-46 [-1, 128, 16, 16] 128 Conv2d-47 [-1, 64, 16, 16] 73,728 _ConvModernNd-48 [-1, 64, 16, 16] 0 InstanceNorm2d-49 [-1, 64, 16, 16] 128 PReLU-50 [-1, 64, 16, 16] 64 Conv2d-51 [-1, 64, 16, 16] 36,864 _ConvModernNd-52 [-1, 64, 16, 16] 0 InstanceNorm2d-53 [-1, 64, 16, 16] 128 PReLU-54 [-1, 64, 16, 16] 64 Upsample-55 [-1, 64, 32, 32] 0 Conv2d-56 [-1, 64, 32, 32] 36,864 _ConvModernNd-57 [-1, 64, 32, 32] 0 _BlockConvStkNd-58 [-1, 64, 32, 32] 0 InstanceNorm2d-59 [-1, 64, 32, 32] 128 PReLU-60 [-1, 64, 32, 32] 64 Conv2d-61 [-1, 64, 32, 32] 36,864 _ConvModernNd-62 [-1, 64, 32, 32] 0 InstanceNorm2d-63 [-1, 64, 32, 32] 128 PReLU-64 [-1, 64, 32, 32] 64 Conv2d-65 [-1, 64, 32, 32] 36,864 _ConvModernNd-66 [-1, 64, 32, 32] 0 InstanceNorm2d-67 [-1, 64, 32, 32] 128 PReLU-68 [-1, 64, 32, 32] 64 Upsample-69 [-1, 64, 64, 64] 0 Conv2d-70 [-1, 64, 64, 64] 36,864 _ConvModernNd-71 [-1, 64, 64, 64] 0 _BlockConvStkNd-72 [-1, 64, 64, 64] 0 Conv2d-73 [-1, 3, 64, 63] 4,803 DecoderNet2d-74 [-1, 3, 64, 63] 0 ================================================================ Total params: 22,230,531 Trainable params: 22,230,531 Non-trainable params: 0 ---------------------------------------------------------------- Input size (MB): 0.00 Forward/backward pass size (MB): 19.81 Params size (MB): 84.80 Estimated Total Size (MB): 104.61 ---------------------------------------------------------------- Example
…
 3 , 3 , 3 , 3 , 3 ], in_length = None , out_size = ( 64 , 63 ), out_planes = 3 ) print ( 'The number of convolutional layers along the depth is {0} .' . format ( net . nlayers )) print ( 'The input size is {0} .' . format ( net . input_size )) mdnc . contribs . torchsummary . summary ( net , net . input_size , device = 'cpu' ) Output The number of convolutional layers along the depth is 17. The input size is (1024, 2, 2). ---------------------------------------------------------------- Layer (type) Output Shape Param # ================================================================ Conv2d-1 [-1, 1024, 2, 2] 9,437,184 InstanceNorm2d-2 [-1, 1024, 2, 2] 2,048 PReLU-3 [-1, 1024, 2, 2] 1,024 Conv2d-4 [-1, 512, 2, 2] 4,718,592 _ConvModernNd-5 [-1, 512, 2, 2] 0 InstanceNorm2d-6 [-1, 512, 2, 2] 1,024 PReLU-7 [-1, 512, 2, 2] 512 Conv2d-8 [-1, 512, 2, 2] 2,359,296 _ConvModernNd-9 [-1, 512, 2, 2] 0 InstanceNorm2d-10 [-1, 512, 2, 2] 1,024 PReLU-11 [-1, 512, 2, 2] 512 Upsample-12 [-1, 512, 4, 4] 0 Conv2d-13 [-1, 512, 4, 4] 2,359,296 _ConvModernNd-14 [-1, 512, 4, 4] 0 _BlockConvStkNd-15 [-1, 512, 4, 4] 0 InstanceNorm2d-16 [-1, 512, 4, 4] 1,024 PReLU-17 [-1, 512, 4, 4] 512 Conv2d-18 [-1, 256, 4, 4] 1,179,648 _ConvModernNd-19 [-1, 256, 4, 4] 0 InstanceNorm2d-20 [-1, 256, 4, 4] 512 PReLU-21 [-1, 256, 4, 4] 256 Conv2d-22 [-1, 256, 4, 4] 589,824 _ConvModernNd-23 [-1, 256, 4, 4] 0 InstanceNorm2d-24 [-1, 256, 4, 4] 512 PReLU-25 [-1, 256, 4, 4] 256 Upsample-26 [-1, 256, 8, 8] 0 Conv2d-27 [-1, 256, 8, 8] 589,824 _ConvModernNd-28 [-1, 256, 8, 8] 0 _BlockConvStkNd-29 [-1, 256, 8, 8] 0 InstanceNorm2d-30 [-1, 256, 8, 8] 512 PReLU-31 [-1, 256, 8, 8] 256 Conv2d-32 [-1, 128, 8, 8] 294,912 _ConvModernNd-33 [-1, 128, 8, 8] 0 InstanceNorm2d-34 [-1, 128, 8, 8] 256 PReLU-35 [-1, 128, 8, 8] 128 Conv2d-36 [-1, 128, 8, 8] 147,456 _ConvModernNd-37 [-1, 128, 8, 8] 0 InstanceNorm2d-38 [-1, 128, 8, 8] 256 PReLU-39 [-1, 128, 8, 8] 128 Upsample-40 [-1, 128, 16, 16] 0 Conv2d-41 [-1, 128, 16, 16] 147,456 _ConvModernNd-42 [-1, 128, 16, 16] 0 _BlockConvStkNd-43 [-1, 128, 16, 16] 0 InstanceNorm2d-44 [-1, 128, 16, 16] 256 PReLU-45 [-1, 128, 16, 16] 128 Conv2d-46 [-1, 64, 16, 16] 73,728 _ConvModernNd-47 [-1, 64, 16, 16] 0 InstanceNorm2d-48 [-1, 64, 16, 16] 128 PReLU-49 [-1, 64, 16, 16] 64 Conv2d-50 [-1, 64, 16, 16] 36,864 _ConvModernNd-51 [-1, 64, 16, 16] 0 InstanceNorm2d-52 [-1, 64, 16, 16] 128 PReLU-53 [-1, 64, 16, 16] 64 Upsample-54 [-1, 64, 32, 32] 0 Conv2d-55 [-1, 64, 32, 32] 36,864 _ConvModernNd-56 [-1, 64, 32, 32] 0 _BlockConvStkNd-57 [-1, 64, 32, 32] 0 InstanceNorm2d-58 [-1, 64, 32, 32] 128 PReLU-59 [-1, 64, 32, 32] 64 Conv2d-60 [-1, 64, 32, 32] 36,864 _ConvModernNd-61 [-1, 64, 32, 32] 0 InstanceNorm2d-62 [-1, 64, 32, 32] 128 PReLU-63 [-1, 64, 32, 32] 64 Conv2d-64 [-1, 64, 32, 32] 36,864 _ConvModernNd-65 [-1, 64, 32, 32] 0 InstanceNorm2d-66 [-1, 64, 32, 32] 128 PReLU-67 [-1, 64, 32, 32] 64 Upsample-68 [-1, 64, 64, 64] 0 Conv2d-69 [-1, 64, 64, 64] 36,864 _ConvModernNd-70 [-1, 64, 64, 64] 0 _BlockConvStkNd-71 [-1, 64, 64, 64] 0 Conv2d-72 [-1, 3, 64, 63] 4,803 DecoderNet2d-73 [-1, 3, 64, 63] 0 ================================================================ Total params: 22,098,435 Trainable params: 22,098,435 Non-trainable params: 0 ---------------------------------------------------------------- Input size (MB): 0.02 Forward/backward pass size (MB): 19.78 Params size (MB): 84.30 Estimated Total Size (MB): 104.09 ----------------------------------------------------------------","title
…
 , [ 3 , 3 , 3 , 3 , 3 ], in_length = 32 , out_size = ( 31 , 32 , 30 ), out_planes = 3 ) print ( 'The number of convolutional layers along the depth is {0} .' . format ( net . nlayers )) print ( 'The input size is {0} .' . format ( net . input_size )) mdnc . contribs . torchsummary . summary ( net , net . input_size , device = 'cpu' ) Output The number of convolutional layers along the depth is 18. The input size is (32,). ---------------------------------------------------------------- Layer (type) Output Shape Param # ================================================================ Conv3d-1 [-1, 1024, 1, 1, 1] 33,792 Conv3d-2 [-1, 1024, 1, 1, 1] 28,311,552 InstanceNorm3d-3 [-1, 1024, 1, 1, 1] 2,048 PReLU-4 [-1, 1024, 1, 1, 1] 1,024 Conv3d-5 [-1, 512, 1, 1, 1] 14,155,776 _ConvModernNd-6 [-1, 512, 1, 1, 1] 0 InstanceNorm3d-7 [-1, 512, 1, 1, 1] 1,024 PReLU-8 [-1, 512, 1, 1, 1] 512 Conv3d-9 [-1, 512, 1, 1, 1] 7,077,888 _ConvModernNd-10 [-1, 512, 1, 1, 1] 0 InstanceNorm3d-11 [-1, 512, 1, 1, 1] 1,024 PReLU-12 [-1, 512, 1, 1, 1] 512 Upsample-13 [-1, 512, 2, 2, 2] 0 Conv3d-14 [-1, 512, 2, 2, 2] 7,077,888 _ConvModernNd-15 [-1, 512, 2, 2, 2] 0 _BlockConvStkNd-16 [-1, 512, 2, 2, 2] 0 InstanceNorm3d-17 [-1, 512, 2, 2, 2] 1,024 PReLU-18 [-1, 512, 2, 2, 2] 512 Conv3d-19 [-1, 256, 2, 2, 2] 3,538,944 _ConvModernNd-20 [-1, 256, 2, 2, 2] 0 InstanceNorm3d-21 [-1, 256, 2, 2, 2] 512 PReLU-22 [-1, 256, 2, 2, 2] 256 Conv3d-23 [-1, 256, 2, 2, 2] 1,769,472 _ConvModernNd-24 [-1, 256, 2, 2, 2] 0 InstanceNorm3d-25 [-1, 256, 2, 2, 2] 512 PReLU-26 [-1, 256, 2, 2, 2] 256 Upsample-27 [-1, 256, 4, 4, 4] 0 Conv3d-28 [-1, 256, 4, 4, 4] 1,769,472 _ConvModernNd-29 [-1, 256, 4, 4, 4] 0 _BlockConvStkNd-30 [-1, 256, 4, 4, 4] 0 InstanceNorm3d-31 [-1, 256, 4, 4, 4] 512 PReLU-32 [-1, 256, 4, 4, 4] 256 Conv3d-33 [-1, 128, 4, 4, 4] 884,736 _ConvModernNd-34 [-1, 128, 4, 4, 4] 0 InstanceNorm3d-35 [-1, 128, 4, 4, 4] 256 PReLU-36 [-1, 128, 4, 4, 4] 128 Conv3d-37 [-1, 128, 4, 4, 4] 442,368 _ConvModernNd-38 [-1, 128, 4, 4, 4] 0 InstanceNorm3d-39 [-1, 128, 4, 4, 4] 256 PReLU-40 [-1, 128, 4, 4, 4] 128 Upsample-41 [-1, 128, 8, 8, 8] 0 Conv3d-42 [-1, 128, 8, 8, 8] 442,368 _ConvModernNd-43 [-1, 128, 8, 8, 8] 0 _BlockConvStkNd-44 [-1, 128, 8, 8, 8] 0 InstanceNorm3d-45 [-1, 128, 8, 8, 8] 256 PReLU-46 [-1, 128, 8, 8, 8] 128 Conv3d-47 [-1, 64, 8, 8, 8] 221,184 _ConvModernNd-48 [-1, 64, 8, 8, 8] 0 InstanceNorm3d-49 [-1, 64, 8, 8, 8] 128 PReLU-50 [-1, 64, 8, 8, 8] 64 Conv3d-51 [-1, 64, 8, 8, 8] 110,592 _ConvModernNd-52 [-1, 64, 8, 8, 8] 0 InstanceNorm3d-53 [-1, 64, 8, 8, 8] 128 PReLU-54 [-1, 64, 8, 8, 8] 64 Upsample-55 [-1, 64, 16, 16, 16] 0 Conv3d-56 [-1, 64, 16, 16, 16] 110,592 _ConvModernNd-57 [-1, 64, 16, 16, 16] 0 _BlockConvStkNd-58 [-1, 64, 16, 16, 16] 0 InstanceNorm3d-59 [-1, 64, 16, 16, 15] 128 PReLU-60 [-1, 64, 16, 16, 15] 64 Conv3d-61 [-1, 64, 16, 16, 15] 110,592 _ConvModernNd-62 [-1, 64, 16, 16, 15] 0 InstanceNorm3d-63 [-1, 64, 16, 16, 15] 128 PReLU-64 [-1, 64, 16, 16, 15] 64 Conv3d-65 [-1, 64, 16, 16, 15] 110,592 _ConvModernNd-66 [-1, 64, 16, 16, 15] 0 InstanceNorm3d-67 [-1, 64, 16, 16, 15] 128 PReLU-68 [-1, 64, 16, 16, 15] 64 Upsample-69 [-1, 64, 32, 32, 30] 0 Conv3d-70 [-1, 64, 32, 32, 30] 110,592 _ConvModernNd-71 [-1, 64, 32, 32, 30] 0 _BlockConvStkNd-72 [-1, 64, 32, 32, 30] 0 Conv3d-73 [-1, 3, 31, 32, 30] 24,003 DecoderNet3d-74 [-1, 3, 31, 32, 30] 0 ================================================================ Total params: 66,314,499 Trainable params: 66,314,499 Non-trainable params: 0 ---------------------------------------------------------------- Input size (MB): 0.00 Forward/backward pass size (MB): 94.74 Params size (MB): 252.97 Estimated Total Size (MB): 347.71 ---------------------------------------------------------------- Exampl
…
 3 , 3 , 3 ], in_length = None , out_size = ( 31 , 32 , 30 ), out_planes = 3 ) print ( 'The number of convolutional layers along the depth is {0} .' . format ( net . nlayers )) print ( 'The input size is {0} .' . format ( net . input_size )) mdnc . contribs . torchsummary . summary ( net , net . input_size , device = 'cpu' ) Output The number of convolutional layers along the depth is 17. The input size is (1024, 1, 1, 1). ---------------------------------------------------------------- Layer (type) Output Shape Param # ================================================================ Conv3d-1 [-1, 1024, 1, 1, 1] 28,311,552 InstanceNorm3d-2 [-1, 1024, 1, 1, 1] 2,048 PReLU-3 [-1, 1024, 1, 1, 1] 1,024 Conv3d-4 [-1, 512, 1, 1, 1] 14,155,776 _ConvModernNd-5 [-1, 512, 1, 1, 1] 0 InstanceNorm3d-6 [-1, 512, 1, 1, 1] 1,024 PReLU-7 [-1, 512, 1, 1, 1] 512 Conv3d-8 [-1, 512, 1, 1, 1] 7,077,888 _ConvModernNd-9 [-1, 512, 1, 1, 1] 0 InstanceNorm3d-10 [-1, 512, 1, 1, 1] 1,024 PReLU-11 [-1, 512, 1, 1, 1] 512 Upsample-12 [-1, 512, 2, 2, 2] 0 Conv3d-13 [-1, 512, 2, 2, 2] 7,077,888 _ConvModernNd-14 [-1, 512, 2, 2, 2] 0 _BlockConvStkNd-15 [-1, 512, 2, 2, 2] 0 InstanceNorm3d-16 [-1, 512, 2, 2, 2] 1,024 PReLU-17 [-1, 512, 2, 2, 2] 512 Conv3d-18 [-1, 256, 2, 2, 2] 3,538,944 _ConvModernNd-19 [-1, 256, 2, 2, 2] 0 InstanceNorm3d-20 [-1, 256, 2, 2, 2] 512 PReLU-21 [-1, 256, 2, 2, 2] 256 Conv3d-22 [-1, 256, 2, 2, 2] 1,769,472 _ConvModernNd-23 [-1, 256, 2, 2, 2] 0 InstanceNorm3d-24 [-1, 256, 2, 2, 2] 512 PReLU-25 [-1, 256, 2, 2, 2] 256 Upsample-26 [-1, 256, 4, 4, 4] 0 Conv3d-27 [-1, 256, 4, 4, 4] 1,769,472 _ConvModernNd-28 [-1, 256, 4, 4, 4] 0 _BlockConvStkNd-29 [-1, 256, 4, 4, 4] 0 InstanceNorm3d-30 [-1, 256, 4, 4, 4] 512 PReLU-31 [-1, 256, 4, 4, 4] 256 Conv3d-32 [-1, 128, 4, 4, 4] 884,736 _ConvModernNd-33 [-1, 128, 4, 4, 4] 0 InstanceNorm3d-34 [-1, 128, 4, 4, 4] 256 PReLU-35 [-1, 128, 4, 4, 4] 128 Conv3d-36 [-1, 128, 4, 4, 4] 442,368 _ConvModernNd-37 [-1, 128, 4, 4, 4] 0 InstanceNorm3d-38 [-1, 128, 4, 4, 4] 256 PReLU-39 [-1, 128, 4, 4, 4] 128 Upsample-40 [-1, 128, 8, 8, 8] 0 Conv3d-41 [-1, 128, 8, 8, 8] 442,368 _ConvModernNd-42 [-1, 128, 8, 8, 8] 0 _BlockConvStkNd-43 [-1, 128, 8, 8, 8] 0 InstanceNorm3d-44 [-1, 128, 8, 8, 8] 256 PReLU-45 [-1, 128, 8, 8, 8] 128 Conv3d-46 [-1, 64, 8, 8, 8] 221,184 _ConvModernNd-47 [-1, 64, 8, 8, 8] 0 InstanceNorm3d-48 [-1, 64, 8, 8, 8] 128 PReLU-49 [-1, 64, 8, 8, 8] 64 Conv3d-50 [-1, 64, 8, 8, 8] 110,592 _ConvModernNd-51 [-1, 64, 8, 8, 8] 0 InstanceNorm3d-52 [-1, 64, 8, 8, 8] 128 PReLU-53 [-1, 64, 8, 8, 8] 64 Upsample-54 [-1, 64, 16, 16, 16] 0 Conv3d-55 [-1, 64, 16, 16, 16] 110,592 _ConvModernNd-56 [-1, 64, 16, 16, 16] 0 _BlockConvStkNd-57 [-1, 64, 16, 16, 16] 0 InstanceNorm3d-58 [-1, 64, 16, 16, 15] 128 PReLU-59 [-1, 64, 16, 16, 15] 64 Conv3d-60 [-1, 64, 16, 16, 15] 110,592 _ConvModernNd-61 [-1, 64, 16, 16, 15] 0 InstanceNorm3d-62 [-1, 64, 16, 16, 15] 128 PReLU-63 [-1, 64, 16, 16, 15] 64 Conv3d-64 [-1, 64, 16, 16, 15] 110,592 _ConvModernNd-65 [-1, 64, 16, 16, 15] 0 InstanceNorm3d-66 [-1, 64, 16, 16, 15] 128 PReLU-67 [-1, 64, 16, 16, 15] 64 Upsample-68 [-1, 64, 32, 32, 30] 0 Conv3d-69 [-1, 64, 32, 32, 30] 110,592 _ConvModernNd-70 [-1, 64, 32, 32, 30] 0 _BlockConvStkNd-71 [-1, 64, 32, 32, 30] 0 Conv3d-72 [-1, 3, 31, 32, 30] 24,003 DecoderNet3d-73 [-1, 3, 31, 32, 30] 0 ================================================================ Total params: 66,280,707 Trainable params: 66,280,707 Non-trainable params: 0 ---------------------------------------------------------------- Input size (MB): 0.00 Forward/backward pass size (MB): 94.73 Params size (MB): 252.84 Estimated Total Size (MB): 347.57 ----------------------------------------------------------------","titl
…
yer into consideration. Examples \u00b6 Example 1 Codes 1 2 3 4 5 import mdnc net = mdnc . modules . conv . EncoderNet1d ( 64 , [ 3 , 3 , 3 , 3 , 3 ], in_planes = 3 , out_length = 32 ) print ( 'The number of convolutional layers along the depth is {0} .' . format ( net . nlayers )) mdnc . contribs . torchsummary . summary ( net , ( 3 , 128 ), device = 'cpu' ) Output The number of convolutional layers along the depth is 17. ---------------------------------------------------------------- Layer (type) Output Shape Param # ================================================================ Conv1d-1 [-1, 64, 128] 960 InstanceNorm1d-2 [-1, 64, 128] 128 PReLU-3 [-1, 64, 128] 64 Conv1d-4 [-1, 64, 128] 12,288 _ConvModernNd-5 [-1, 64, 128] 0 InstanceNorm1d-6 [-1, 64, 128] 128 PReLU-7 [-1, 64, 128] 64 Conv1d-8 [-1, 64, 128] 12,288 _ConvModernNd-9 [-1, 64, 128] 0 InstanceNorm1d-10 [-1, 64, 128] 128 PReLU-11 [-1, 64, 128] 64 Conv1d-12 [-1, 64, 64] 12,288 _ConvModernNd-13 [-1, 64, 64] 0 _BlockConvStkNd-14 [-1, 64, 64] 0 InstanceNorm1d-15 [-1, 64, 64] 128 PReLU-16 [-1, 64, 64] 64 Conv1d-17 [-1, 128, 64] 24,576 _ConvModernNd-18 [-1, 128, 64] 0 InstanceNorm1d-19 [-1, 128, 64] 256 PReLU-20 [-1, 128, 64] 128 Conv1d-21 [-1, 128, 64] 49,152 _ConvModernNd-22 [-1, 128, 64] 0 InstanceNorm1d-23 [-1, 128, 64] 256 PReLU-24 [-1, 128, 64] 128 Conv1d-25 [-1, 128, 32] 49,152 _ConvModernNd-26 [-1, 128, 32] 0 _BlockConvStkNd-27 [-1, 128, 32] 0 InstanceNorm1d-28 [-1, 128, 32] 256 PReLU-29 [-1, 128, 32] 128 Conv1d-30 [-1, 256, 32] 98,304 _ConvModernNd-31 [-1, 256, 32] 0 InstanceNorm1d-32 [-1, 256, 32] 512 PReLU-33 [-1, 256, 32] 256 Conv1d-34 [-1, 256, 32] 196,608 _ConvModernNd-35 [-1, 256, 32] 0 InstanceNorm1d-36 [-1, 256, 32] 512 PReLU-37 [-1, 256, 32] 256 Conv1d-38 [-1, 256, 16] 196,608 _ConvModernNd-39 [-1, 256, 16] 0 _BlockConvStkNd-40 [-1, 256, 16] 0 InstanceNorm1d-41 [-1, 256, 16] 512 PReLU-42 [-1, 256, 16] 256 Conv1d-43 [-1, 512, 16] 393,216 _ConvModernNd-44 [-1, 512, 16] 0 InstanceNorm1d-45 [-1, 512, 16] 1,024 PReLU-46 [-1, 512, 16] 512 Conv1d-47 [-1, 512, 16] 786,432 _ConvModernNd-48 [-1, 512, 16] 0 InstanceNorm1d-49 [-1, 512, 16] 1,024 PReLU-50 [-1, 512, 16] 512 Conv1d-51 [-1, 512, 8] 786,432 _ConvModernNd-52 [-1, 512, 8] 0 _BlockConvStkNd-53 [-1, 512, 8] 0 InstanceNorm1d-54 [-1, 512, 8] 1,024 PReLU-55 [-1, 512, 8] 512 Conv1d-56 [-1, 1024, 8] 1,572,864 _ConvModernNd-57 [-1, 1024, 8] 0 InstanceNorm1d-58 [-1, 1024, 8] 2,048 PReLU-59 [-1, 1024, 8] 1,024 Conv1d-60 [-1, 1024, 8] 3,145,728 _ConvModernNd-61 [-1, 1024, 8] 0 InstanceNorm1d-62 [-1, 1024, 8] 2,048 PReLU-63 [-1, 1024, 8] 1,024 Conv1d-64 [-1, 1024, 4] 3,145,728 _ConvModernNd-65 [-1, 1024, 4] 0 _BlockConvStkNd-66 [-1, 1024, 4] 0 Conv1d-67 [-1, 1024, 4] 3,146,752 AdaptiveAvgPool1d-68 [-1, 1024, 1] 0 Linear-69 [-1, 32] 32,800 EncoderNet1d-70 [-1, 32] 0 ================================================================ Total params: 13,677,152 Trainable params: 13,677,152 Non-trainable params: 0 ---------------------------------------------------------------- Input size (MB): 0.00 Forward/backward pass size (MB): 3.45 Params size (MB): 52.17 Estimated Total Size (MB): 55.62 ---------------------------------------------------------------- Example 2 Codes 1 2 3 4 5 import mdnc net = mdnc . modules . conv . EncoderNet1d ( 64 , [ 3 , 3 , 3 , 3 , 3 ], in_planes = 3 , out_length = None ) print ( 'The number of convolutional layers along the depth is {0} .' . format ( net . nlayers )) mdnc . contribs . torchsummary . summary ( net , ( 3 , 128 ), device = 'cpu' ) Output The number of convolutional layers along the depth is 17. ---------------------------------------------------------------- Layer (type) Output Shape Param # ================================================================ Conv1d-1 [-1, 64, 128] 960 InstanceNorm1d-2 [-1, 64, 128] 128 PReLU-3 [-1, 64, 128] 64 Conv1d-4 [-1, 64, 128] 12,288 _ConvModernNd-5 [-1, 64, 128] 0 InstanceNorm1d-6 [-1, 64, 128] 128 PReLU-7 [-1, 64, 128] 64 Conv1d-8 [-1, 64, 128] 12,288 _ConvModernNd-9 [-1, 64, 128] 0 InstanceNorm1d-10 [-1, 64, 128] 128 PReLU-11 [-1, 64, 128] 64 Conv1d-12 [-1, 64, 64] 12,288 _ConvModernNd-13 [-1, 64, 64] 0 _BlockConvStkNd-14 [-1, 64, 64] 0 InstanceNorm1d-15 [-1, 64, 64] 128 PReLU-16 [-1, 64, 64] 64 Conv1d-17 [-1, 128, 64] 24,576 _ConvModernNd-18 [-1, 128, 64] 0 InstanceNorm1d-19 [-1, 128, 64] 256 PReLU-20 [-1, 128, 64] 128 Conv1d-21 [-1, 128, 64] 49,152 _ConvModernNd-22 [-1, 128, 64] 0 InstanceNorm1d-23 [-1, 128, 64] 256 PReLU-24 [-1, 128, 64] 128 Conv1d-25 [-1, 128, 32] 49,152 _ConvModernNd-26 [-1, 128, 32] 0 _BlockConvStkNd-27 [-1, 128, 32] 0 InstanceNorm1d-28 [-1, 128, 32] 256 PReLU-29 [-1, 128, 32] 128 Conv1d-30 [-1, 256, 32] 98,304 _ConvModernNd-31 [-1, 256, 32] 0 InstanceNorm1d-32 [-1, 256, 32] 512 PReLU-33 [-1, 256, 32] 256 Conv1d-34 [-1, 256, 32] 196,608 _ConvModernNd-35 [-1, 256, 32] 0 InstanceNorm1d-36 [-1, 256, 32] 512 PReLU-37 [-1, 256, 32] 256 Conv1d-38 [-1, 256, 16] 196,608 _ConvModernNd-39 [-1, 256, 16] 0 _BlockConvStkNd-40 [-1, 256, 16] 0 InstanceNorm1d-41 [-1, 256, 16] 512 PReLU-42 [-1, 256, 16] 256 Conv1d-43 [-1, 512, 16] 393,216 _ConvModernNd-44 [-1, 512, 16] 0 InstanceNorm1d-45 [-1, 512, 16] 1,024 PReLU-46 [-1, 512, 16] 512 Conv1d-47 [-1, 512, 16] 786,432 _ConvModernNd-48 [-1, 512, 16] 0 InstanceNorm1d-49 [-1, 512, 16] 1,024 PReLU-50 [-1, 512, 16] 512 Conv1d-51 [-1, 512, 8] 786,432 _ConvModernNd-52 [-1, 512, 8] 0 _BlockConvStkNd-53 [-1, 512, 8] 0 InstanceNorm1d-54 [-1, 512, 8] 1,024 PReLU-55 [-1, 512, 8] 512 Conv1d-56 [-1, 1024, 8] 1,572,864 _ConvModernNd-57 [-1, 1024, 8] 0 InstanceNorm1d-58 [-1, 1024, 8] 2,048 PReLU-59 [-1, 1024, 8] 1,024 Conv1d-60 [-1, 1024, 8] 3,145,728 _ConvModernNd-61 [-1, 1024, 8] 0 InstanceNorm1d-62 [-1, 1024, 8] 2,048 PReLU-63 [-1, 1024, 8] 1,024 Conv1d-64 [-1, 1024, 4] 3,145,728 _ConvModernNd-65 [-1, 1024, 4] 0 _BlockConvStkNd-66 [-1, 1024, 4] 0 Conv1d-67 [-1, 1024, 4] 3,146,752 EncoderNet1d-68 [-1, 1024, 4] 0 ================================================================ Total params: 13,644,352 Trainable params: 13,644,352 Non-trainable params: 0 ---------------------------------------------------------------- Input size (MB): 0.00 Forward/backward pass size (MB): 3.47 Params size (MB): 52.05 Estimated Total Size (MB): 55.52 ----------------------------------------------------------------","title":
…
into consideration. Examples \u00b6 Example 1 Codes 1 2 3 4 5 import mdnc net = mdnc . modules . conv . EncoderNet2d ( 64 , [ 3 , 3 , 3 , 3 , 3 ], in_planes = 3 , out_length = 32 ) print ( 'The number of convolutional layers along the depth is {0} .' . format ( net . nlayers )) mdnc . contribs . torchsummary . summary ( net , ( 3 , 64 , 63 ), device = 'cpu' ) Output The number of convolutional layers along the depth is 17. ---------------------------------------------------------------- Layer (type) Output Shape Param # ================================================================ Conv2d-1 [-1, 64, 64, 63] 4,800 InstanceNorm2d-2 [-1, 64, 64, 63] 128 PReLU-3 [-1, 64, 64, 63] 64 Conv2d-4 [-1, 64, 64, 63] 36,864 _ConvModernNd-5 [-1, 64, 64, 63] 0 InstanceNorm2d-6 [-1, 64, 64, 63] 128 PReLU-7 [-1, 64, 64, 63] 64 Conv2d-8 [-1, 64, 64, 63] 36,864 _ConvModernNd-9 [-1, 64, 64, 63] 0 InstanceNorm2d-10 [-1, 64, 64, 63] 128 PReLU-11 [-1, 64, 64, 63] 64 Conv2d-12 [-1, 64, 32, 32] 36,864 _ConvModernNd-13 [-1, 64, 32, 32] 0 _BlockConvStkNd-14 [-1, 64, 32, 32] 0 InstanceNorm2d-15 [-1, 64, 32, 32] 128 PReLU-16 [-1, 64, 32, 32] 64 Conv2d-17 [-1, 128, 32, 32] 73,728 _ConvModernNd-18 [-1, 128, 32, 32] 0 InstanceNorm2d-19 [-1, 128, 32, 32] 256 PReLU-20 [-1, 128, 32, 32] 128 Conv2d-21 [-1, 128, 32, 32] 147,456 _ConvModernNd-22 [-1, 128, 32, 32] 0 InstanceNorm2d-23 [-1, 128, 32, 32] 256 PReLU-24 [-1, 128, 32, 32] 128 Conv2d-25 [-1, 128, 16, 16] 147,456 _ConvModernNd-26 [-1, 128, 16, 16] 0 _BlockConvStkNd-27 [-1, 128, 16, 16] 0 InstanceNorm2d-28 [-1, 128, 16, 16] 256 PReLU-29 [-1, 128, 16, 16] 128 Conv2d-30 [-1, 256, 16, 16] 294,912 _ConvModernNd-31 [-1, 256, 16, 16] 0 InstanceNorm2d-32 [-1, 256, 16, 16] 512 PReLU-33 [-1, 256, 16, 16] 256 Conv2d-34 [-1, 256, 16, 16] 589,824 _ConvModernNd-35 [-1, 256, 16, 16] 0 InstanceNorm2d-36 [-1, 256, 16, 16] 512 PReLU-37 [-1, 256, 16, 16] 256 Conv2d-38 [-1, 256, 8, 8] 589,824 _ConvModernNd-39 [-1, 256, 8, 8] 0 _BlockConvStkNd-40 [-1, 256, 8, 8] 0 InstanceNorm2d-41 [-1, 256, 8, 8] 512 PReLU-42 [-1, 256, 8, 8] 256 Conv2d-43 [-1, 512, 8, 8] 1,179,648 _ConvModernNd-44 [-1, 512, 8, 8] 0 InstanceNorm2d-45 [-1, 512, 8, 8] 1,024 PReLU-46 [-1, 512, 8, 8] 512 Conv2d-47 [-1, 512, 8, 8] 2,359,296 _ConvModernNd-48 [-1, 512, 8, 8] 0 InstanceNorm2d-49 [-1, 512, 8, 8] 1,024 PReLU-50 [-1, 512, 8, 8] 512 Conv2d-51 [-1, 512, 4, 4] 2,359,296 _ConvModernNd-52 [-1, 512, 4, 4] 0 _BlockConvStkNd-53 [-1, 512, 4, 4] 0 InstanceNorm2d-54 [-1, 512, 4, 4] 1,024 PReLU-55 [-1, 512, 4, 4] 512 Conv2d-56 [-1, 1024, 4, 4] 4,718,592 _ConvModernNd-57 [-1, 1024, 4, 4] 0 InstanceNorm2d-58 [-1, 1024, 4, 4] 2,048 PReLU-59 [-1, 1024, 4, 4] 1,024 Conv2d-60 [-1, 1024, 4, 4] 9,437,184 _ConvModernNd-61 [-1, 1024, 4, 4] 0 InstanceNorm2d-62 [-1, 1024, 4, 4] 2,048 PReLU-63 [-1, 1024, 4, 4] 1,024 Conv2d-64 [-1, 1024, 2, 2] 9,437,184 _ConvModernNd-65 [-1, 1024, 2, 2] 0 _BlockConvStkNd-66 [-1, 1024, 2, 2] 0 Conv2d-67 [-1, 1024, 2, 2] 9,438,208 AdaptiveAvgPool2d-68 [-1, 1024, 1, 1] 0 Linear-69 [-1, 32] 32,800 EncoderNet2d-70 [-1, 32] 0 ================================================================ Total params: 40,935,776 Trainable params: 40,935,776 Non-trainable params: 0 ---------------------------------------------------------------- Input size (MB): 0.05 Forward/backward pass size (MB): 41.48 Params size (MB): 156.16 Estimated Total Size (MB): 197.68 ---------------------------------------------------------------- Example 2 Codes 1 2 3 4 5 import mdnc net = mdnc . modules . conv . EncoderNet2d ( 64 , [ 3 , 3 , 3 , 3 , 3 ], in_planes = 3 , out_length = None ) print ( 'The number of convolutional layers along the depth is {0} .' . format ( net . nlayers )) mdnc . contribs . torchsummary . summary ( net , ( 3 , 64 , 63 ), device = 'cpu' ) Output The number of convolutional layers along the depth is 17. ---------------------------------------------------------------- Layer (type) Output Shape Param # ================================================================ Conv2d-1 [-1, 64, 64, 63] 4,800 InstanceNorm2d-2 [-1, 64, 64, 63] 128 PReLU-3 [-1, 64, 64, 63] 64 Conv2d-4 [-1, 64, 64, 63] 36,864 _ConvModernNd-5 [-1, 64, 64, 63] 0 InstanceNorm2d-6 [-1, 64, 64, 63] 128 PReLU-7 [-1, 64, 64, 63] 64 Conv2d-8 [-1, 64, 64, 63] 36,864 _ConvModernNd-9 [-1, 64, 64, 63] 0 InstanceNorm2d-10 [-1, 64, 64, 63] 128 PReLU-11 [-1, 64, 64, 63] 64 Conv2d-12 [-1, 64, 32, 32] 36,864 _ConvModernNd-13 [-1, 64, 32, 32] 0 _BlockConvStkNd-14 [-1, 64, 32, 32] 0 InstanceNorm2d-15 [-1, 64, 32, 32] 128 PReLU-16 [-1, 64, 32, 32] 64 Conv2d-17 [-1, 128, 32, 32] 73,728 _ConvModernNd-18 [-1, 128, 32, 32] 0 InstanceNorm2d-19 [-1, 128, 32, 32] 256 PReLU-20 [-1, 128, 32, 32] 128 Conv2d-21 [-1, 128, 32, 32] 147,456 _ConvModernNd-22 [-1, 128, 32, 32] 0 InstanceNorm2d-23 [-1, 128, 32, 32] 256 PReLU-24 [-1, 128, 32, 32] 128 Conv2d-25 [-1, 128, 16, 16] 147,456 _ConvModernNd-26 [-1, 128, 16, 16] 0 _BlockConvStkNd-27 [-1, 128, 16, 16] 0 InstanceNorm2d-28 [-1, 128, 16, 16] 256 PReLU-29 [-1, 128, 16, 16] 128 Conv2d-30 [-1, 256, 16, 16] 294,912 _ConvModernNd-31 [-1, 256, 16, 16] 0 InstanceNorm2d-32 [-1, 256, 16, 16] 512 PReLU-33 [-1, 256, 16, 16] 256 Conv2d-34 [-1, 256, 16, 16] 589,824 _ConvModernNd-35 [-1, 256, 16, 16] 0 InstanceNorm2d-36 [-1, 256, 16, 16] 512 PReLU-37 [-1, 256, 16, 16] 256 Conv2d-38 [-1, 256, 8, 8] 589,824 _ConvModernNd-39 [-1, 256, 8, 8] 0 _BlockConvStkNd-40 [-1, 256, 8, 8] 0 InstanceNorm2d-41 [-1, 256, 8, 8] 512 PReLU-42 [-1, 256, 8, 8] 256 Conv2d-43 [-1, 512, 8, 8] 1,179,648 _ConvModernNd-44 [-1, 512, 8, 8] 0 InstanceNorm2d-45 [-1, 512, 8, 8] 1,024 PReLU-46 [-1, 512, 8, 8] 512 Conv2d-47 [-1, 512, 8, 8] 2,359,296 _ConvModernNd-48 [-1, 512, 8, 8] 0 InstanceNorm2d-49 [-1, 512, 8, 8] 1,024 PReLU-50 [-1, 512, 8, 8] 512 Conv2d-51 [-1, 512, 4, 4] 2,359,296 _ConvModernNd-52 [-1, 512, 4, 4] 0 _BlockConvStkNd-53 [-1, 512, 4, 4] 0 InstanceNorm2d-54 [-1, 512, 4, 4] 1,024 PReLU-55 [-1, 512, 4, 4] 512 Conv2d-56 [-1, 1024, 4, 4] 4,718,592 _ConvModernNd-57 [-1, 1024, 4, 4] 0 InstanceNorm2d-58 [-1, 1024, 4, 4] 2,048 PReLU-59 [-1, 1024, 4, 4] 1,024 Conv2d-60 [-1, 1024, 4, 4] 9,437,184 _ConvModernNd-61 [-1, 1024, 4, 4] 0 InstanceNorm2d-62 [-1, 1024, 4, 4] 2,048 PReLU-63 [-1, 1024, 4, 4] 1,024 Conv2d-64 [-1, 1024, 2, 2] 9,437,184 _ConvModernNd-65 [-1, 1024, 2, 2] 0 _BlockConvStkNd-66 [-1, 1024, 2, 2] 0 Conv2d-67 [-1, 1024, 2, 2] 9,438,208 EncoderNet2d-68 [-1, 1024, 2, 2] 0 ================================================================ Total params: 40,902,976 Trainable params: 40,902,976 Non-trainable params: 0 ---------------------------------------------------------------- Input size (MB): 0.05 Forward/backward pass size (MB): 41.50 Params size (MB): 156.03 Estimated Total Size (MB): 197.58 ----------------------------------------------------------------","titl
…
consideration. Examples \u00b6 Example 1 Codes 1 2 3 4 5 import mdnc net = mdnc . modules . conv . EncoderNet3d ( 64 , [ 3 , 3 , 3 , 3 , 3 ], in_planes = 3 , out_length = 32 ) print ( 'The number of convolutional layers along the depth is {0} .' . format ( net . nlayers )) mdnc . contribs . torchsummary . summary ( net , ( 3 , 31 , 32 , 30 ), device = 'cpu' ) Output The number of convolutional layers along the depth is 17. ---------------------------------------------------------------- Layer (type) Output Shape Param # ================================================================ Conv3d-1 [-1, 64, 31, 32, 30] 24,000 InstanceNorm3d-2 [-1, 64, 31, 32, 30] 128 PReLU-3 [-1, 64, 31, 32, 30] 64 Conv3d-4 [-1, 64, 31, 32, 30] 110,592 _ConvModernNd-5 [-1, 64, 31, 32, 30] 0 InstanceNorm3d-6 [-1, 64, 31, 32, 30] 128 PReLU-7 [-1, 64, 31, 32, 30] 64 Conv3d-8 [-1, 64, 31, 32, 30] 110,592 _ConvModernNd-9 [-1, 64, 31, 32, 30] 0 InstanceNorm3d-10 [-1, 64, 31, 32, 30] 128 PReLU-11 [-1, 64, 31, 32, 30] 64 Conv3d-12 [-1, 64, 16, 16, 15] 110,592 _ConvModernNd-13 [-1, 64, 16, 16, 15] 0 _BlockConvStkNd-14 [-1, 64, 16, 16, 15] 0 InstanceNorm3d-15 [-1, 64, 16, 16, 15] 128 PReLU-16 [-1, 64, 16, 16, 15] 64 Conv3d-17 [-1, 128, 16, 16, 15] 221,184 _ConvModernNd-18 [-1, 128, 16, 16, 15] 0 InstanceNorm3d-19 [-1, 128, 16, 16, 15] 256 PReLU-20 [-1, 128, 16, 16, 15] 128 Conv3d-21 [-1, 128, 16, 16, 15] 442,368 _ConvModernNd-22 [-1, 128, 16, 16, 15] 0 InstanceNorm3d-23 [-1, 128, 16, 16, 15] 256 PReLU-24 [-1, 128, 16, 16, 15] 128 Conv3d-25 [-1, 128, 8, 8, 8] 442,368 _ConvModernNd-26 [-1, 128, 8, 8, 8] 0 _BlockConvStkNd-27 [-1, 128, 8, 8, 8] 0 InstanceNorm3d-28 [-1, 128, 8, 8, 8] 256 PReLU-29 [-1, 128, 8, 8, 8] 128 Conv3d-30 [-1, 256, 8, 8, 8] 884,736 _ConvModernNd-31 [-1, 256, 8, 8, 8] 0 InstanceNorm3d-32 [-1, 256, 8, 8, 8] 512 PReLU-33 [-1, 256, 8, 8, 8] 256 Conv3d-34 [-1, 256, 8, 8, 8] 1,769,472 _ConvModernNd-35 [-1, 256, 8, 8, 8] 0 InstanceNorm3d-36 [-1, 256, 8, 8, 8] 512 PReLU-37 [-1, 256, 8, 8, 8] 256 Conv3d-38 [-1, 256, 4, 4, 4] 1,769,472 _ConvModernNd-39 [-1, 256, 4, 4, 4] 0 _BlockConvStkNd-40 [-1, 256, 4, 4, 4] 0 InstanceNorm3d-41 [-1, 256, 4, 4, 4] 512 PReLU-42 [-1, 256, 4, 4, 4] 256 Conv3d-43 [-1, 512, 4, 4, 4] 3,538,944 _ConvModernNd-44 [-1, 512, 4, 4, 4] 0 InstanceNorm3d-45 [-1, 512, 4, 4, 4] 1,024 PReLU-46 [-1, 512, 4, 4, 4] 512 Conv3d-47 [-1, 512, 4, 4, 4] 7,077,888 _ConvModernNd-48 [-1, 512, 4, 4, 4] 0 InstanceNorm3d-49 [-1, 512, 4, 4, 4] 1,024 PReLU-50 [-1, 512, 4, 4, 4] 512 Conv3d-51 [-1, 512, 2, 2, 2] 7,077,888 _ConvModernNd-52 [-1, 512, 2, 2, 2] 0 _BlockConvStkNd-53 [-1, 512, 2, 2, 2] 0 InstanceNorm3d-54 [-1, 512, 2, 2, 2] 1,024 PReLU-55 [-1, 512, 2, 2, 2] 512 Conv3d-56 [-1, 1024, 2, 2, 2] 14,155,776 _ConvModernNd-57 [-1, 1024, 2, 2, 2] 0 InstanceNorm3d-58 [-1, 1024, 2, 2, 2] 2,048 PReLU-59 [-1, 1024, 2, 2, 2] 1,024 Conv3d-60 [-1, 1024, 2, 2, 2] 28,311,552 _ConvModernNd-61 [-1, 1024, 2, 2, 2] 0 InstanceNorm3d-62 [-1, 1024, 2, 2, 2] 2,048 PReLU-63 [-1, 1024, 2, 2, 2] 1,024 Conv3d-64 [-1, 1024, 1, 1, 1] 28,311,552 _ConvModernNd-65 [-1, 1024, 1, 1, 1] 0 _BlockConvStkNd-66 [-1, 1024, 1, 1, 1] 0 Conv3d-67 [-1, 1024, 1, 1, 1] 28,312,576 AdaptiveAvgPool3d-68 [-1, 1024, 1, 1, 1] 0 Linear-69 [-1, 32] 32,800 EncoderNet3d-70 [-1, 32] 0 ================================================================ Total params: 122,719,328 Trainable params: 122,719,328 Non-trainable params: 0 ---------------------------------------------------------------- Input size (MB): 0.34 Forward/backward pass size (MB): 213.04 Params size (MB): 468.14 Estimated Total Size (MB): 681.52 ---------------------------------------------------------------- Example 2 Codes 1 2 3 4 5 import mdnc net = mdnc . modules . conv . EncoderNet3d ( 64 , [ 3 , 3 , 3 , 3 , 3 ], in_planes = 3 , out_length = None ) print ( 'The number of convolutional layers along the depth is {0} .' . format ( net . nlayers )) mdnc . contribs . torchsummary . summary ( net , ( 3 , 31 , 32 , 30 ), device = 'cpu' ) Output The number of convolutional layers along the depth is 17. ---------------------------------------------------------------- Layer (type) Output Shape Param # ================================================================ Conv3d-1 [-1, 64, 31, 32, 30] 24,000 InstanceNorm3d-2 [-1, 64, 31, 32, 30] 128 PReLU-3 [-1, 64, 31, 32, 30] 64 Conv3d-4 [-1, 64, 31, 32, 30] 110,592 _ConvModernNd-5 [-1, 64, 31, 32, 30] 0 InstanceNorm3d-6 [-1, 64, 31, 32, 30] 128 PReLU-7 [-1, 64, 31, 32, 30] 64 Conv3d-8 [-1, 64, 31, 32, 30] 110,592 _ConvModernNd-9 [-1, 64, 31, 32, 30] 0 InstanceNorm3d-10 [-1, 64, 31, 32, 30] 128 PReLU-11 [-1, 64, 31, 32, 30] 64 Conv3d-12 [-1, 64, 16, 16, 15] 110,592 _ConvModernNd-13 [-1, 64, 16, 16, 15] 0 _BlockConvStkNd-14 [-1, 64, 16, 16, 15] 0 InstanceNorm3d-15 [-1, 64, 16, 16, 15] 128 PReLU-16 [-1, 64, 16, 16, 15] 64 Conv3d-17 [-1, 128, 16, 16, 15] 221,184 _ConvModernNd-18 [-1, 128, 16, 16, 15] 0 InstanceNorm3d-19 [-1, 128, 16, 16, 15] 256 PReLU-20 [-1, 128, 16, 16, 15] 128 Conv3d-21 [-1, 128, 16, 16, 15] 442,368 _ConvModernNd-22 [-1, 128, 16, 16, 15] 0 InstanceNorm3d-23 [-1, 128, 16, 16, 15] 256 PReLU-24 [-1, 128, 16, 16, 15] 128 Conv3d-25 [-1, 128, 8, 8, 8] 442,368 _ConvModernNd-26 [-1, 128, 8, 8, 8] 0 _BlockConvStkNd-27 [-1, 128, 8, 8, 8] 0 InstanceNorm3d-28 [-1, 128, 8, 8, 8] 256 PReLU-29 [-1, 128, 8, 8, 8] 128 Conv3d-30 [-1, 256, 8, 8, 8] 884,736 _ConvModernNd-31 [-1, 256, 8, 8, 8] 0 InstanceNorm3d-32 [-1, 256, 8, 8, 8] 512 PReLU-33 [-1, 256, 8, 8, 8] 256 Conv3d-34 [-1, 256, 8, 8, 8] 1,769,472 _ConvModernNd-35 [-1, 256, 8, 8, 8] 0 InstanceNorm3d-36 [-1, 256, 8, 8, 8] 512 PReLU-37 [-1, 256, 8, 8, 8] 256 Conv3d-38 [-1, 256, 4, 4, 4] 1,769,472 _ConvModernNd-39 [-1, 256, 4, 4, 4] 0 _BlockConvStkNd-40 [-1, 256, 4, 4, 4] 0 InstanceNorm3d-41 [-1, 256, 4, 4, 4] 512 PReLU-42 [-1, 256, 4, 4, 4] 256 Conv3d-43 [-1, 512, 4, 4, 4] 3,538,944 _ConvModernNd-44 [-1, 512, 4, 4, 4] 0 InstanceNorm3d-45 [-1, 512, 4, 4, 4] 1,024 PReLU-46 [-1, 512, 4, 4, 4] 512 Conv3d-47 [-1, 512, 4, 4, 4] 7,077,888 _ConvModernNd-48 [-1, 512, 4, 4, 4] 0 InstanceNorm3d-49 [-1, 512, 4, 4, 4] 1,024 PReLU-50 [-1, 512, 4, 4, 4] 512 Conv3d-51 [-1, 512, 2, 2, 2] 7,077,888 _ConvModernNd-52 [-1, 512, 2, 2, 2] 0 _BlockConvStkNd-53 [-1, 512, 2, 2, 2] 0 InstanceNorm3d-54 [-1, 512, 2, 2, 2] 1,024 PReLU-55 [-1, 512, 2, 2, 2] 512 Conv3d-56 [-1, 1024, 2, 2, 2] 14,155,776 _ConvModernNd-57 [-1, 1024, 2, 2, 2] 0 InstanceNorm3d-58 [-1, 1024, 2, 2, 2] 2,048 PReLU-59 [-1, 1024, 2, 2, 2] 1,024 Conv3d-60 [-1, 1024, 2, 2, 2] 28,311,552 _ConvModernNd-61 [-1, 1024, 2, 2, 2] 0 InstanceNorm3d-62 [-1, 1024, 2, 2, 2] 2,048 PReLU-63 [-1, 1024, 2, 2, 2] 1,024 Conv3d-64 [-1, 1024, 1, 1, 1] 28,311,552 _ConvModernNd-65 [-1, 1024, 1, 1, 1] 0 _BlockConvStkNd-66 [-1, 1024, 1, 1, 1] 0 Conv3d-67 [-1, 1024, 1, 1, 1] 28,312,576 EncoderNet3d-68 [-1, 1024, 1, 1, 1] 0 ================================================================ Total params: 122,686,528 Trainable params: 122,686,528 Non-trainable params: 0 ---------------------------------------------------------------- Input size (MB): 0.34 Forward/backward pass size (MB): 213.04 Params size (MB): 468.01 Estimated Total Size (MB): 681.39 ----------------------------------------------------------------","t
…
 along the depth of the network. Examples \u00b6 Example Codes 1 2 3 4 5 import mdnc net = mdnc . modules . conv . UNet1d ( 64 , [ 2 , 2 , 3 , 3 , 3 ], in_planes = 3 , out_planes = 1 ) print ( 'The number of convolutional layers along the depth is {0} .' . format ( net . nlayers )) mdnc . contribs . torchsummary . summary ( net , ( 3 , 128 ), device = 'cpu' ) Output The number of convolutional layers along the depth is 25. ---------------------------------------------------------------- Layer (type) Output Shape Param # ================================================================ Conv1d-1 [-1, 64, 128] 960 InstanceNorm1d-2 [-1, 64, 128] 128 PReLU-3 [-1, 64, 128] 64 Conv1d-4 [-1, 64, 128] 12,288 _ConvModernNd-5 [-1, 64, 128] 0 InstanceNorm1d-6 [-1, 64, 128] 128 PReLU-7 [-1, 64, 128] 64 Conv1d-8 [-1, 64, 64] 12,288 _ConvModernNd-9 [-1, 64, 64] 0 _BlockConvStkNd-10 [-1, 64, 64] 0 [-1, 64, 128] InstanceNorm1d-11 [-1, 64, 64] 128 PReLU-12 [-1, 64, 64] 64 Conv1d-13 [-1, 128, 64] 24,576 _ConvModernNd-14 [-1, 128, 64] 0 InstanceNorm1d-15 [-1, 128, 64] 256 PReLU-16 [-1, 128, 64] 128 Conv1d-17 [-1, 128, 32] 49,152 _ConvModernNd-18 [-1, 128, 32] 0 _BlockConvStkNd-19 [-1, 128, 32] 0 [-1, 128, 64] InstanceNorm1d-20 [-1, 128, 32] 256 PReLU-21 [-1, 128, 32] 128 Conv1d-22 [-1, 256, 32] 98,304 _ConvModernNd-23 [-1, 256, 32] 0 InstanceNorm1d-24 [-1, 256, 32] 512 PReLU-25 [-1, 256, 32] 256 Conv1d-26 [-1, 256, 32] 196,608 _ConvModernNd-27 [-1, 256, 32] 0 InstanceNorm1d-28 [-1, 256, 32] 512 PReLU-29 [-1, 256, 32] 256 Conv1d-30 [-1, 256, 16] 196,608 _ConvModernNd-31 [-1, 256, 16] 0 _BlockConvStkNd-32 [-1, 256, 16] 0 [-1, 256, 32] InstanceNorm1d-33 [-1, 256, 16] 512 PReLU-34 [-1, 256, 16] 256 Conv1d-35 [-1, 512, 16] 393,216 _ConvModernNd-36 [-1, 512, 16] 0 InstanceNorm1d-37 [-1, 512, 16] 1,024 PReLU-38 [-1, 512, 16] 512 Conv1d-39 [-1, 512, 16] 786,432 _ConvModernNd-40 [-1, 512, 16] 0 InstanceNorm1d-41 [-1, 512, 16] 1,024 PReLU-42 [-1, 512, 16] 512 Conv1d-43 [-1, 512, 8] 786,432 _ConvModernNd-44 [-1, 512, 8] 0 _BlockConvStkNd-45 [-1, 512, 8] 0 [-1, 512, 16] InstanceNorm1d-46 [-1, 512, 8] 1,024 PReLU-47 [-1, 512, 8] 512 Conv1d-48 [-1, 1024, 8] 1,572,864 _ConvModernNd-49 [-1, 1024, 8] 0 InstanceNorm1d-50 [-1, 1024, 8] 2,048 PReLU-51 [-1, 1024, 8] 1,024 Conv1d-52 [-1, 1024, 8] 3,145,728 _ConvModernNd-53 [-1, 1024, 8] 0 InstanceNorm1d-54 [-1, 1024, 8] 2,048 PReLU-55 [-1, 1024, 8] 1,024 Upsample-56 [-1, 1024, 16] 0 Conv1d-57 [-1, 512, 16] 1,572,864 _ConvModernNd-58 [-1, 512, 16] 0 _BlockConvStkNd-59 [-1, 512, 16] 0 InstanceNorm1d-60 [-1, 1024, 16] 2,048 PReLU-61 [-1, 1024, 16] 1,024 Conv1d-62 [-1, 512, 16] 1,572,864 _ConvModernNd-63 [-1, 512, 16] 0 InstanceNorm1d-64 [-1, 512, 16] 1,024 PReLU-65 [-1, 512, 16] 512 Conv1d-66 [-1, 512, 16] 786,432 _ConvModernNd-67 [-1, 512, 16] 0 InstanceNorm1d-68 [-1, 512, 16] 1,024 PReLU-69 [-1, 512, 16] 512 Upsample-70 [-1, 512, 32] 0 Conv1d-71 [-1, 256, 32] 393,216 _ConvModernNd-72 [-1, 256, 32] 0 _BlockConvStkNd-73 [-1, 256, 32] 0 InstanceNorm1d-74 [-1, 512, 32] 1,024 PReLU-75 [-1, 512, 32] 512 Conv1d-76 [-1, 256, 32] 393,216 _ConvModernNd-77 [-1, 256, 32] 0 InstanceNorm1d-78 [-1, 256, 32] 512 PReLU-79 [-1, 256, 32] 256 Conv1d-80 [-1, 256, 32] 196,608 _ConvModernNd-81 [-1, 256, 32] 0 InstanceNorm1d-82 [-1, 256, 32] 512 PReLU-83 [-1, 256, 32] 256 Upsample-84 [-1, 256, 64] 0 Conv1d-85 [-1, 128, 64] 98,304 _ConvModernNd-86 [-1, 128, 64] 0 _BlockConvStkNd-87 [-1, 128, 64] 0 InstanceNorm1d-88 [-1, 256, 64] 512 PReLU-89 [-1, 256, 64] 256 Conv1d-90 [-1, 128, 64] 98,304 _ConvModernNd-91 [-1, 128, 64] 0 InstanceNorm1d-92 [-1, 128, 64] 256 PReLU-93 [-1, 128, 64] 128 Upsample-94 [-1, 128, 128] 0 Conv1d-95 [-1, 64, 128] 24,576 _ConvModernNd-96 [-1, 64, 128] 0 _BlockConvStkNd-97 [-1, 64, 128] 0 InstanceNorm1d-98 [-1, 128, 128] 256 PReLU-99 [-1, 128, 128] 128 Conv1d-100 [-1, 64, 128] 24,576 _ConvModernNd-101 [-1, 64, 128] 0 InstanceNorm1d-102 [-1, 64, 128] 128 PReLU-103 [-1, 64, 128] 64 Conv1d-104 [-1, 64, 128] 12,288 _ConvModernNd-105 [-1, 64, 128] 0 _BlockConvStkNd-106 [-1, 64, 128] 0 Conv1d-107 [-1, 1, 128] 321 UNet1d-108 [-1, 1, 128] 0 ================================================================ Total params: 12,474,369 Trainable params: 12,474,369 Non-trainable params: 0 ---------------------------------------------------------------- Input size (MB): 0.00 Forward/backward pass size (MB): 7.00 Params size (MB): 47.59 Estimated Total Size (MB): 54.59 ----------------------------------------------------------------","title":
…
ng the depth of the network. Examples \u00b6 Example Codes 1 2 3 4 5 import mdnc net = mdnc . modules . conv . UNet2d ( 64 , [ 2 , 2 , 3 , 3 , 3 ], in_planes = 3 , out_planes = 1 ) print ( 'The number of convolutional layers along the depth is {0} .' . format ( net . nlayers )) mdnc . contribs . torchsummary . summary ( net , ( 3 , 64 , 63 ), device = 'cpu' ) Output The number of convolutional layers along the depth is 25. ---------------------------------------------------------------- Layer (type) Output Shape Param # ================================================================ Conv2d-1 [-1, 64, 64, 63] 4,800 InstanceNorm2d-2 [-1, 64, 64, 63] 128 PReLU-3 [-1, 64, 64, 63] 64 Conv2d-4 [-1, 64, 64, 63] 36,864 _ConvModernNd-5 [-1, 64, 64, 63] 0 InstanceNorm2d-6 [-1, 64, 64, 63] 128 PReLU-7 [-1, 64, 64, 63] 64 Conv2d-8 [-1, 64, 32, 32] 36,864 _ConvModernNd-9 [-1, 64, 32, 32] 0 _BlockConvStkNd-10 [-1, 64, 32, 32] 0 [-1, 64, 64, 63] InstanceNorm2d-11 [-1, 64, 32, 32] 128 PReLU-12 [-1, 64, 32, 32] 64 Conv2d-13 [-1, 128, 32, 32] 73,728 _ConvModernNd-14 [-1, 128, 32, 32] 0 InstanceNorm2d-15 [-1, 128, 32, 32] 256 PReLU-16 [-1, 128, 32, 32] 128 Conv2d-17 [-1, 128, 16, 16] 147,456 _ConvModernNd-18 [-1, 128, 16, 16] 0 _BlockConvStkNd-19 [-1, 128, 16, 16] 0 [-1, 128, 32, 32] InstanceNorm2d-20 [-1, 128, 16, 16] 256 PReLU-21 [-1, 128, 16, 16] 128 Conv2d-22 [-1, 256, 16, 16] 294,912 _ConvModernNd-23 [-1, 256, 16, 16] 0 InstanceNorm2d-24 [-1, 256, 16, 16] 512 PReLU-25 [-1, 256, 16, 16] 256 Conv2d-26 [-1, 256, 16, 16] 589,824 _ConvModernNd-27 [-1, 256, 16, 16] 0 InstanceNorm2d-28 [-1, 256, 16, 16] 512 PReLU-29 [-1, 256, 16, 16] 256 Conv2d-30 [-1, 256, 8, 8] 589,824 _ConvModernNd-31 [-1, 256, 8, 8] 0 _BlockConvStkNd-32 [-1, 256, 8, 8] 0 [-1, 256, 16, 16] InstanceNorm2d-33 [-1, 256, 8, 8] 512 PReLU-34 [-1, 256, 8, 8] 256 Conv2d-35 [-1, 512, 8, 8] 1,179,648 _ConvModernNd-36 [-1, 512, 8, 8] 0 InstanceNorm2d-37 [-1, 512, 8, 8] 1,024 PReLU-38 [-1, 512, 8, 8] 512 Conv2d-39 [-1, 512, 8, 8] 2,359,296 _ConvModernNd-40 [-1, 512, 8, 8] 0 InstanceNorm2d-41 [-1, 512, 8, 8] 1,024 PReLU-42 [-1, 512, 8, 8] 512 Conv2d-43 [-1, 512, 4, 4] 2,359,296 _ConvModernNd-44 [-1, 512, 4, 4] 0 _BlockConvStkNd-45 [-1, 512, 4, 4] 0 [-1, 512, 8, 8] InstanceNorm2d-46 [-1, 512, 4, 4] 1,024 PReLU-47 [-1, 512, 4, 4] 512 Conv2d-48 [-1, 1024, 4, 4] 4,718,592 _ConvModernNd-49 [-1, 1024, 4, 4] 0 InstanceNorm2d-50 [-1, 1024, 4, 4] 2,048 PReLU-51 [-1, 1024, 4, 4] 1,024 Conv2d-52 [-1, 1024, 4, 4] 9,437,184 _ConvModernNd-53 [-1, 1024, 4, 4] 0 InstanceNorm2d-54 [-1, 1024, 4, 4] 2,048 PReLU-55 [-1, 1024, 4, 4] 1,024 Upsample-56 [-1, 1024, 8, 8] 0 Conv2d-57 [-1, 512, 8, 8] 4,718,592 _ConvModernNd-58 [-1, 512, 8, 8] 0 _BlockConvStkNd-59 [-1, 512, 8, 8] 0 InstanceNorm2d-60 [-1, 1024, 8, 8] 2,048 PReLU-61 [-1, 1024, 8, 8] 1,024 Conv2d-62 [-1, 512, 8, 8] 4,718,592 _ConvModernNd-63 [-1, 512, 8, 8] 0 InstanceNorm2d-64 [-1, 512, 8, 8] 1,024 PReLU-65 [-1, 512, 8, 8] 512 Conv2d-66 [-1, 512, 8, 8] 2,359,296 _ConvModernNd-67 [-1, 512, 8, 8] 0 InstanceNorm2d-68 [-1, 512, 8, 8] 1,024 PReLU-69 [-1, 512, 8, 8] 512 Upsample-70 [-1, 512, 16, 16] 0 Conv2d-71 [-1, 256, 16, 16] 1,179,648 _ConvModernNd-72 [-1, 256, 16, 16] 0 _BlockConvStkNd-73 [-1, 256, 16, 16] 0 InstanceNorm2d-74 [-1, 512, 16, 16] 1,024 PReLU-75 [-1, 512, 16, 16] 512 Conv2d-76 [-1, 256, 16, 16] 1,179,648 _ConvModernNd-77 [-1, 256, 16, 16] 0 InstanceNorm2d-78 [-1, 256, 16, 16] 512 PReLU-79 [-1, 256, 16, 16] 256 Conv2d-80 [-1, 256, 16, 16] 589,824 _ConvModernNd-81 [-1, 256, 16, 16] 0 InstanceNorm2d-82 [-1, 256, 16, 16] 512 PReLU-83 [-1, 256, 16, 16] 256 Upsample-84 [-1, 256, 32, 32] 0 Conv2d-85 [-1, 128, 32, 32] 294,912 _ConvModernNd-86 [-1, 128, 32, 32] 0 _BlockConvStkNd-87 [-1, 128, 32, 32] 0 InstanceNorm2d-88 [-1, 256, 32, 32] 512 PReLU-89 [-1, 256, 32, 32] 256 Conv2d-90 [-1, 128, 32, 32] 294,912 _ConvModernNd-91 [-1, 128, 32, 32] 0 InstanceNorm2d-92 [-1, 128, 32, 32] 256 PReLU-93 [-1, 128, 32, 32] 128 Upsample-94 [-1, 128, 64, 64] 0 Conv2d-95 [-1, 64, 64, 64] 73,728 _ConvModernNd-96 [-1, 64, 64, 64] 0 _BlockConvStkNd-97 [-1, 64, 64, 64] 0 InstanceNorm2d-98 [-1, 128, 64, 63] 256 PReLU-99 [-1, 128, 64, 63] 128 Conv2d-100 [-1, 64, 64, 63] 73,728 _ConvModernNd-101 [-1, 64, 64, 63] 0 InstanceNorm2d-102 [-1, 64, 64, 63] 128 PReLU-103 [-1, 64, 64, 63] 64 Conv2d-104 [-1, 64, 64, 63] 36,864 _ConvModernNd-105 [-1, 64, 64, 63] 0 _BlockConvStkNd-106 [-1, 64, 64, 63] 0 Conv2d-107 [-1, 1, 64, 63] 1,601 UNet2d-108 [-1, 1, 64, 63] 0 ================================================================ Total params: 37,374,977 Trainable params: 37,374,977 Non-trainable params: 0 ---------------------------------------------------------------- Input size (MB): 0.05 Forward/backward pass size (MB): 90.66 Params size (MB): 142.57 Estimated Total Size (MB): 233.28 ----------------------------------------------------------------","titl
…
e depth of the network. Examples \u00b6 Example Codes 1 2 3 4 5 import mdnc net = mdnc . modules . conv . UNet3d ( 64 , [ 2 , 2 , 3 , 3 , 3 ], in_planes = 3 , out_planes = 1 ) print ( 'The number of convolutional layers along the depth is {0} .' . format ( net . nlayers )) mdnc . contribs . torchsummary . summary ( net , ( 3 , 31 , 32 , 30 ), device = 'cpu' ) Output The number of convolutional layers along the depth is 25. ---------------------------------------------------------------- Layer (type) Output Shape Param # ================================================================ Conv3d-1 [-1, 64, 31, 32, 30] 24,000 InstanceNorm3d-2 [-1, 64, 31, 32, 30] 128 PReLU-3 [-1, 64, 31, 32, 30] 64 Conv3d-4 [-1, 64, 31, 32, 30] 110,592 _ConvModernNd-5 [-1, 64, 31, 32, 30] 0 InstanceNorm3d-6 [-1, 64, 31, 32, 30] 128 PReLU-7 [-1, 64, 31, 32, 30] 64 Conv3d-8 [-1, 64, 16, 16, 15] 110,592 _ConvModernNd-9 [-1, 64, 16, 16, 15] 0 _BlockConvStkNd-10 [-1, 64, 16, 16, 15] 0 [-1, 64, 31, 32, 30] InstanceNorm3d-11 [-1, 64, 16, 16, 15] 128 PReLU-12 [-1, 64, 16, 16, 15] 64 Conv3d-13 [-1, 128, 16, 16, 15] 221,184 _ConvModernNd-14 [-1, 128, 16, 16, 15] 0 InstanceNorm3d-15 [-1, 128, 16, 16, 15] 256 PReLU-16 [-1, 128, 16, 16, 15] 128 Conv3d-17 [-1, 128, 8, 8, 8] 442,368 _ConvModernNd-18 [-1, 128, 8, 8, 8] 0 _BlockConvStkNd-19 [-1, 128, 8, 8, 8] 0 [-1, 128, 16, 16, 15] InstanceNorm3d-20 [-1, 128, 8, 8, 8] 256 PReLU-21 [-1, 128, 8, 8, 8] 128 Conv3d-22 [-1, 256, 8, 8, 8] 884,736 _ConvModernNd-23 [-1, 256, 8, 8, 8] 0 InstanceNorm3d-24 [-1, 256, 8, 8, 8] 512 PReLU-25 [-1, 256, 8, 8, 8] 256 Conv3d-26 [-1, 256, 8, 8, 8] 1,769,472 _ConvModernNd-27 [-1, 256, 8, 8, 8] 0 InstanceNorm3d-28 [-1, 256, 8, 8, 8] 512 PReLU-29 [-1, 256, 8, 8, 8] 256 Conv3d-30 [-1, 256, 4, 4, 4] 1,769,472 _ConvModernNd-31 [-1, 256, 4, 4, 4] 0 _BlockConvStkNd-32 [-1, 256, 4, 4, 4] 0 [-1, 256, 8, 8, 8] InstanceNorm3d-33 [-1, 256, 4, 4, 4] 512 PReLU-34 [-1, 256, 4, 4, 4] 256 Conv3d-35 [-1, 512, 4, 4, 4] 3,538,944 _ConvModernNd-36 [-1, 512, 4, 4, 4] 0 InstanceNorm3d-37 [-1, 512, 4, 4, 4] 1,024 PReLU-38 [-1, 512, 4, 4, 4] 512 Conv3d-39 [-1, 512, 4, 4, 4] 7,077,888 _ConvModernNd-40 [-1, 512, 4, 4, 4] 0 InstanceNorm3d-41 [-1, 512, 4, 4, 4] 1,024 PReLU-42 [-1, 512, 4, 4, 4] 512 Conv3d-43 [-1, 512, 2, 2, 2] 7,077,888 _ConvModernNd-44 [-1, 512, 2, 2, 2] 0 _BlockConvStkNd-45 [-1, 512, 2, 2, 2] 0 [-1, 512, 4, 4, 4] InstanceNorm3d-46 [-1, 512, 2, 2, 2] 1,024 PReLU-47 [-1, 512, 2, 2, 2] 512 Conv3d-48 [-1, 1024, 2, 2, 2] 14,155,776 _ConvModernNd-49 [-1, 1024, 2, 2, 2] 0 InstanceNorm3d-50 [-1, 1024, 2, 2, 2] 2,048 PReLU-51 [-1, 1024, 2, 2, 2] 1,024 Conv3d-52 [-1, 1024, 2, 2, 2] 28,311,552 _ConvModernNd-53 [-1, 1024, 2, 2, 2] 0 InstanceNorm3d-54 [-1, 1024, 2, 2, 2] 2,048 PReLU-55 [-1, 1024, 2, 2, 2] 1,024 Upsample-56 [-1, 1024, 4, 4, 4] 0 Conv3d-57 [-1, 512, 4, 4, 4] 14,155,776 _ConvModernNd-58 [-1, 512, 4, 4, 4] 0 _BlockConvStkNd-59 [-1, 512, 4, 4, 4] 0 InstanceNorm3d-60 [-1, 1024, 4, 4, 4] 2,048 PReLU-61 [-1, 1024, 4, 4, 4] 1,024 Conv3d-62 [-1, 512, 4, 4, 4] 14,155,776 _ConvModernNd-63 [-1, 512, 4, 4, 4] 0 InstanceNorm3d-64 [-1, 512, 4, 4, 4] 1,024 PReLU-65 [-1, 512, 4, 4, 4] 512 Conv3d-66 [-1, 512, 4, 4, 4] 7,077,888 _ConvModernNd-67 [-1, 512, 4, 4, 4] 0 InstanceNorm3d-68 [-1, 512, 4, 4, 4] 1,024 PReLU-69 [-1, 512, 4, 4, 4] 512 Upsample-70 [-1, 512, 8, 8, 8] 0 Conv3d-71 [-1, 256, 8, 8, 8] 3,538,944 _ConvModernNd-72 [-1, 256, 8, 8, 8] 0 _BlockConvStkNd-73 [-1, 256, 8, 8, 8] 0 InstanceNorm3d-74 [-1, 512, 8, 8, 8] 1,024 PReLU-75 [-1, 512, 8, 8, 8] 512 Conv3d-76 [-1, 256, 8, 8, 8] 3,538,944 _ConvModernNd-77 [-1, 256, 8, 8, 8] 0 InstanceNorm3d-78 [-1, 256, 8, 8, 8] 512 PReLU-79 [-1, 256, 8, 8, 8] 256 Conv3d-80 [-1, 256, 8, 8, 8] 1,769,472 _ConvModernNd-81 [-1, 256, 8, 8, 8] 0 InstanceNorm3d-82 [-1, 256, 8, 8, 8] 512 PReLU-83 [-1, 256, 8, 8, 8] 256 Upsample-84 [-1, 256, 16, 16, 16] 0 Conv3d-85 [-1, 128, 16, 16, 16] 884,736 _ConvModernNd-86 [-1, 128, 16, 16, 16] 0 _BlockConvStkNd-87 [-1, 128, 16, 16, 16] 0 InstanceNorm3d-88 [-1, 256, 16, 16, 15] 512 PReLU-89 [-1, 256, 16, 16, 15] 256 Conv3d-90 [-1, 128, 16, 16, 15] 884,736 _ConvModernNd-91 [-1, 128, 16, 16, 15] 0 InstanceNorm3d-92 [-1, 128, 16, 16, 15] 256 PReLU-93 [-1, 128, 16, 16, 15] 128 Upsample-94 [-1, 128, 32, 32, 30] 0 Conv3d-95 [-1, 64, 32, 32, 30] 221,184 _ConvModernNd-96 [-1, 64, 32, 32, 30] 0 _BlockConvStkNd-97 [-1, 64, 32, 32, 30] 0 InstanceNorm3d-98 [-1, 128, 31, 32, 30] 256 PReLU-99 [-1, 128, 31, 32, 30] 128 Conv3d-100 [-1, 64, 31, 32, 30] 221,184 _ConvModernNd-101 [-1, 64, 31, 32, 30] 0 InstanceNorm3d-102 [-1, 64, 31, 32, 30] 128 PReLU-103 [-1, 64, 31, 32, 30] 64 Conv3d-104 [-1, 64, 31, 32, 30] 110,592 _ConvModernNd-105 [-1, 64, 31, 32, 30] 0 _BlockConvStkNd-106 [-1, 64, 31, 32, 30] 0 Conv3d-107 [-1, 1, 31, 32, 30] 8,001 UNet3d-108 [-1, 1, 31, 32, 30] 0 ================================================================ Total params: 112,087,041 Trainable params: 112,087,041 Non-trainable params: 0 ---------------------------------------------------------------- Input size (MB): 0.34 Forward/backward pass size (MB): 465.95 Params size (MB): 427.58 Estimated Total Size (MB): 893.87 ----------------------------------------------------------------","t
…
 along the depth of the network. Examples \u00b6 Example Codes 1 2 3 4 5 import mdnc net = mdnc . modules . resnet . AE1d ( 64 , [ 2 , 2 , 2 , 2 , 3 ], in_planes = 3 , out_planes = 1 ) print ( 'The number of convolutional layers along the depth is {0} .' . format ( net . nlayers )) mdnc . contribs . torchsummary . summary ( net , ( 3 , 128 ), device = 'cpu' ) Output The number of convolutional layers along the depth is 59. ---------------------------------------------------------------- Layer (type) Output Shape Param # ================================================================ Conv1d-1 [-1, 64, 128] 960 InstanceNorm1d-2 [-1, 64, 128] 128 PReLU-3 [-1, 64, 128] 64 Conv1d-4 [-1, 64, 128] 4,096 InstanceNorm1d-5 [-1, 64, 128] 128 PReLU-6 [-1, 64, 128] 64 Conv1d-7 [-1, 64, 128] 12,288 InstanceNorm1d-8 [-1, 64, 128] 128 PReLU-9 [-1, 64, 128] 64 Conv1d-10 [-1, 64, 128] 4,096 _BlockBo...neckNd-11 [-1, 64, 128] 0 InstanceNorm1d-12 [-1, 64, 128] 128 PReLU-13 [-1, 64, 128] 64 Conv1d-14 [-1, 64, 128] 4,096 InstanceNorm1d-15 [-1, 64, 128] 128 PReLU-16 [-1, 64, 128] 64 Conv1d-17 [-1, 64, 64] 12,288 InstanceNorm1d-18 [-1, 64, 64] 128 PReLU-19 [-1, 64, 64] 64 Conv1d-20 [-1, 64, 64] 4,096 Conv1d-21 [-1, 64, 64] 4,096 InstanceNorm1d-22 [-1, 64, 64] 128 _BlockBo...neckNd-23 [-1, 64, 64] 0 _BlockResStkNd-24 [-1, 64, 64] 0 InstanceNorm1d-25 [-1, 64, 64] 128 PReLU-26 [-1, 64, 64] 64 Conv1d-27 [-1, 64, 64] 4,096 InstanceNorm1d-28 [-1, 64, 64] 128 PReLU-29 [-1, 64, 64] 64 Conv1d-30 [-1, 64, 64] 12,288 InstanceNorm1d-31 [-1, 64, 64] 128 PReLU-32 [-1, 64, 64] 64 Conv1d-33 [-1, 128, 64] 8,192 Conv1d-34 [-1, 128, 64] 8,192 InstanceNorm1d-35 [-1, 128, 64] 256 _BlockBo...neckNd-36 [-1, 128, 64] 0 InstanceNorm1d-37 [-1, 128, 64] 256 PReLU-38 [-1, 128, 64] 128 Conv1d-39 [-1, 128, 64] 16,384 InstanceNorm1d-40 [-1, 128, 64] 256 PReLU-41 [-1, 128, 64] 128 Conv1d-42 [-1, 128, 32] 49,152 InstanceNorm1d-43 [-1, 128, 32] 256 PReLU-44 [-1, 128, 32] 128 Conv1d-45 [-1, 128, 32] 16,384 Conv1d-46 [-1, 128, 32] 16,384 InstanceNorm1d-47 [-1, 128, 32] 256 _BlockBo...neckNd-48 [-1, 128, 32] 0 _BlockResStkNd-49 [-1, 128, 32] 0 InstanceNorm1d-50 [-1, 128, 32] 256 PReLU-51 [-1, 128, 32] 128 Conv1d-52 [-1, 128, 32] 16,384 InstanceNorm1d-53 [-1, 128, 32] 256 PReLU-54 [-1, 128, 32] 128 Conv1d-55 [-1, 128, 32] 49,152 InstanceNorm1d-56 [-1, 128, 32] 256 PReLU-57 [-1, 128, 32] 128 Conv1d-58 [-1, 256, 32] 32,768 Conv1d-59 [-1, 256, 32] 32,768 InstanceNorm1d-60 [-1, 256, 32] 512 _BlockBo...neckNd-61 [-1, 256, 32] 0 InstanceNorm1d-62 [-1, 256, 32] 512 PReLU-63 [-1, 256, 32] 256 Conv1d-64 [-1, 256, 32] 65,536 InstanceNorm1d-65 [-1, 256, 32] 512 PReLU-66 [-1, 256, 32] 256 Conv1d-67 [-1, 256, 16] 196,608 InstanceNorm1d-68 [-1, 256, 16] 512 PReLU-69 [-1, 256, 16] 256 Conv1d-70 [-1, 256, 16] 65,536 Conv1d-71 [-1, 256, 16] 65,536 InstanceNorm1d-72 [-1, 256, 16] 512 _BlockBo...neckNd-73 [-1, 256, 16] 0 _BlockResStkNd-74 [-1, 256, 16] 0 InstanceNorm1d-75 [-1, 256, 16] 512 PReLU-76 [-1, 256, 16] 256 Conv1d-77 [-1, 256, 16] 65,536 InstanceNorm1d-78 [-1, 256, 16] 512 PReLU-79 [-1, 256, 16] 256 Conv1d-80 [-1, 256, 16] 196,608 InstanceNorm1d-81 [-1, 256, 16] 512 PReLU-82 [-1, 256, 16] 256 Conv1d-83 [-1, 512, 16] 131,072 Conv1d-84 [-1, 512, 16] 131,072 InstanceNorm1d-85 [-1, 512, 16] 1,024 _BlockBo...neckNd-86 [-1, 512, 16] 0 InstanceNorm1d-87 [-1, 512, 16] 1,024 PReLU-88 [-1, 512, 16] 512 Conv1d-89 [-1, 512, 16] 262,144 InstanceNorm1d-90 [-1, 512, 16] 1,024 PReLU-91 [-1, 512, 16] 512 Conv1d-92 [-1, 512, 8] 786,432 InstanceNorm1d-93 [-1, 512, 8] 1,024 PReLU-94 [-1, 512, 8] 512 Conv1d-95 [-1, 512, 8] 262,144 Conv1d-96 [-1, 512, 8] 262,144 InstanceNorm1d-97 [-1, 512, 8] 1,024 _BlockBo...neckNd-98 [-1, 512, 8] 0 _BlockResStkNd-99 [-1, 512, 8] 0 InstanceNorm1d-100 [-1, 512, 8] 1,024 PReLU-101 [-1, 512, 8] 512 Conv1d-102 [-1, 512, 8] 262,144 InstanceNorm1d-103 [-1, 512, 8] 1,024 PReLU-104 [-1, 512, 8] 512 Conv1d-105 [-1, 512, 8] 786,432 InstanceNorm1d-106 [-1, 512, 8] 1,024 PReLU-107 [-1, 512, 8] 512 Conv1d-108 [-1, 1024, 8] 524,288 Conv1d-109 [-1, 1024, 8] 524,288 InstanceNorm1d-110 [-1, 1024, 8] 2,048 _BlockBo...eckNd-111 [-1, 1024, 8] 0 InstanceNorm1d-112 [-1, 1024, 8] 2,048 PReLU-113 [-1, 1024, 8] 1,024 Conv1d-114 [-1, 1024, 8] 1,048,576 InstanceNorm1d-115 [-1, 1024, 8] 2,048 PReLU-116 [-1, 1024, 8] 1,024 Conv1d-117 [-1, 1024, 8] 3,145,728 InstanceNorm1d-118 [-1, 1024, 8] 2,048 PReLU-119 [-1, 1024, 8] 1,024 Conv1d-120 [-1, 1024, 8] 1,048,576 _BlockBo...eckNd-121 [-1, 1024, 8] 0 InstanceNorm1d-122 [-1, 1024, 8] 2,048 PReLU-123 [-1, 1024, 8] 1,024 Conv1d-124 [-1, 1024, 8] 1,048,576 InstanceNorm1d-125 [-1, 1024, 8] 2,048 PReLU-126 [-1, 1024, 8] 1,024 Upsample-127 [-1, 1024, 16] 0 Conv1d-128 [-1, 1024, 16] 3,145,728 InstanceNorm1d-129 [-1, 1024, 16] 2,048 PReLU-130 [-1, 1024, 16] 1,024 Conv1d-131 [-1, 512, 16] 524,288 Upsample-132 [-1, 1024, 16] 0 Conv1d-133 [-1, 512, 16] 524,288 InstanceNorm1d-134 [-1, 512, 16] 1,024 _BlockBo...eckNd-135 [-1, 512, 16] 0 _BlockResStkNd-136 [-1, 512, 16] 0 InstanceNorm1d-137 [-1, 512, 16] 1,024 PReLU-138 [-1, 512, 16] 512 Conv1d-139 [-1, 512, 16] 262,144 InstanceNorm1d-140 [-1, 512, 16] 1,024 PReLU-141 [-1, 512, 16] 512 Conv1d-142 [-1, 512, 16] 786,432 InstanceNorm1d-143 [-1, 512, 16] 1,024 PReLU-144 [-1, 512, 16] 512 Conv1d-145 [-1, 512, 16] 262,144 _BlockBo...eckNd-146 [-1, 512, 16] 0 InstanceNorm1d-147 [-1, 512, 16] 1,024 PReLU-148 [-1, 512, 16] 512 Conv1d-149 [-1, 512, 16] 262,144 InstanceNorm1d-150 [-1, 512, 16] 1,024 PReLU-151 [-1, 512, 16] 512 Upsample-152 [-1, 512, 32] 0 Conv1d-153 [-1, 512, 32] 786,432 InstanceNorm1d-154 [-1, 512, 32] 1,024 PReLU-155 [-1, 512, 32] 512 Conv1d-156 [-1, 256, 32] 131,072 Upsample-157 [-1, 512, 32] 0 Conv1d-158 [-1, 256, 32] 131,072 InstanceNorm1d-159 [-1, 256, 32] 512 _BlockBo...eckNd-160 [-1, 256, 32] 0 _BlockResStkNd-161 [-1, 256, 32] 0 InstanceNorm1d-162 [-1, 256, 32] 512 PReLU-163 [-1, 256, 32] 256 Conv1d-164 [-1, 256, 32] 65,536 InstanceNorm1d-165 [-1, 256, 32] 512 PReLU-166 [-1, 256, 32] 256 Conv1d-167 [-1, 256, 32] 196,608 InstanceNorm1d-168 [-1, 256, 32] 512 PReLU-169 [-1, 256, 32] 256 Conv1d-170 [-1, 256, 32] 65,536 _BlockBo...eckNd-171 [-1, 256, 32] 0 InstanceNorm1d-172 [-1, 256, 32] 512 PReLU-173 [-1, 256, 32] 256 Conv1d-174 [-1, 256, 32] 65,536 InstanceNorm1d-175 [-1, 256, 32] 512 PReLU-176 [-1, 256, 32] 256 Upsample-177 [-1, 256, 64] 0 Conv1d-178 [-1, 256, 64] 196,608 InstanceNorm1d-179 [-1, 256, 64] 512 PReLU-180 [-1, 256, 64] 256 Conv1d-181 [-1, 128, 64] 32,768 Upsample-182 [-1, 256, 64] 0 Conv1d-183 [-1, 128, 64] 32,768 InstanceNorm1d-184 [-1, 128, 64] 256 _BlockBo...eckNd-185 [-1, 128, 64] 0 _BlockResStkNd-186 [-1, 128, 64] 0 InstanceNorm1d-187 [-1, 128, 64] 256 PReLU-188 [-1, 128, 64] 128 Conv1d-189 [-1, 128, 64] 16,384 InstanceNorm1d-190 [-1, 128, 64] 256 PReLU-191 [-1, 128, 64] 128 Conv1d-192 [-1, 128, 64] 49,152 InstanceNorm1d-193 [-1, 128, 64] 256 PReLU-194 [-1, 128, 64] 128 Conv1d-195 [-1, 128, 64] 16,384 _BlockBo...eckNd-196 [-1, 128, 64] 0 InstanceNorm1d-197 [-1, 128, 64] 256 PReLU-198 [-1, 128, 64] 128 Conv1d-199 [-1, 128, 64] 16,384 InstanceNorm1d-200 [-1, 128, 64] 256 PReLU-201 [-1, 128, 64] 128 Upsample-202 [-1, 128, 128] 0 Conv1d-203 [-1, 128, 128] 49,152 InstanceNorm1d-204 [-1, 128, 128] 256 PReLU-205 [-1, 128, 128] 128 Conv1d-206 [-1, 64, 128] 8,192 Upsample-207 [-1, 128, 128] 0 Conv1d-208 [-1, 64, 128] 8,192 InstanceNorm1d-209 [-1, 64, 128] 128 _BlockBo...eckNd-210 [-1, 64, 128] 0 _BlockResStkNd-211 [-1, 64, 128] 0 InstanceNorm1d-212 [-1, 64, 128] 128 PReLU-213 [-1, 64, 128] 64 Conv1d-214 [-1, 64, 128] 4,096 InstanceNorm1d-215 [-1, 64, 128] 128 PReLU-216 [-1, 64, 128] 64 Conv1d-217 [-1, 64, 128] 12,288 InstanceNorm1d-218 [-1, 64, 128] 128 PReLU-219 [-1, 64, 128] 64 Conv1d-220 [-1, 64, 128] 4,096 _BlockBo...eckNd-221 [-1, 64, 128] 0 InstanceNorm1d-222 [-1, 64, 128] 128 PReLU-223 [-1, 64, 128] 64 Conv1d-224 [-1, 64, 128] 4,096 InstanceNorm1d-225 [-1, 64, 128] 128 PReLU-226 [-1, 64, 128] 64 Conv1d-227 [-1, 64, 128] 12,288 InstanceNorm1d-228 [-1, 64, 128] 128 PReLU-229 [-1, 64, 128] 64 Conv1d-230 [-1, 64, 128] 4,096 _BlockBo...eckNd-231 [-1, 64, 128] 0 _BlockResStkNd-232 [-1, 64, 128] 0 Conv1d-233 [-1, 1, 128] 321 AE1d-234 [-1, 1, 128] 0 ================================================================ Total params: 18,924,609 Trainable params: 18,924,609 Non-trainable params: 0 ---------------------------------------------------------------- Input size (MB): 0.00 Forward/backward pass size (MB): 13.75 Params size (MB): 72.19 Estimated Total Size (MB): 85.95 ----------------------------------------------------------------","title"
…
ng the depth of the network. Examples \u00b6 Example Codes 1 2 3 4 5 import mdnc net = mdnc . modules . resnet . AE2d ( 64 , [ 2 , 2 , 2 , 2 , 3 ], in_planes = 3 , out_planes = 1 ) print ( 'The number of convolutional layers along the depth is {0} .' . format ( net . nlayers )) mdnc . contribs . torchsummary . summary ( net , ( 3 , 64 , 63 ), device = 'cpu' ) Output The number of convolutional layers along the depth is 59. ---------------------------------------------------------------- Layer (type) Output Shape Param # ================================================================ Conv2d-1 [-1, 64, 64, 63] 4,800 InstanceNorm2d-2 [-1, 64, 64, 63] 128 PReLU-3 [-1, 64, 64, 63] 64 Conv2d-4 [-1, 64, 64, 63] 4,096 InstanceNorm2d-5 [-1, 64, 64, 63] 128 PReLU-6 [-1, 64, 64, 63] 64 Conv2d-7 [-1, 64, 64, 63] 36,864 InstanceNorm2d-8 [-1, 64, 64, 63] 128 PReLU-9 [-1, 64, 64, 63] 64 Conv2d-10 [-1, 64, 64, 63] 4,096 _BlockBo...neckNd-11 [-1, 64, 64, 63] 0 InstanceNorm2d-12 [-1, 64, 64, 63] 128 PReLU-13 [-1, 64, 64, 63] 64 Conv2d-14 [-1, 64, 64, 63] 4,096 InstanceNorm2d-15 [-1, 64, 64, 63] 128 PReLU-16 [-1, 64, 64, 63] 64 Conv2d-17 [-1, 64, 32, 32] 36,864 InstanceNorm2d-18 [-1, 64, 32, 32] 128 PReLU-19 [-1, 64, 32, 32] 64 Conv2d-20 [-1, 64, 32, 32] 4,096 Conv2d-21 [-1, 64, 32, 32] 4,096 InstanceNorm2d-22 [-1, 64, 32, 32] 128 _BlockBo...neckNd-23 [-1, 64, 32, 32] 0 _BlockResStkNd-24 [-1, 64, 32, 32] 0 InstanceNorm2d-25 [-1, 64, 32, 32] 128 PReLU-26 [-1, 64, 32, 32] 64 Conv2d-27 [-1, 64, 32, 32] 4,096 InstanceNorm2d-28 [-1, 64, 32, 32] 128 PReLU-29 [-1, 64, 32, 32] 64 Conv2d-30 [-1, 64, 32, 32] 36,864 InstanceNorm2d-31 [-1, 64, 32, 32] 128 PReLU-32 [-1, 64, 32, 32] 64 Conv2d-33 [-1, 128, 32, 32] 8,192 Conv2d-34 [-1, 128, 32, 32] 8,192 InstanceNorm2d-35 [-1, 128, 32, 32] 256 _BlockBo...neckNd-36 [-1, 128, 32, 32] 0 InstanceNorm2d-37 [-1, 128, 32, 32] 256 PReLU-38 [-1, 128, 32, 32] 128 Conv2d-39 [-1, 128, 32, 32] 16,384 InstanceNorm2d-40 [-1, 128, 32, 32] 256 PReLU-41 [-1, 128, 32, 32] 128 Conv2d-42 [-1, 128, 16, 16] 147,456 InstanceNorm2d-43 [-1, 128, 16, 16] 256 PReLU-44 [-1, 128, 16, 16] 128 Conv2d-45 [-1, 128, 16, 16] 16,384 Conv2d-46 [-1, 128, 16, 16] 16,384 InstanceNorm2d-47 [-1, 128, 16, 16] 256 _BlockBo...neckNd-48 [-1, 128, 16, 16] 0 _BlockResStkNd-49 [-1, 128, 16, 16] 0 InstanceNorm2d-50 [-1, 128, 16, 16] 256 PReLU-51 [-1, 128, 16, 16] 128 Conv2d-52 [-1, 128, 16, 16] 16,384 InstanceNorm2d-53 [-1, 128, 16, 16] 256 PReLU-54 [-1, 128, 16, 16] 128 Conv2d-55 [-1, 128, 16, 16] 147,456 InstanceNorm2d-56 [-1, 128, 16, 16] 256 PReLU-57 [-1, 128, 16, 16] 128 Conv2d-58 [-1, 256, 16, 16] 32,768 Conv2d-59 [-1, 256, 16, 16] 32,768 InstanceNorm2d-60 [-1, 256, 16, 16] 512 _BlockBo...neckNd-61 [-1, 256, 16, 16] 0 InstanceNorm2d-62 [-1, 256, 16, 16] 512 PReLU-63 [-1, 256, 16, 16] 256 Conv2d-64 [-1, 256, 16, 16] 65,536 InstanceNorm2d-65 [-1, 256, 16, 16] 512 PReLU-66 [-1, 256, 16, 16] 256 Conv2d-67 [-1, 256, 8, 8] 589,824 InstanceNorm2d-68 [-1, 256, 8, 8] 512 PReLU-69 [-1, 256, 8, 8] 256 Conv2d-70 [-1, 256, 8, 8] 65,536 Conv2d-71 [-1, 256, 8, 8] 65,536 InstanceNorm2d-72 [-1, 256, 8, 8] 512 _BlockBo...neckNd-73 [-1, 256, 8, 8] 0 _BlockResStkNd-74 [-1, 256, 8, 8] 0 InstanceNorm2d-75 [-1, 256, 8, 8] 512 PReLU-76 [-1, 256, 8, 8] 256 Conv2d-77 [-1, 256, 8, 8] 65,536 InstanceNorm2d-78 [-1, 256, 8, 8] 512 PReLU-79 [-1, 256, 8, 8] 256 Conv2d-80 [-1, 256, 8, 8] 589,824 InstanceNorm2d-81 [-1, 256, 8, 8] 512 PReLU-82 [-1, 256, 8, 8] 256 Conv2d-83 [-1, 512, 8, 8] 131,072 Conv2d-84 [-1, 512, 8, 8] 131,072 InstanceNorm2d-85 [-1, 512, 8, 8] 1,024 _BlockBo...neckNd-86 [-1, 512, 8, 8] 0 InstanceNorm2d-87 [-1, 512, 8, 8] 1,024 PReLU-88 [-1, 512, 8, 8] 512 Conv2d-89 [-1, 512, 8, 8] 262,144 InstanceNorm2d-90 [-1, 512, 8, 8] 1,024 PReLU-91 [-1, 512, 8, 8] 512 Conv2d-92 [-1, 512, 4, 4] 2,359,296 InstanceNorm2d-93 [-1, 512, 4, 4] 1,024 PReLU-94 [-1, 512, 4, 4] 512 Conv2d-95 [-1, 512, 4, 4] 262,144 Conv2d-96 [-1, 512, 4, 4] 262,144 InstanceNorm2d-97 [-1, 512, 4, 4] 1,024 _BlockBo...neckNd-98 [-1, 512, 4, 4] 0 _BlockResStkNd-99 [-1, 512, 4, 4] 0 InstanceNorm2d-100 [-1, 512, 4, 4] 1,024 PReLU-101 [-1, 512, 4, 4] 512 Conv2d-102 [-1, 512, 4, 4] 262,144 InstanceNorm2d-103 [-1, 512, 4, 4] 1,024 PReLU-104 [-1, 512, 4, 4] 512 Conv2d-105 [-1, 512, 4, 4] 2,359,296 InstanceNorm2d-106 [-1, 512, 4, 4] 1,024 PReLU-107 [-1, 512, 4, 4] 512 Conv2d-108 [-1, 1024, 4, 4] 524,288 Conv2d-109 [-1, 1024, 4, 4] 524,288 InstanceNorm2d-110 [-1, 1024, 4, 4] 2,048 _BlockBo...eckNd-111 [-1, 1024, 4, 4] 0 InstanceNorm2d-112 [-1, 1024, 4, 4] 2,048 PReLU-113 [-1, 1024, 4, 4] 1,024 Conv2d-114 [-1, 1024, 4, 4] 1,048,576 InstanceNorm2d-115 [-1, 1024, 4, 4] 2,048 PReLU-116 [-1, 1024, 4, 4] 1,024 Conv2d-117 [-1, 1024, 4, 4] 9,437,184 InstanceNorm2d-118 [-1, 1024, 4, 4] 2,048 PReLU-119 [-1, 1024, 4, 4] 1,024 Conv2d-120 [-1, 1024, 4, 4] 1,048,576 _BlockBo...eckNd-121 [-1, 1024, 4, 4] 0 InstanceNorm2d-122 [-1, 1024, 4, 4] 2,048 PReLU-123 [-1, 1024, 4, 4] 1,024 Conv2d-124 [-1, 1024, 4, 4] 1,048,576 InstanceNorm2d-125 [-1, 1024, 4, 4] 2,048 PReLU-126 [-1, 1024, 4, 4] 1,024 Upsample-127 [-1, 1024, 8, 8] 0 Conv2d-128 [-1, 1024, 8, 8] 9,437,184 InstanceNorm2d-129 [-1, 1024, 8, 8] 2,048 PReLU-130 [-1, 1024, 8, 8] 1,024 Conv2d-131 [-1, 512, 8, 8] 524,288 Upsample-132 [-1, 1024, 8, 8] 0 Conv2d-133 [-1, 512, 8, 8] 524,288 InstanceNorm2d-134 [-1, 512, 8, 8] 1,024 _BlockBo...eckNd-135 [-1, 512, 8, 8] 0 _BlockResStkNd-136 [-1, 512, 8, 8] 0 InstanceNorm2d-137 [-1, 512, 8, 8] 1,024 PReLU-138 [-1, 512, 8, 8] 512 Conv2d-139 [-1, 512, 8, 8] 262,144 InstanceNorm2d-140 [-1, 512, 8, 8] 1,024 PReLU-141 [-1, 512, 8, 8] 512 Conv2d-142 [-1, 512, 8, 8] 2,359,296 InstanceNorm2d-143 [-1, 512, 8, 8] 1,024 PReLU-144 [-1, 512, 8, 8] 512 Conv2d-145 [-1, 512, 8, 8] 262,144 _BlockBo...eckNd-146 [-1, 512, 8, 8] 0 InstanceNorm2d-147 [-1, 512, 8, 8] 1,024 PReLU-148 [-1, 512, 8, 8] 512 Conv2d-149 [-1, 512, 8, 8] 262,144 InstanceNorm2d-150 [-1, 512, 8, 8] 1,024 PReLU-151 [-1, 512, 8, 8] 512 Upsample-152 [-1, 512, 16, 16] 0 Conv2d-153 [-1, 512, 16, 16] 2,359,296 InstanceNorm2d-154 [-1, 512, 16, 16] 1,024 PReLU-155 [-1, 512, 16, 16] 512 Conv2d-156 [-1, 256, 16, 16] 131,072 Upsample-157 [-1, 512, 16, 16] 0 Conv2d-158 [-1, 256, 16, 16] 131,072 InstanceNorm2d-159 [-1, 256, 16, 16] 512 _BlockBo...eckNd-160 [-1, 256, 16, 16] 0 _BlockResStkNd-161 [-1, 256, 16, 16] 0 InstanceNorm2d-162 [-1, 256, 16, 16] 512 PReLU-163 [-1, 256, 16, 16] 256 Conv2d-164 [-1, 256, 16, 16] 65,536 InstanceNorm2d-165 [-1, 256, 16, 16] 512 PReLU-166 [-1, 256, 16, 16] 256 Conv2d-167 [-1, 256, 16, 16] 589,824 InstanceNorm2d-168 [-1, 256, 16, 16] 512 PReLU-169 [-1, 256, 16, 16] 256 Conv2d-170 [-1, 256, 16, 16] 65,536 _BlockBo...eckNd-171 [-1, 256, 16, 16] 0 InstanceNorm2d-172 [-1, 256, 16, 16] 512 PReLU-173 [-1, 256, 16, 16] 256 Conv2d-174 [-1, 256, 16, 16] 65,536 InstanceNorm2d-175 [-1, 256, 16, 16] 512 PReLU-176 [-1, 256, 16, 16] 256 Upsample-177 [-1, 256, 32, 32] 0 Conv2d-178 [-1, 256, 32, 32] 589,824 InstanceNorm2d-179 [-1, 256, 32, 32] 512 PReLU-180 [-1, 256, 32, 32] 256 Conv2d-181 [-1, 128, 32, 32] 32,768 Upsample-182 [-1, 256, 32, 32] 0 Conv2d-183 [-1, 128, 32, 32] 32,768 InstanceNorm2d-184 [-1, 128, 32, 32] 256 _BlockBo...eckNd-185 [-1, 128, 32, 32] 0 _BlockResStkNd-186 [-1, 128, 32, 32] 0 InstanceNorm2d-187 [-1, 128, 32, 32] 256 PReLU-188 [-1, 128, 32, 32] 128 Conv2d-189 [-1, 128, 32, 32] 16,384 InstanceNorm2d-190 [-1, 128, 32, 32] 256 PReLU-191 [-1, 128, 32, 32] 128 Conv2d-192 [-1, 128, 32, 32] 147,456 InstanceNorm2d-193 [-1, 128, 32, 32] 256 PReLU-194 [-1, 128, 32, 32] 128 Conv2d-195 [-1, 128, 32, 32] 16,384 _BlockBo...eckNd-196 [-1, 128, 32, 32] 0 InstanceNorm2d-197 [-1, 128, 32, 32] 256 PReLU-198 [-1, 128, 32, 32] 128 Conv2d-199 [-1, 128, 32, 32] 16,384 InstanceNorm2d-200 [-1, 128, 32, 32] 256 PReLU-201 [-1, 128, 32, 32] 128 Upsample-202 [-1, 128, 64, 64] 0 Conv2d-203 [-1, 128, 64, 64] 147,456 InstanceNorm2d-204 [-1, 128, 64, 64] 256 PReLU-205 [-1, 128, 64, 64] 128 Conv2d-206 [-1, 64, 64, 64] 8,192 Upsample-207 [-1, 128, 64, 64] 0 Conv2d-208 [-1, 64, 64, 64] 8,192 InstanceNorm2d-209 [-1, 64, 64, 64] 128 _BlockBo...eckNd-210 [-1, 64, 64, 64] 0 _BlockResStkNd-211 [-1, 64, 64, 64] 0 InstanceNorm2d-212 [-1, 64, 64, 63] 128 PReLU-213 [-1, 64, 64, 63] 64 Conv2d-214 [-1, 64, 64, 63] 4,096 InstanceNorm2d-215 [-1, 64, 64, 63] 128 PReLU-216 [-1, 64, 64, 63] 64 Conv2d-217 [-1, 64, 64, 63] 36,864 InstanceNorm2d-218 [-1, 64, 64, 63] 128 PReLU-219 [-1, 64, 64, 63] 64 Conv2d-220 [-1, 64, 64, 63] 4,096 _BlockBo...eckNd-221 [-1, 64, 64, 63] 0 InstanceNorm2d-222 [-1, 64, 64, 63] 128 PReLU-223 [-1, 64, 64, 63] 64 Conv2d-224 [-1, 64, 64, 63] 4,096 InstanceNorm2d-225 [-1, 64, 64, 63] 128 PReLU-226 [-1, 64, 64, 63] 64 Conv2d-227 [-1, 64, 64, 63] 36,864 InstanceNorm2d-228 [-1, 64, 64, 63] 128 PReLU-229 [-1, 64, 64, 63] 64 Conv2d-230 [-1, 64, 64, 63] 4,096 _BlockBo...eckNd-231 [-1, 64, 64, 63] 0 _BlockResStkNd-232 [-1, 64, 64, 63] 0 Conv2d-233 [-1, 1, 64, 63] 1,601 AE2d-234 [-1, 1, 64, 63] 0 ================================================================ Total params: 39,893,057 Trainable params: 39,893,057 Non-trainable params: 0 ---------------------------------------------------------------- Input size (MB): 0.05 Forward/backward pass size (MB): 188.53 Params size (MB): 152.18 Estimated Total Size (MB): 340.76 ----------------------------------------------------------------","tit
…
e depth of the network. Examples \u00b6 Example Codes 1 2 3 4 5 import mdnc net = mdnc . modules . resnet . AE3d ( 64 , [ 2 , 2 , 2 , 2 , 3 ], in_planes = 3 , out_planes = 1 ) print ( 'The number of convolutional layers along the depth is {0} .' . format ( net . nlayers )) mdnc . contribs . torchsummary . summary ( net , ( 3 , 31 , 32 , 30 ), device = 'cpu' ) Output The number of convolutional layers along the depth is 25. ---------------------------------------------------------------- Layer (type) Output Shape Param # ================================================================ Conv3d-1 [-1, 64, 31, 32, 30] 24,000 InstanceNorm3d-2 [-1, 64, 31, 32, 30] 128 PReLU-3 [-1, 64, 31, 32, 30] 64 Conv3d-4 [-1, 64, 31, 32, 30] 4,096 InstanceNorm3d-5 [-1, 64, 31, 32, 30] 128 PReLU-6 [-1, 64, 31, 32, 30] 64 Conv3d-7 [-1, 64, 31, 32, 30] 110,592 InstanceNorm3d-8 [-1, 64, 31, 32, 30] 128 PReLU-9 [-1, 64, 31, 32, 30] 64 Conv3d-10 [-1, 64, 31, 32, 30] 4,096 _BlockBo...neckNd-11 [-1, 64, 31, 32, 30] 0 InstanceNorm3d-12 [-1, 64, 31, 32, 30] 128 PReLU-13 [-1, 64, 31, 32, 30] 64 Conv3d-14 [-1, 64, 31, 32, 30] 4,096 InstanceNorm3d-15 [-1, 64, 31, 32, 30] 128 PReLU-16 [-1, 64, 31, 32, 30] 64 Conv3d-17 [-1, 64, 16, 16, 15] 110,592 InstanceNorm3d-18 [-1, 64, 16, 16, 15] 128 PReLU-19 [-1, 64, 16, 16, 15] 64 Conv3d-20 [-1, 64, 16, 16, 15] 4,096 Conv3d-21 [-1, 64, 16, 16, 15] 4,096 InstanceNorm3d-22 [-1, 64, 16, 16, 15] 128 _BlockBo...neckNd-23 [-1, 64, 16, 16, 15] 0 _BlockResStkNd-24 [-1, 64, 16, 16, 15] 0 InstanceNorm3d-25 [-1, 64, 16, 16, 15] 128 PReLU-26 [-1, 64, 16, 16, 15] 64 Conv3d-27 [-1, 64, 16, 16, 15] 4,096 InstanceNorm3d-28 [-1, 64, 16, 16, 15] 128 PReLU-29 [-1, 64, 16, 16, 15] 64 Conv3d-30 [-1, 64, 16, 16, 15] 110,592 InstanceNorm3d-31 [-1, 64, 16, 16, 15] 128 PReLU-32 [-1, 64, 16, 16, 15] 64 Conv3d-33 [-1, 128, 16, 16, 15] 8,192 Conv3d-34 [-1, 128, 16, 16, 15] 8,192 InstanceNorm3d-35 [-1, 128, 16, 16, 15] 256 _BlockBo...neckNd-36 [-1, 128, 16, 16, 15] 0 InstanceNorm3d-37 [-1, 128, 16, 16, 15] 256 PReLU-38 [-1, 128, 16, 16, 15] 128 Conv3d-39 [-1, 128, 16, 16, 15] 16,384 InstanceNorm3d-40 [-1, 128, 16, 16, 15] 256 PReLU-41 [-1, 128, 16, 16, 15] 128 Conv3d-42 [-1, 128, 8, 8, 8] 442,368 InstanceNorm3d-43 [-1, 128, 8, 8, 8] 256 PReLU-44 [-1, 128, 8, 8, 8] 128 Conv3d-45 [-1, 128, 8, 8, 8] 16,384 Conv3d-46 [-1, 128, 8, 8, 8] 16,384 InstanceNorm3d-47 [-1, 128, 8, 8, 8] 256 _BlockBo...neckNd-48 [-1, 128, 8, 8, 8] 0 _BlockResStkNd-49 [-1, 128, 8, 8, 8] 0 InstanceNorm3d-50 [-1, 128, 8, 8, 8] 256 PReLU-51 [-1, 128, 8, 8, 8] 128 Conv3d-52 [-1, 128, 8, 8, 8] 16,384 InstanceNorm3d-53 [-1, 128, 8, 8, 8] 256 PReLU-54 [-1, 128, 8, 8, 8] 128 Conv3d-55 [-1, 128, 8, 8, 8] 442,368 InstanceNorm3d-56 [-1, 128, 8, 8, 8] 256 PReLU-57 [-1, 128, 8, 8, 8] 128 Conv3d-58 [-1, 256, 8, 8, 8] 32,768 Conv3d-59 [-1, 256, 8, 8, 8] 32,768 InstanceNorm3d-60 [-1, 256, 8, 8, 8] 512 _BlockBo...neckNd-61 [-1, 256, 8, 8, 8] 0 InstanceNorm3d-62 [-1, 256, 8, 8, 8] 512 PReLU-63 [-1, 256, 8, 8, 8] 256 Conv3d-64 [-1, 256, 8, 8, 8] 65,536 InstanceNorm3d-65 [-1, 256, 8, 8, 8] 512 PReLU-66 [-1, 256, 8, 8, 8] 256 Conv3d-67 [-1, 256, 4, 4, 4] 1,769,472 InstanceNorm3d-68 [-1, 256, 4, 4, 4] 512 PReLU-69 [-1, 256, 4, 4, 4] 256 Conv3d-70 [-1, 256, 4, 4, 4] 65,536 Conv3d-71 [-1, 256, 4, 4, 4] 65,536 InstanceNorm3d-72 [-1, 256, 4, 4, 4] 512 _BlockBo...neckNd-73 [-1, 256, 4, 4, 4] 0 _BlockResStkNd-74 [-1, 256, 4, 4, 4] 0 InstanceNorm3d-75 [-1, 256, 4, 4, 4] 512 PReLU-76 [-1, 256, 4, 4, 4] 256 Conv3d-77 [-1, 256, 4, 4, 4] 65,536 InstanceNorm3d-78 [-1, 256, 4, 4, 4] 512 PReLU-79 [-1, 256, 4, 4, 4] 256 Conv3d-80 [-1, 256, 4, 4, 4] 1,769,472 InstanceNorm3d-81 [-1, 256, 4, 4, 4] 512 PReLU-82 [-1, 256, 4, 4, 4] 256 Conv3d-83 [-1, 512, 4, 4, 4] 131,072 Conv3d-84 [-1, 512, 4, 4, 4] 131,072 InstanceNorm3d-85 [-1, 512, 4, 4, 4] 1,024 _BlockBo...neckNd-86 [-1, 512, 4, 4, 4] 0 InstanceNorm3d-87 [-1, 512, 4, 4, 4] 1,024 PReLU-88 [-1, 512, 4, 4, 4] 512 Conv3d-89 [-1, 512, 4, 4, 4] 262,144 InstanceNorm3d-90 [-1, 512, 4, 4, 4] 1,024 PReLU-91 [-1, 512, 4, 4, 4] 512 Conv3d-92 [-1, 512, 2, 2, 2] 7,077,888 InstanceNorm3d-93 [-1, 512, 2, 2, 2] 1,024 PReLU-94 [-1, 512, 2, 2, 2] 512 Conv3d-95 [-1, 512, 2, 2, 2] 262,144 Conv3d-96 [-1, 512, 2, 2, 2] 262,144 InstanceNorm3d-97 [-1, 512, 2, 2, 2] 1,024 _BlockBo...neckNd-98 [-1, 512, 2, 2, 2] 0 _BlockResStkNd-99 [-1, 512, 2, 2, 2] 0 InstanceNorm3d-100 [-1, 512, 2, 2, 2] 1,024 PReLU-101 [-1, 512, 2, 2, 2] 512 Conv3d-102 [-1, 512, 2, 2, 2] 262,144 InstanceNorm3d-103 [-1, 512, 2, 2, 2] 1,024 PReLU-104 [-1, 512, 2, 2, 2] 512 Conv3d-105 [-1, 512, 2, 2, 2] 7,077,888 InstanceNorm3d-106 [-1, 512, 2, 2, 2] 1,024 PReLU-107 [-1, 512, 2, 2, 2] 512 Conv3d-108 [-1, 1024, 2, 2, 2] 524,288 Conv3d-109 [-1, 1024, 2, 2, 2] 524,288 InstanceNorm3d-110 [-1, 1024, 2, 2, 2] 2,048 _BlockBo...eckNd-111 [-1, 1024, 2, 2, 2] 0 InstanceNorm3d-112 [-1, 1024, 2, 2, 2] 2,048 PReLU-113 [-1, 1024, 2, 2, 2] 1,024 Conv3d-114 [-1, 1024, 2, 2, 2] 1,048,576 InstanceNorm3d-115 [-1, 1024, 2, 2, 2] 2,048 PReLU-116 [-1, 1024, 2, 2, 2] 1,024 Conv3d-117 [-1, 1024, 2, 2, 2] 28,311,552 InstanceNorm3d-118 [-1, 1024, 2, 2, 2] 2,048 PReLU-119 [-1, 1024, 2, 2, 2] 1,024 Conv3d-120 [-1, 1024, 2, 2, 2] 1,048,576 _BlockBo...eckNd-121 [-1, 1024, 2, 2, 2] 0 InstanceNorm3d-122 [-1, 1024, 2, 2, 2] 2,048 PReLU-123 [-1, 1024, 2, 2, 2] 1,024 Conv3d-124 [-1, 1024, 2, 2, 2] 1,048,576 InstanceNorm3d-125 [-1, 1024, 2, 2, 2] 2,048 PReLU-126 [-1, 1024, 2, 2, 2] 1,024 Upsample-127 [-1, 1024, 4, 4, 4] 0 Conv3d-128 [-1, 1024, 4, 4, 4] 28,311,552 InstanceNorm3d-129 [-1, 1024, 4, 4, 4] 2,048 PReLU-130 [-1, 1024, 4, 4, 4] 1,024 Conv3d-131 [-1, 512, 4, 4, 4] 524,288 Upsample-132 [-1, 1024, 4, 4, 4] 0 Conv3d-133 [-1, 512, 4, 4, 4] 524,288 InstanceNorm3d-134 [-1, 512, 4, 4, 4] 1,024 _BlockBo...eckNd-135 [-1, 512, 4, 4, 4] 0 _BlockResStkNd-136 [-1, 512, 4, 4, 4] 0 InstanceNorm3d-137 [-1, 512, 4, 4, 4] 1,024 PReLU-138 [-1, 512, 4, 4, 4] 512 Conv3d-139 [-1, 512, 4, 4, 4] 262,144 InstanceNorm3d-140 [-1, 512, 4, 4, 4] 1,024 PReLU-141 [-1, 512, 4, 4, 4] 512 Conv3d-142 [-1, 512, 4, 4, 4] 7,077,888 InstanceNorm3d-143 [-1, 512, 4, 4, 4] 1,024 PReLU-144 [-1, 512, 4, 4, 4] 512 Conv3d-145 [-1, 512, 4, 4, 4] 262,144 _BlockBo...eckNd-146 [-1, 512, 4, 4, 4] 0 InstanceNorm3d-147 [-1, 512, 4, 4, 4] 1,024 PReLU-148 [-1, 512, 4, 4, 4] 512 Conv3d-149 [-1, 512, 4, 4, 4] 262,144 InstanceNorm3d-150 [-1, 512, 4, 4, 4] 1,024 PReLU-151 [-1, 512, 4, 4, 4] 512 Upsample-152 [-1, 512, 8, 8, 8] 0 Conv3d-153 [-1, 512, 8, 8, 8] 7,077,888 InstanceNorm3d-154 [-1, 512, 8, 8, 8] 1,024 PReLU-155 [-1, 512, 8, 8, 8] 512 Conv3d-156 [-1, 256, 8, 8, 8] 131,072 Upsample-157 [-1, 512, 8, 8, 8] 0 Conv3d-158 [-1, 256, 8, 8, 8] 131,072 InstanceNorm3d-159 [-1, 256, 8, 8, 8] 512 _BlockBo...eckNd-160 [-1, 256, 8, 8, 8] 0 _BlockResStkNd-161 [-1, 256, 8, 8, 8] 0 InstanceNorm3d-162 [-1, 256, 8, 8, 8] 512 PReLU-163 [-1, 256, 8, 8, 8] 256 Conv3d-164 [-1, 256, 8, 8, 8] 65,536 InstanceNorm3d-165 [-1, 256, 8, 8, 8] 512 PReLU-166 [-1, 256, 8, 8, 8] 256 Conv3d-167 [-1, 256, 8, 8, 8] 1,769,472 InstanceNorm3d-168 [-1, 256, 8, 8, 8] 512 PReLU-169 [-1, 256, 8, 8, 8] 256 Conv3d-170 [-1, 256, 8, 8, 8] 65,536 _BlockBo...eckNd-171 [-1, 256, 8, 8, 8] 0 InstanceNorm3d-172 [-1, 256, 8, 8, 8] 512 PReLU-173 [-1, 256, 8, 8, 8] 256 Conv3d-174 [-1, 256, 8, 8, 8] 65,536 InstanceNorm3d-175 [-1, 256, 8, 8, 8] 512 PReLU-176 [-1, 256, 8, 8, 8] 256 Upsample-177 [-1, 256, 16, 16, 16] 0 Conv3d-178 [-1, 256, 16, 16, 16] 1,769,472 InstanceNorm3d-179 [-1, 256, 16, 16, 16] 512 PReLU-180 [-1, 256, 16, 16, 16] 256 Conv3d-181 [-1, 128, 16, 16, 16] 32,768 Upsample-182 [-1, 256, 16, 16, 16] 0 Conv3d-183 [-1, 128, 16, 16, 16] 32,768 InstanceNorm3d-184 [-1, 128, 16, 16, 16] 256 _BlockBo...eckNd-185 [-1, 128, 16, 16, 16] 0 _BlockResStkNd-186 [-1, 128, 16, 16, 16] 0 InstanceNorm3d-187 [-1, 128, 16, 16, 15] 256 PReLU-188 [-1, 128, 16, 16, 15] 128 Conv3d-189 [-1, 128, 16, 16, 15] 16,384 InstanceNorm3d-190 [-1, 128, 16, 16, 15] 256 PReLU-191 [-1, 128, 16, 16, 15] 128 Conv3d-192 [-1, 128, 16, 16, 15] 442,368 InstanceNorm3d-193 [-1, 128, 16, 16, 15] 256 PReLU-194 [-1, 128, 16, 16, 15] 128 Conv3d-195 [-1, 128, 16, 16, 15] 16,384 _BlockBo...eckNd-196 [-1, 128, 16, 16, 15] 0 InstanceNorm3d-197 [-1, 128, 16, 16, 15] 256 PReLU-198 [-1, 128, 16, 16, 15] 128 Conv3d-199 [-1, 128, 16, 16, 15] 16,384 InstanceNorm3d-200 [-1, 128, 16, 16, 15] 256 PReLU-201 [-1, 128, 16, 16, 15] 128 Upsample-202 [-1, 128, 32, 32, 30] 0 Conv3d-203 [-1, 128, 32, 32, 30] 442,368 InstanceNorm3d-204 [-1, 128, 32, 32, 30] 256 PReLU-205 [-1, 128, 32, 32, 30] 128 Conv3d-206 [-1, 64, 32, 32, 30] 8,192 Upsample-207 [-1, 128, 32, 32, 30] 0 Conv3d-208 [-1, 64, 32, 32, 30] 8,192 InstanceNorm3d-209 [-1, 64, 32, 32, 30] 128 _BlockBo...eckNd-210 [-1, 64, 32, 32, 30] 0 _BlockResStkNd-211 [-1, 64, 32, 32, 30] 0 InstanceNorm3d-212 [-1, 64, 31, 32, 30] 128 PReLU-213 [-1, 64, 31, 32, 30] 64 Conv3d-214 [-1, 64, 31, 32, 30] 4,096 InstanceNorm3d-215 [-1, 64, 31, 32, 30] 128 PReLU-216 [-1, 64, 31, 32, 30] 64 Conv3d-217 [-1, 64, 31, 32, 30] 110,592 InstanceNorm3d-218 [-1, 64, 31, 32, 30] 128 PReLU-219 [-1, 64, 31, 32, 30] 64 Conv3d-220 [-1, 64, 31, 32, 30] 4,096 _BlockBo...eckNd-221 [-1, 64, 31, 32, 30] 0 InstanceNorm3d-222 [-1, 64, 31, 32, 30] 128 PReLU-223 [-1, 64, 31, 32, 30] 64 Conv3d-224 [-1, 64, 31, 32, 30] 4,096 InstanceNorm3d-225 [-1, 64, 31, 32, 30] 128 PReLU-226 [-1, 64, 31, 32, 30] 64 Conv3d-227 [-1, 64, 31, 32, 30] 110,592 InstanceNorm3d-228 [-1, 64, 31, 32, 30] 128 PReLU-229 [-1, 64, 31, 32, 30] 64 Conv3d-230 [-1, 64, 31, 32, 30] 4,096 _BlockBo...eckNd-231 [-1, 64, 31, 32, 30] 0 _BlockResStkNd-232 [-1, 64, 31, 32, 30] 0 Conv3d-233 [-1, 1, 31, 32, 30] 8,001 AE3d-234 [-1, 1, 31, 32, 30] 0 ================================================================ Total params: 102,808,641 Trainable params: 102,808,641 Non-trainable params: 0 ---------------------------------------------------------------- Input size (MB): 0.34 Forward/backward pass size (MB): 1003.55 Params size (MB): 392.18 Estimated Total Size (MB): 1396.07 ----------------------------------------------------------------",
…
put channel number, and L is the output data length. Examples \u00b6 In the first example, we build a plain residual block with \u00bd down-sampling and same padding. Example 1 Codes 1 2 3 4 import mdnc layer = mdnc . modules . resnet . BlockBottleneck1d ( 16 , 32 , kernel_size = 3 , stride = 2 , padding = 1 , scaler = 'down' ) mdnc . contribs . torchsummary . summary ( layer , ( 16 , 255 ), device = 'cpu' ) Output ---------------------------------------------------------------- Layer (type) Output Shape Param # ================================================================ InstanceNorm1d-1 [-1, 16, 255] 32 PReLU-2 [-1, 16, 255] 16 Conv1d-3 [-1, 16, 255] 256 InstanceNorm1d-4 [-1, 16, 255] 32 PReLU-5 [-1, 16, 255] 16 Conv1d-6 [-1, 16, 128] 768 InstanceNorm1d-7 [-1, 16, 128] 32 PReLU-8 [-1, 16, 128] 16 Conv1d-9 [-1, 32, 128] 512 Conv1d-10 [-1, 32, 128] 512 InstanceNorm1d-11 [-1, 32, 128] 64 BlockBottleneck1d-12 [-1, 32, 128] 0 ================================================================ Total params: 2,256 Trainable params: 2,256 Non-trainable params: 0 ---------------------------------------------------------------- Input size (MB): 0.02 Forward/backward pass size (MB): 0.33 Params size (MB): 0.01 Estimated Total Size (MB): 0.35 ---------------------------------------------------------------- Note that the output 
…
he same padding is used for the input. In this case, if we want to make a reverse layer, we could specify the output_size for the up-sampling layer, for example: Example 2 Codes 1 2 3 4 import mdnc layer = mdnc . modules . resnet . BlockBottleneck1d ( 32 , 16 , kernel_size = 3 , output_size = 255 , padding = 1 , scaler = 'up' ) mdnc . contribs . torchsummary . summary ( layer , ( 32 , 128 ), device = 'cpu' ) Output ---------------------------------------------------------------- Layer (type) Output Shape Param # ================================================================ InstanceNorm1d-1 [-1, 32, 128] 64 PReLU-2 [-1, 32, 128] 32 Conv1d-3 [-1, 32, 128] 1,024 InstanceNorm1d-4 [-1, 32, 128] 64 PReLU-5 [-1, 32, 128] 32 Upsample-6 [-1, 32, 255] 0 Conv1d-7 [-1, 32, 255] 3,072 InstanceNorm1d-8 [-1, 32, 255] 64 PReLU-9 [-1, 32, 255] 32 Conv1d-10 [-1, 16, 255] 512 Upsample-11 [-1, 32, 255] 0 Conv1d-12 [-1, 16, 255] 512 InstanceNorm1d-13 [-1, 16, 255] 32 BlockBottleneck1d-14 [-1, 16, 255] 0 ================================================================ Total params: 5,440 Trainable params: 5,440 Non-trainable params: 0 ---------------------------------------------------------------- Input size (MB): 0.02 Forward/backward pass size (MB): 0.59 Params size (MB): 0.02 Estimated Total Size (MB): 0.63 ----------------------------------------------------------------","title":"<span class
…
er, and (L1, L2) is the output data size. Examples \u00b6 In the first example, we build a plain residual block with \u00bd down-sampling and same padding. Example 1 Codes 1 2 3 4 import mdnc layer = mdnc . modules . resnet . BlockBottleneck2d ( 16 , 32 , kernel_size = 3 , stride = ( 1 , 2 ), padding = 1 , scaler = 'down' ) mdnc . contribs . torchsummary . summary ( layer , ( 16 , 4 , 255 ), device = 'cpu' ) Output ---------------------------------------------------------------- Layer (type) Output Shape Param # ================================================================ InstanceNorm2d-1 [-1, 16, 4, 255] 32 PReLU-2 [-1, 16, 4, 255] 16 Conv2d-3 [-1, 16, 4, 255] 256 InstanceNorm2d-4 [-1, 16, 4, 255] 32 PReLU-5 [-1, 16, 4, 255] 16 Conv2d-6 [-1, 16, 4, 128] 2,304 InstanceNorm2d-7 [-1, 16, 4, 128] 32 PReLU-8 [-1, 16, 4, 128] 16 Conv2d-9 [-1, 32, 4, 128] 512 Conv2d-10 [-1, 32, 4, 128] 512 InstanceNorm2d-11 [-1, 32, 4, 128] 64 BlockBottleneck2d-12 [-1, 32, 4, 128] 0 ================================================================ Total params: 3,792 Trainable params: 3,792 Non-trainable params: 0 ---------------------------------------------------------------- Input size (MB): 0.06 Forward/backward pass size (MB): 1.31 Params size (MB): 0.01 Estimated Total Size (MB): 1.39 ---------------------------------------------------------------- Note that the output 
…
two axes of the input size. In this case, if we want to make a reverse layer, we could specify the output_size for the up-sampling layer, for example: Example 2 Codes 1 2 3 4 import mdnc layer = mdnc . modules . resnet . BlockBottleneck2d ( 32 , 16 , kernel_size = 3 , output_size = ( 4 , 255 ), padding = 1 , scaler = 'up' ) mdnc . contribs . torchsummary . summary ( layer , ( 32 , 4 , 128 ), device = 'cpu' ) Output ---------------------------------------------------------------- Layer (type) Output Shape Param # ================================================================ InstanceNorm2d-1 [-1, 32, 4, 128] 64 PReLU-2 [-1, 32, 4, 128] 32 Conv2d-3 [-1, 32, 4, 128] 1,024 InstanceNorm2d-4 [-1, 32, 4, 128] 64 PReLU-5 [-1, 32, 4, 128] 32 Upsample-6 [-1, 32, 4, 255] 0 Conv2d-7 [-1, 32, 4, 255] 9,216 InstanceNorm2d-8 [-1, 32, 4, 255] 64 PReLU-9 [-1, 32, 4, 255] 32 Conv2d-10 [-1, 16, 4, 255] 512 Upsample-11 [-1, 32, 4, 255] 0 Conv2d-12 [-1, 16, 4, 255] 512 InstanceNorm2d-13 [-1, 16, 4, 255] 32 BlockBottleneck2d-14 [-1, 16, 4, 255] 0 ================================================================ Total params: 11,584 Trainable params: 11,584 Non-trainable params: 0 ---------------------------------------------------------------- Input size (MB): 0.06 Forward/backward pass size (MB): 2.37 Params size (MB): 0.04 Estimated Total Size (MB): 2.47 ----------------------------------------------------------------","title":"<span cla
…
 data size. Examples \u00b6 In the first example, we build a plain residual block with \u00bd down-sampling and same padding. Example 1 Codes 1 2 3 4 import mdnc layer = mdnc . modules . resnet . BlockBottleneck3d ( 16 , 32 , kernel_size = ( 3 , 1 , 3 ), stride = ( 2 , 1 , 2 ), padding = ( 1 , 0 , 1 ), scaler = 'down' ) mdnc . contribs . torchsummary . summary ( layer , ( 16 , 32 , 4 , 63 ), device = 'cpu' ) Output ---------------------------------------------------------------- Layer (type) Output Shape Param # ================================================================ InstanceNorm3d-1 [-1, 16, 32, 4, 63] 32 PReLU-2 [-1, 16, 32, 4, 63] 16 Conv3d-3 [-1, 16, 32, 4, 63] 256 InstanceNorm3d-4 [-1, 16, 32, 4, 63] 32 PReLU-5 [-1, 16, 32, 4, 63] 16 Conv3d-6 [-1, 16, 16, 4, 32] 2,304 InstanceNorm3d-7 [-1, 16, 16, 4, 32] 32 PReLU-8 [-1, 16, 16, 4, 32] 16 Conv3d-9 [-1, 32, 16, 4, 32] 512 Conv3d-10 [-1, 32, 16, 4, 32] 512 InstanceNorm3d-11 [-1, 32, 16, 4, 32] 64 BlockBottleneck3d-12 [-1, 32, 16, 4, 32] 0 ================================================================ Total params: 3,792 Trainable params: 3,792 Non-trainable params: 0 ---------------------------------------------------------------- Input size (MB): 0.49 Forward/backward pass size (MB): 7.67 Params size (MB): 0.01 Estimated Total Size (MB): 8.18 ---------------------------------------------------------------- Note that the output 
…
 this case, if we want to make a reverse layer, we could specify the output_size for the up-sampling layer, for example: Example 2 Codes 1 2 3 4 import mdnc layer = mdnc . modules . resnet . BlockBottleneck3d ( 32 , 16 , kernel_size = ( 3 , 1 , 3 ), output_size = ( 32 , 4 , 63 ), padding = ( 1 , 0 , 1 ), scaler = 'up' ) mdnc . contribs . torchsummary . summary ( layer , ( 32 , 16 , 4 , 32 ), device = 'cpu' ) Output ---------------------------------------------------------------- Layer (type) Output Shape Param # ================================================================ InstanceNorm3d-1 [-1, 32, 16, 4, 32] 64 PReLU-2 [-1, 32, 16, 4, 32] 32 Conv3d-3 [-1, 32, 16, 4, 32] 1,024 InstanceNorm3d-4 [-1, 32, 16, 4, 32] 64 PReLU-5 [-1, 32, 16, 4, 32] 32 Upsample-6 [-1, 32, 32, 4, 63] 0 Conv3d-7 [-1, 32, 32, 4, 63] 9,216 InstanceNorm3d-8 [-1, 32, 32, 4, 63] 64 PReLU-9 [-1, 32, 32, 4, 63] 32 Conv3d-10 [-1, 16, 32, 4, 63] 512 Upsample-11 [-1, 32, 32, 4, 63] 0 Conv3d-12 [-1, 16, 32, 4, 63] 512 InstanceNorm3d-13 [-1, 16, 32, 4, 63] 32 BlockBottleneck3d-14 [-1, 16, 32, 4, 63] 0 ================================================================ Total params: 11,584 Trainable params: 11,584 Non-trainable params: 0 ---------------------------------------------------------------- Input size (MB): 0.25 Forward/backward pass size (MB): 16.28 Params size (MB): 0.04 Estimated Total Size (MB): 16.58 ----------------------------------------------------------------","title":"<span c
…
e output channel number, and L is the output data length. Examples \u00b6 In the first example, we build a plain residual block with \u00bd down-sampling and same padding. Example 1 Codes 1 2 3 4 import mdnc layer = mdnc . modules . resnet . BlockPlain1d ( 16 , 32 , kernel_size = 3 , stride = 2 , padding = 1 , scaler = 'down' ) mdnc . contribs . torchsummary . summary ( layer , ( 16 , 255 ), device = 'cpu' ) Output ---------------------------------------------------------------- Layer (type) Output Shape Param # ================================================================ InstanceNorm1d-1 [-1, 16, 255] 32 PReLU-2 [-1, 16, 255] 16 Conv1d-3 [-1, 16, 255] 768 InstanceNorm1d-4 [-1, 16, 255] 32 PReLU-5 [-1, 16, 255] 16 Conv1d-6 [-1, 32, 128] 1,536 Conv1d-7 [-1, 32, 128] 512 InstanceNorm1d-8 [-1, 32, 128] 64 BlockPlain1d-9 [-1, 32, 128] 0 ================================================================ Total params: 2,976 Trainable params: 2,976 Non-trainable params: 0 ---------------------------------------------------------------- Input size (MB): 0.02 Forward/backward pass size (MB): 0.28 Params size (MB): 0.01 Estimated Total Size (MB): 0.31 ---------------------------------------------------------------- Note that the output 
…
use the same padding is used for the input. In this case, if we want to make a reverse layer, we could specify the output_size for the up-sampling layer, for example: Example 2 Codes 1 2 3 4 import mdnc layer = mdnc . modules . resnet . BlockPlain1d ( 32 , 16 , kernel_size = 3 , output_size = 255 , padding = 1 , scaler = 'up' ) mdnc . contribs . torchsummary . summary ( layer , ( 32 , 128 ), device = 'cpu' ) Output ---------------------------------------------------------------- Layer (type) Output Shape Param # ================================================================ InstanceNorm1d-1 [-1, 32, 128] 64 PReLU-2 [-1, 32, 128] 32 Conv1d-3 [-1, 32, 128] 3,072 InstanceNorm1d-4 [-1, 32, 128] 64 PReLU-5 [-1, 32, 128] 32 Upsample-6 [-1, 32, 255] 0 Conv1d-7 [-1, 16, 255] 1,536 Upsample-8 [-1, 32, 255] 0 Conv1d-9 [-1, 16, 255] 512 InstanceNorm1d-10 [-1, 16, 255] 32 BlockPlain1d-11 [-1, 16, 255] 0 ================================================================ Total params: 5,344 Trainable params: 5,344 Non-trainable params: 0 ---------------------------------------------------------------- Input size (MB): 0.02 Forward/backward pass size (MB): 0.41 Params size (MB): 0.02 Estimated Total Size (MB): 0.44 ----------------------------------------------------------------","title":"<span class
…
 number, and (L1, L2) is the output data size. Examples \u00b6 In the first example, we build a plain residual block with \u00bd down-sampling and same padding. Example 1 Codes 1 2 3 4 import mdnc layer = mdnc . modules . resnet . BlockPlain2d ( 16 , 32 , kernel_size = 3 , stride = ( 1 , 2 ), padding = 1 , scaler = 'down' ) mdnc . contribs . torchsummary . summary ( layer , ( 16 , 4 , 255 ), device = 'cpu' ) Output ---------------------------------------------------------------- Layer (type) Output Shape Param # ================================================================ InstanceNorm2d-1 [-1, 16, 4, 255] 32 PReLU-2 [-1, 16, 4, 255] 16 Conv2d-3 [-1, 16, 4, 255] 2,304 InstanceNorm2d-4 [-1, 16, 4, 255] 32 PReLU-5 [-1, 16, 4, 255] 16 Conv2d-6 [-1, 32, 4, 128] 4,608 Conv2d-7 [-1, 32, 4, 128] 512 InstanceNorm2d-8 [-1, 32, 4, 128] 64 BlockPlain2d-9 [-1, 32, 4, 128] 0 ================================================================ Total params: 7,584 Trainable params: 7,584 Non-trainable params: 0 ---------------------------------------------------------------- Input size (MB): 0.06 Forward/backward pass size (MB): 1.12 Params size (MB): 0.03 Estimated Total Size (MB): 1.21 ---------------------------------------------------------------- Note that the output 
…
both two axes of the input size. In this case, if we want to make a reverse layer, we could specify the output_size for the up-sampling layer, for example: Example 2 Codes 1 2 3 4 import mdnc layer = mdnc . modules . resnet . BlockPlain2d ( 32 , 16 , kernel_size = 3 , output_size = ( 4 , 255 ), padding = 1 , scaler = 'up' ) mdnc . contribs . torchsummary . summary ( layer , ( 32 , 4 , 128 ), device = 'cpu' ) Output ---------------------------------------------------------------- Layer (type) Output Shape Param # ================================================================ InstanceNorm2d-1 [-1, 32, 4, 128] 64 PReLU-2 [-1, 32, 4, 128] 32 Conv2d-3 [-1, 32, 4, 128] 9,216 InstanceNorm2d-4 [-1, 32, 4, 128] 64 PReLU-5 [-1, 32, 4, 128] 32 Upsample-6 [-1, 32, 4, 255] 0 Conv2d-7 [-1, 16, 4, 255] 4,608 Upsample-8 [-1, 32, 4, 255] 0 Conv2d-9 [-1, 16, 4, 255] 512 InstanceNorm2d-10 [-1, 16, 4, 255] 32 BlockPlain2d-11 [-1, 16, 4, 255] 0 ================================================================ Total params: 14,560 Trainable params: 14,560 Non-trainable params: 0 ---------------------------------------------------------------- Input size (MB): 0.06 Forward/backward pass size (MB): 1.62 Params size (MB): 0.06 Estimated Total Size (MB): 1.74 ----------------------------------------------------------------","title":"<span cla
…
utput data size. Examples \u00b6 In the first example, we build a plain residual block with \u00bd down-sampling and same padding. Example 1 Codes 1 2 3 4 import mdnc layer = mdnc . modules . resnet . BlockPlain3d ( 16 , 32 , kernel_size = ( 3 , 1 , 3 ), stride = ( 2 , 1 , 2 ), padding = ( 1 , 0 , 1 ), scaler = 'down' ) mdnc . contribs . torchsummary . summary ( layer , ( 16 , 32 , 4 , 63 ), device = 'cpu' ) Output ---------------------------------------------------------------- Layer (type) Output Shape Param # ================================================================ InstanceNorm3d-1 [-1, 16, 32, 4, 63] 32 PReLU-2 [-1, 16, 32, 4, 63] 16 Conv3d-3 [-1, 16, 32, 4, 63] 2,304 InstanceNorm3d-4 [-1, 16, 32, 4, 63] 32 PReLU-5 [-1, 16, 32, 4, 63] 16 Conv3d-6 [-1, 32, 16, 4, 32] 4,608 Conv3d-7 [-1, 32, 16, 4, 32] 512 InstanceNorm3d-8 [-1, 32, 16, 4, 32] 64 BlockPlain3d-9 [-1, 32, 16, 4, 32] 0 ================================================================ Total params: 7,584 Trainable params: 7,584 Non-trainable params: 0 ---------------------------------------------------------------- Input size (MB): 0.49 Forward/backward pass size (MB): 6.92 Params size (MB): 0.03 Estimated Total Size (MB): 7.44 ---------------------------------------------------------------- Note that the output 
…
e. In this case, if we want to make a reverse layer, we could specify the output_size for the up-sampling layer, for example: Example 2 Codes 1 2 3 4 import mdnc layer = mdnc . modules . resnet . BlockPlain3d ( 32 , 16 , kernel_size = ( 3 , 1 , 3 ), output_size = ( 32 , 4 , 63 ), padding = ( 1 , 0 , 1 ), scaler = 'up' ) mdnc . contribs . torchsummary . summary ( layer , ( 32 , 16 , 4 , 32 ), device = 'cpu' ) Output ---------------------------------------------------------------- Layer (type) Output Shape Param # ================================================================ InstanceNorm3d-1 [-1, 32, 16, 4, 32] 64 PReLU-2 [-1, 32, 16, 4, 32] 32 Conv3d-3 [-1, 32, 16, 4, 32] 9,216 InstanceNorm3d-4 [-1, 32, 16, 4, 32] 64 PReLU-5 [-1, 32, 16, 4, 32] 32 Upsample-6 [-1, 32, 32, 4, 63] 0 Conv3d-7 [-1, 16, 32, 4, 63] 4,608 Upsample-8 [-1, 32, 32, 4, 63] 0 Conv3d-9 [-1, 16, 32, 4, 63] 512 InstanceNorm3d-10 [-1, 16, 32, 4, 63] 32 BlockPlain3d-11 [-1, 16, 32, 4, 63] 0 ================================================================ Total params: 14,560 Trainable params: 14,560 Non-trainable params: 0 ---------------------------------------------------------------- Input size (MB): 0.25 Forward/backward pass size (MB): 10.38 Params size (MB): 0.06 Estimated Total Size (MB): 10.68 ----------------------------------------------------------------","title":"<span c
…
erNet1d ( 64 , [ 2 , 2 , 2 , 2 , 2 ], in_length = 32 , out_size = 128 , out_planes = 3 ) print ( 'The number of convolutional layers along the depth is {0} .' . format ( net . nlayers )) print ( 'The input size is {0} .' . format ( net . input_size )) mdnc . contribs . torchsummary . summary ( net , net . input_size , device = 'cpu' ) Output The number of convolutional layers along the depth is 33. The input size is (32,). ---------------------------------------------------------------- Layer (type) Output Shape Param # ================================================================ Conv1d-1 [-1, 1024, 4] 132,096 Conv1d-2 [-1, 1024, 4] 3,145,728 InstanceNorm1d-3 [-1, 1024, 4] 2,048 PReLU-4 [-1, 1024, 4] 1,024 Conv1d-5 [-1, 1024, 4] 1,048,576 InstanceNorm1d-6 [-1, 1024, 4] 2,048 PReLU-7 [-1, 1024, 4] 1,024 Conv1d-8 [-1, 1024, 4] 3,145,728 InstanceNorm1d-9 [-1, 1024, 4] 2,048 PReLU-10 [-1, 1024, 4] 1,024 Conv1d-11 [-1, 512, 4] 524,288 Conv1d-12 [-1, 512, 4] 524,288 InstanceNorm1d-13 [-1, 512, 4] 1,024 _BlockBo...neckNd-14 [-1, 512, 4] 0 InstanceNorm1d-15 [-1, 512, 4] 1,024 PReLU-16 [-1, 512, 4] 512 Conv1d-17 [-1, 512, 4] 262,144 InstanceNorm1d-18 [-1, 512, 4] 1,024 PReLU-19 [-1, 512, 4] 512 Upsample-20 [-1, 512, 8] 0 Conv1d-21 [-1, 512, 8] 786,432 InstanceNorm1d-22 [-1, 512, 8] 1,024 PReLU-23 [-1, 512, 8] 512 Conv1d-24 [-1, 512, 8] 262,144 Upsample-25 [-1, 512, 8] 0 Conv1d-26 [-1, 512, 8] 262,144 InstanceNorm1d-27 [-1, 512, 8] 1,024 _BlockBo...neckNd-28 [-1, 512, 8] 0 _BlockResStkNd-29 [-1, 512, 8] 0 InstanceNorm1d-30 [-1, 512, 8] 1,024 PReLU-31 [-1, 512, 8] 512 Conv1d-32 [-1, 512, 8] 262,144 InstanceNorm1d-33 [-1, 512, 8] 1,024 PReLU-34 [-1, 512, 8] 512 Conv1d-35 [-1, 512, 8] 786,432 InstanceNorm1d-36 [-1, 512, 8] 1,024 PReLU-37 [-1, 512, 8] 512 Conv1d-38 [-1, 256, 8] 131,072 Conv1d-39 [-1, 256, 8] 131,072 InstanceNorm1d-40 [-1, 256, 8] 512 _BlockBo...neckNd-41 [-1, 256, 8] 0 InstanceNorm1d-42 [-1, 256, 8] 512 PReLU-43 [-1, 256, 8] 256 Conv1d-44 [-1, 256, 8] 65,536 InstanceNorm1d-45 [-1, 256, 8] 512 PReLU-46 [-1, 256, 8] 256 Upsample-47 [-1, 256, 16] 0 Conv1d-48 [-1, 256, 16] 196,608 InstanceNorm1d-49 [-1, 256, 16] 512 PReLU-50 [-1, 256, 16] 256 Conv1d-51 [-1, 256, 16] 65,536 Upsample-52 [-1, 256, 16] 0 Conv1d-53 [-1, 256, 16] 65,536 InstanceNorm1d-54 [-1, 256, 16] 512 _BlockBo...neckNd-55 [-1, 256, 16] 0 _BlockResStkNd-56 [-1, 256, 16] 0 InstanceNorm1d-57 [-1, 256, 16] 512 PReLU-58 [-1, 256, 16] 256 Conv1d-59 [-1, 256, 16] 65,536 InstanceNorm1d-60 [-1, 256, 16] 512 PReLU-61 [-1, 256, 16] 256 Conv1d-62 [-1, 256, 16] 196,608 InstanceNorm1d-63 [-1, 256, 16] 512 PReLU-64 [-1, 256, 16] 256 Conv1d-65 [-1, 128, 16] 32,768 Conv1d-66 [-1, 128, 16] 32,768 InstanceNorm1d-67 [-1, 128, 16] 256 _BlockBo...neckNd-68 [-1, 128, 16] 0 InstanceNorm1d-69 [-1, 128, 16] 256 PReLU-70 [-1, 128, 16] 128 Conv1d-71 [-1, 128, 16] 16,384 InstanceNorm1d-72 [-1, 128, 16] 256 PReLU-73 [-1, 128, 16] 128 Upsample-74 [-1, 128, 32] 0 Conv1d-75 [-1, 128, 32] 49,152 InstanceNorm1d-76 [-1, 128, 32] 256 PReLU-77 [-1, 128, 32] 128 Conv1d-78 [-1, 128, 32] 16,384 Upsample-79 [-1, 128, 32] 0 Conv1d-80 [-1, 128, 32] 16,384 InstanceNorm1d-81 [-1, 128, 32] 256 _BlockBo...neckNd-82 [-1, 128, 32] 0 _BlockResStkNd-83 [-1, 128, 32] 0 InstanceNorm1d-84 [-1, 128, 32] 256 PReLU-85 [-1, 128, 32] 128 Conv1d-86 [-1, 128, 32] 16,384 InstanceNorm1d-87 [-1, 128, 32] 256 PReLU-88 [-1, 128, 32] 128 Conv1d-89 [-1, 128, 32] 49,152 InstanceNorm1d-90 [-1, 128, 32] 256 PReLU-91 [-1, 128, 32] 128 Conv1d-92 [-1, 64, 32] 8,192 Conv1d-93 [-1, 64, 32] 8,192 InstanceNorm1d-94 [-1, 64, 32] 128 _BlockBo...neckNd-95 [-1, 64, 32] 0 InstanceNorm1d-96 [-1, 64, 32] 128 PReLU-97 [-1, 64, 32] 64 Conv1d-98 [-1, 64, 32] 4,096 InstanceNorm1d-99 [-1, 64, 32] 128 PReLU-100 [-1, 64, 32] 64 Upsample-101 [-1, 64, 64] 0 Conv1d-102 [-1, 64, 64] 12,288 InstanceNorm1d-103 [-1, 64, 64] 128 PReLU-104 [-1, 64, 64] 64 Conv1d-105 [-1, 64, 64] 4,096 Upsample-106 [-1, 64, 64] 0 Conv1d-107 [-1, 64, 64] 4,096 InstanceNorm1d-108 [-1, 64, 64] 128 _BlockBo...eckNd-109 [-1, 64, 64] 0 _BlockResStkNd-110 [-1, 64, 64] 0 InstanceNorm1d-111 [-1, 64, 64] 128 PReLU-112 [-1, 64, 64] 64 Conv1d-113 [-1, 64, 64] 4,096 InstanceNorm1d-114 [-1, 64, 64] 128 PReLU-115 [-1, 64, 64] 64 Conv1d-116 [-1, 64, 64] 12,288 InstanceNorm1d-117 [-1, 64, 64] 128 PReLU-118 [-1, 64, 64] 64 Conv1d-119 [-1, 64, 64] 4,096 _BlockBo...eckNd-120 [-1, 64, 64] 0 InstanceNorm1d-121 [-1, 64, 64] 128 PReLU-122 [-1, 64, 64] 64 Conv1d-123 [-1, 64, 64] 4,096 InstanceNorm1d-124 [-1, 64, 64] 128 PReLU-125 [-1, 64, 64] 64 Upsample-126 [-1, 64, 128] 0 Conv1d-127 [-1, 64, 128] 12,288 InstanceNorm1d-128 [-1, 64, 128] 128 PReLU-129 [-1, 64, 128] 64 Conv1d-130 [-1, 64, 128] 4,096 Upsample-131 [-1, 64, 128] 0 Conv1d-132 [-1, 64, 128] 4,096 InstanceNorm1d-133 [-1, 64, 128] 128 _BlockBo...eckNd-134 [-1, 64, 128] 0 _BlockResStkNd-135 [-1, 64, 128] 0 Conv1d-136 [-1, 3, 128] 963 DecoderNet1d-137 [-1, 3, 128] 0 ================================================================ Total params: 12,407,043 Trainable params: 12,407,043 Non-trainable params: 0 ---------------------------------------------------------------- Input size (MB): 0.00 Forward/backward pass size (MB): 3.97 Params size (MB): 47.33 Estimated Total Size (MB): 51.30 ---------------------------------------------------------------- Example 2
…
d ( 64 , [ 2 , 2 , 2 , 2 , 2 ], in_length = None , out_size = 128 , out_planes = 3 ) print ( 'The number of convolutional layers along the depth is {0} .' . format ( net . nlayers )) print ( 'The input size is {0} .' . format ( net . input_size )) mdnc . contribs . torchsummary . summary ( net , net . input_size , device = 'cpu' ) Output The number of convolutional layers along the depth is 32. The input size is (1024, 4). ---------------------------------------------------------------- Layer (type) Output Shape Param # ================================================================ Conv1d-1 [-1, 1024, 4] 3,145,728 InstanceNorm1d-2 [-1, 1024, 4] 2,048 PReLU-3 [-1, 1024, 4] 1,024 Conv1d-4 [-1, 1024, 4] 1,048,576 InstanceNorm1d-5 [-1, 1024, 4] 2,048 PReLU-6 [-1, 1024, 4] 1,024 Conv1d-7 [-1, 1024, 4] 3,145,728 InstanceNorm1d-8 [-1, 1024, 4] 2,048 PReLU-9 [-1, 1024, 4] 1,024 Conv1d-10 [-1, 512, 4] 524,288 Conv1d-11 [-1, 512, 4] 524,288 InstanceNorm1d-12 [-1, 512, 4] 1,024 _BlockBo...neckNd-13 [-1, 512, 4] 0 InstanceNorm1d-14 [-1, 512, 4] 1,024 PReLU-15 [-1, 512, 4] 512 Conv1d-16 [-1, 512, 4] 262,144 InstanceNorm1d-17 [-1, 512, 4] 1,024 PReLU-18 [-1, 512, 4] 512 Upsample-19 [-1, 512, 8] 0 Conv1d-20 [-1, 512, 8] 786,432 InstanceNorm1d-21 [-1, 512, 8] 1,024 PReLU-22 [-1, 512, 8] 512 Conv1d-23 [-1, 512, 8] 262,144 Upsample-24 [-1, 512, 8] 0 Conv1d-25 [-1, 512, 8] 262,144 InstanceNorm1d-26 [-1, 512, 8] 1,024 _BlockBo...neckNd-27 [-1, 512, 8] 0 _BlockResStkNd-28 [-1, 512, 8] 0 InstanceNorm1d-29 [-1, 512, 8] 1,024 PReLU-30 [-1, 512, 8] 512 Conv1d-31 [-1, 512, 8] 262,144 InstanceNorm1d-32 [-1, 512, 8] 1,024 PReLU-33 [-1, 512, 8] 512 Conv1d-34 [-1, 512, 8] 786,432 InstanceNorm1d-35 [-1, 512, 8] 1,024 PReLU-36 [-1, 512, 8] 512 Conv1d-37 [-1, 256, 8] 131,072 Conv1d-38 [-1, 256, 8] 131,072 InstanceNorm1d-39 [-1, 256, 8] 512 _BlockBo...neckNd-40 [-1, 256, 8] 0 InstanceNorm1d-41 [-1, 256, 8] 512 PReLU-42 [-1, 256, 8] 256 Conv1d-43 [-1, 256, 8] 65,536 InstanceNorm1d-44 [-1, 256, 8] 512 PReLU-45 [-1, 256, 8] 256 Upsample-46 [-1, 256, 16] 0 Conv1d-47 [-1, 256, 16] 196,608 InstanceNorm1d-48 [-1, 256, 16] 512 PReLU-49 [-1, 256, 16] 256 Conv1d-50 [-1, 256, 16] 65,536 Upsample-51 [-1, 256, 16] 0 Conv1d-52 [-1, 256, 16] 65,536 InstanceNorm1d-53 [-1, 256, 16] 512 _BlockBo...neckNd-54 [-1, 256, 16] 0 _BlockResStkNd-55 [-1, 256, 16] 0 InstanceNorm1d-56 [-1, 256, 16] 512 PReLU-57 [-1, 256, 16] 256 Conv1d-58 [-1, 256, 16] 65,536 InstanceNorm1d-59 [-1, 256, 16] 512 PReLU-60 [-1, 256, 16] 256 Conv1d-61 [-1, 256, 16] 196,608 InstanceNorm1d-62 [-1, 256, 16] 512 PReLU-63 [-1, 256, 16] 256 Conv1d-64 [-1, 128, 16] 32,768 Conv1d-65 [-1, 128, 16] 32,768 InstanceNorm1d-66 [-1, 128, 16] 256 _BlockBo...neckNd-67 [-1, 128, 16] 0 InstanceNorm1d-68 [-1, 128, 16] 256 PReLU-69 [-1, 128, 16] 128 Conv1d-70 [-1, 128, 16] 16,384 InstanceNorm1d-71 [-1, 128, 16] 256 PReLU-72 [-1, 128, 16] 128 Upsample-73 [-1, 128, 32] 0 Conv1d-74 [-1, 128, 32] 49,152 InstanceNorm1d-75 [-1, 128, 32] 256 PReLU-76 [-1, 128, 32] 128 Conv1d-77 [-1, 128, 32] 16,384 Upsample-78 [-1, 128, 32] 0 Conv1d-79 [-1, 128, 32] 16,384 InstanceNorm1d-80 [-1, 128, 32] 256 _BlockBo...neckNd-81 [-1, 128, 32] 0 _BlockResStkNd-82 [-1, 128, 32] 0 InstanceNorm1d-83 [-1, 128, 32] 256 PReLU-84 [-1, 128, 32] 128 Conv1d-85 [-1, 128, 32] 16,384 InstanceNorm1d-86 [-1, 128, 32] 256 PReLU-87 [-1, 128, 32] 128 Conv1d-88 [-1, 128, 32] 49,152 InstanceNorm1d-89 [-1, 128, 32] 256 PReLU-90 [-1, 128, 32] 128 Conv1d-91 [-1, 64, 32] 8,192 Conv1d-92 [-1, 64, 32] 8,192 InstanceNorm1d-93 [-1, 64, 32] 128 _BlockBo...neckNd-94 [-1, 64, 32] 0 InstanceNorm1d-95 [-1, 64, 32] 128 PReLU-96 [-1, 64, 32] 64 Conv1d-97 [-1, 64, 32] 4,096 InstanceNorm1d-98 [-1, 64, 32] 128 PReLU-99 [-1, 64, 32] 64 Upsample-100 [-1, 64, 64] 0 Conv1d-101 [-1, 64, 64] 12,288 InstanceNorm1d-102 [-1, 64, 64] 128 PReLU-103 [-1, 64, 64] 64 Conv1d-104 [-1, 64, 64] 4,096 Upsample-105 [-1, 64, 64] 0 Conv1d-106 [-1, 64, 64] 4,096 InstanceNorm1d-107 [-1, 64, 64] 128 _BlockBo...eckNd-108 [-1, 64, 64] 0 _BlockResStkNd-109 [-1, 64, 64] 0 InstanceNorm1d-110 [-1, 64, 64] 128 PReLU-111 [-1, 64, 64] 64 Conv1d-112 [-1, 64, 64] 4,096 InstanceNorm1d-113 [-1, 64, 64] 128 PReLU-114 [-1, 64, 64] 64 Conv1d-115 [-1, 64, 64] 12,288 InstanceNorm1d-116 [-1, 64, 64] 128 PReLU-117 [-1, 64, 64] 64 Conv1d-118 [-1, 64, 64] 4,096 _BlockBo...eckNd-119 [-1, 64, 64] 0 InstanceNorm1d-120 [-1, 64, 64] 128 PReLU-121 [-1, 64, 64] 64 Conv1d-122 [-1, 64, 64] 4,096 InstanceNorm1d-123 [-1, 64, 64] 128 PReLU-124 [-1, 64, 64] 64 Upsample-125 [-1, 64, 128] 0 Conv1d-126 [-1, 64, 128] 12,288 InstanceNorm1d-127 [-1, 64, 128] 128 PReLU-128 [-1, 64, 128] 64 Conv1d-129 [-1, 64, 128] 4,096 Upsample-130 [-1, 64, 128] 0 Conv1d-131 [-1, 64, 128] 4,096 InstanceNorm1d-132 [-1, 64, 128] 128 _BlockBo...eckNd-133 [-1, 64, 128] 0 _BlockResStkNd-134 [-1, 64, 128] 0 Conv1d-135 [-1, 3, 128] 963 DecoderNet1d-136 [-1, 3, 128] 0 ================================================================ Total params: 12,274,947 Trainable params: 12,274,947 Non-trainable params: 0 ---------------------------------------------------------------- Input size (MB): 0.02 Forward/backward pass size (MB): 3.94 Params size (MB): 46.83 Estimated Total Size (MB): 50.78 ----------------------------------------------------------------","title":
…
 ( 64 , [ 2 , 2 , 2 , 2 , 2 ], in_length = 32 , out_size = ( 64 , 63 ), out_planes = 3 ) print ( 'The number of convolutional layers along the depth is {0} .' . format ( net . nlayers )) print ( 'The input size is {0} .' . format ( net . input_size )) mdnc . contribs . torchsummary . summary ( net , net . input_size , device = 'cpu' ) Output The number of convolutional layers along the depth is 33. The input size is (32,). ---------------------------------------------------------------- Layer (type) Output Shape Param # ================================================================ Conv2d-1 [-1, 1024, 2, 2] 132,096 Conv2d-2 [-1, 1024, 2, 2] 9,437,184 InstanceNorm2d-3 [-1, 1024, 2, 2] 2,048 PReLU-4 [-1, 1024, 2, 2] 1,024 Conv2d-5 [-1, 1024, 2, 2] 1,048,576 InstanceNorm2d-6 [-1, 1024, 2, 2] 2,048 PReLU-7 [-1, 1024, 2, 2] 1,024 Conv2d-8 [-1, 1024, 2, 2] 9,437,184 InstanceNorm2d-9 [-1, 1024, 2, 2] 2,048 PReLU-10 [-1, 1024, 2, 2] 1,024 Conv2d-11 [-1, 512, 2, 2] 524,288 Conv2d-12 [-1, 512, 2, 2] 524,288 InstanceNorm2d-13 [-1, 512, 2, 2] 1,024 _BlockBo...neckNd-14 [-1, 512, 2, 2] 0 InstanceNorm2d-15 [-1, 512, 2, 2] 1,024 PReLU-16 [-1, 512, 2, 2] 512 Conv2d-17 [-1, 512, 2, 2] 262,144 InstanceNorm2d-18 [-1, 512, 2, 2] 1,024 PReLU-19 [-1, 512, 2, 2] 512 Upsample-20 [-1, 512, 4, 4] 0 Conv2d-21 [-1, 512, 4, 4] 2,359,296 InstanceNorm2d-22 [-1, 512, 4, 4] 1,024 PReLU-23 [-1, 512, 4, 4] 512 Conv2d-24 [-1, 512, 4, 4] 262,144 Upsample-25 [-1, 512, 4, 4] 0 Conv2d-26 [-1, 512, 4, 4] 262,144 InstanceNorm2d-27 [-1, 512, 4, 4] 1,024 _BlockBo...neckNd-28 [-1, 512, 4, 4] 0 _BlockResStkNd-29 [-1, 512, 4, 4] 0 InstanceNorm2d-30 [-1, 512, 4, 4] 1,024 PReLU-31 [-1, 512, 4, 4] 512 Conv2d-32 [-1, 512, 4, 4] 262,144 InstanceNorm2d-33 [-1, 512, 4, 4] 1,024 PReLU-34 [-1, 512, 4, 4] 512 Conv2d-35 [-1, 512, 4, 4] 2,359,296 InstanceNorm2d-36 [-1, 512, 4, 4] 1,024 PReLU-37 [-1, 512, 4, 4] 512 Conv2d-38 [-1, 256, 4, 4] 131,072 Conv2d-39 [-1, 256, 4, 4] 131,072 InstanceNorm2d-40 [-1, 256, 4, 4] 512 _BlockBo...neckNd-41 [-1, 256, 4, 4] 0 InstanceNorm2d-42 [-1, 256, 4, 4] 512 PReLU-43 [-1, 256, 4, 4] 256 Conv2d-44 [-1, 256, 4, 4] 65,536 InstanceNorm2d-45 [-1, 256, 4, 4] 512 PReLU-46 [-1, 256, 4, 4] 256 Upsample-47 [-1, 256, 8, 8] 0 Conv2d-48 [-1, 256, 8, 8] 589,824 InstanceNorm2d-49 [-1, 256, 8, 8] 512 PReLU-50 [-1, 256, 8, 8] 256 Conv2d-51 [-1, 256, 8, 8] 65,536 Upsample-52 [-1, 256, 8, 8] 0 Conv2d-53 [-1, 256, 8, 8] 65,536 InstanceNorm2d-54 [-1, 256, 8, 8] 512 _BlockBo...neckNd-55 [-1, 256, 8, 8] 0 _BlockResStkNd-56 [-1, 256, 8, 8] 0 InstanceNorm2d-57 [-1, 256, 8, 8] 512 PReLU-58 [-1, 256, 8, 8] 256 Conv2d-59 [-1, 256, 8, 8] 65,536 InstanceNorm2d-60 [-1, 256, 8, 8] 512 PReLU-61 [-1, 256, 8, 8] 256 Conv2d-62 [-1, 256, 8, 8] 589,824 InstanceNorm2d-63 [-1, 256, 8, 8] 512 PReLU-64 [-1, 256, 8, 8] 256 Conv2d-65 [-1, 128, 8, 8] 32,768 Conv2d-66 [-1, 128, 8, 8] 32,768 InstanceNorm2d-67 [-1, 128, 8, 8] 256 _BlockBo...neckNd-68 [-1, 128, 8, 8] 0 InstanceNorm2d-69 [-1, 128, 8, 8] 256 PReLU-70 [-1, 128, 8, 8] 128 Conv2d-71 [-1, 128, 8, 8] 16,384 InstanceNorm2d-72 [-1, 128, 8, 8] 256 PReLU-73 [-1, 128, 8, 8] 128 Upsample-74 [-1, 128, 16, 16] 0 Conv2d-75 [-1, 128, 16, 16] 147,456 InstanceNorm2d-76 [-1, 128, 16, 16] 256 PReLU-77 [-1, 128, 16, 16] 128 Conv2d-78 [-1, 128, 16, 16] 16,384 Upsample-79 [-1, 128, 16, 16] 0 Conv2d-80 [-1, 128, 16, 16] 16,384 InstanceNorm2d-81 [-1, 128, 16, 16] 256 _BlockBo...neckNd-82 [-1, 128, 16, 16] 0 _BlockResStkNd-83 [-1, 128, 16, 16] 0 InstanceNorm2d-84 [-1, 128, 16, 16] 256 PReLU-85 [-1, 128, 16, 16] 128 Conv2d-86 [-1, 128, 16, 16] 16,384 InstanceNorm2d-87 [-1, 128, 16, 16] 256 PReLU-88 [-1, 128, 16, 16] 128 Conv2d-89 [-1, 128, 16, 16] 147,456 InstanceNorm2d-90 [-1, 128, 16, 16] 256 PReLU-91 [-1, 128, 16, 16] 128 Conv2d-92 [-1, 64, 16, 16] 8,192 Conv2d-93 [-1, 64, 16, 16] 8,192 InstanceNorm2d-94 [-1, 64, 16, 16] 128 _BlockBo...neckNd-95 [-1, 64, 16, 16] 0 InstanceNorm2d-96 [-1, 64, 16, 16] 128 PReLU-97 [-1, 64, 16, 16] 64 Conv2d-98 [-1, 64, 16, 16] 4,096 InstanceNorm2d-99 [-1, 64, 16, 16] 128 PReLU-100 [-1, 64, 16, 16] 64 Upsample-101 [-1, 64, 32, 32] 0 Conv2d-102 [-1, 64, 32, 32] 36,864 InstanceNorm2d-103 [-1, 64, 32, 32] 128 PReLU-104 [-1, 64, 32, 32] 64 Conv2d-105 [-1, 64, 32, 32] 4,096 Upsample-106 [-1, 64, 32, 32] 0 Conv2d-107 [-1, 64, 32, 32] 4,096 InstanceNorm2d-108 [-1, 64, 32, 32] 128 _BlockBo...eckNd-109 [-1, 64, 32, 32] 0 _BlockResStkNd-110 [-1, 64, 32, 32] 0 InstanceNorm2d-111 [-1, 64, 32, 32] 128 PReLU-112 [-1, 64, 32, 32] 64 Conv2d-113 [-1, 64, 32, 32] 4,096 InstanceNorm2d-114 [-1, 64, 32, 32] 128 PReLU-115 [-1, 64, 32, 32] 64 Conv2d-116 [-1, 64, 32, 32] 36,864 InstanceNorm2d-117 [-1, 64, 32, 32] 128 PReLU-118 [-1, 64, 32, 32] 64 Conv2d-119 [-1, 64, 32, 32] 4,096 _BlockBo...eckNd-120 [-1, 64, 32, 32] 0 InstanceNorm2d-121 [-1, 64, 32, 32] 128 PReLU-122 [-1, 64, 32, 32] 64 Conv2d-123 [-1, 64, 32, 32] 4,096 InstanceNorm2d-124 [-1, 64, 32, 32] 128 PReLU-125 [-1, 64, 32, 32] 64 Upsample-126 [-1, 64, 64, 64] 0 Conv2d-127 [-1, 64, 64, 64] 36,864 InstanceNorm2d-128 [-1, 64, 64, 64] 128 PReLU-129 [-1, 64, 64, 64] 64 Conv2d-130 [-1, 64, 64, 64] 4,096 Upsample-131 [-1, 64, 64, 64] 0 Conv2d-132 [-1, 64, 64, 64] 4,096 InstanceNorm2d-133 [-1, 64, 64, 64] 128 _BlockBo...eckNd-134 [-1, 64, 64, 64] 0 _BlockResStkNd-135 [-1, 64, 64, 64] 0 Conv2d-136 [-1, 3, 64, 63] 4,803 DecoderNet2d-137 [-1, 3, 64, 63] 0 ================================================================ Total params: 29,196,291 Trainable params: 29,196,291 Non-trainable params: 0 ---------------------------------------------------------------- Input size (MB): 0.00 Forward/backward pass size (MB): 42.98 Params size (MB): 111.38 Estimated Total Size (MB): 154.36 ---------------------------------------------------------------- Exampl
…
 2 , 2 , 2 , 2 , 2 ], in_length = None , out_size = ( 64 , 63 ), out_planes = 3 ) print ( 'The number of convolutional layers along the depth is {0} .' . format ( net . nlayers )) print ( 'The input size is {0} .' . format ( net . input_size )) mdnc . contribs . torchsummary . summary ( net , net . input_size , device = 'cpu' ) Output The number of convolutional layers along the depth is 32. The input size is (1024, 2, 2). ---------------------------------------------------------------- Layer (type) Output Shape Param # ================================================================ Conv2d-1 [-1, 1024, 2, 2] 9,437,184 InstanceNorm2d-2 [-1, 1024, 2, 2] 2,048 PReLU-3 [-1, 1024, 2, 2] 1,024 Conv2d-4 [-1, 1024, 2, 2] 1,048,576 InstanceNorm2d-5 [-1, 1024, 2, 2] 2,048 PReLU-6 [-1, 1024, 2, 2] 1,024 Conv2d-7 [-1, 1024, 2, 2] 9,437,184 InstanceNorm2d-8 [-1, 1024, 2, 2] 2,048 PReLU-9 [-1, 1024, 2, 2] 1,024 Conv2d-10 [-1, 512, 2, 2] 524,288 Conv2d-11 [-1, 512, 2, 2] 524,288 InstanceNorm2d-12 [-1, 512, 2, 2] 1,024 _BlockBo...neckNd-13 [-1, 512, 2, 2] 0 InstanceNorm2d-14 [-1, 512, 2, 2] 1,024 PReLU-15 [-1, 512, 2, 2] 512 Conv2d-16 [-1, 512, 2, 2] 262,144 InstanceNorm2d-17 [-1, 512, 2, 2] 1,024 PReLU-18 [-1, 512, 2, 2] 512 Upsample-19 [-1, 512, 4, 4] 0 Conv2d-20 [-1, 512, 4, 4] 2,359,296 InstanceNorm2d-21 [-1, 512, 4, 4] 1,024 PReLU-22 [-1, 512, 4, 4] 512 Conv2d-23 [-1, 512, 4, 4] 262,144 Upsample-24 [-1, 512, 4, 4] 0 Conv2d-25 [-1, 512, 4, 4] 262,144 InstanceNorm2d-26 [-1, 512, 4, 4] 1,024 _BlockBo...neckNd-27 [-1, 512, 4, 4] 0 _BlockResStkNd-28 [-1, 512, 4, 4] 0 InstanceNorm2d-29 [-1, 512, 4, 4] 1,024 PReLU-30 [-1, 512, 4, 4] 512 Conv2d-31 [-1, 512, 4, 4] 262,144 InstanceNorm2d-32 [-1, 512, 4, 4] 1,024 PReLU-33 [-1, 512, 4, 4] 512 Conv2d-34 [-1, 512, 4, 4] 2,359,296 InstanceNorm2d-35 [-1, 512, 4, 4] 1,024 PReLU-36 [-1, 512, 4, 4] 512 Conv2d-37 [-1, 256, 4, 4] 131,072 Conv2d-38 [-1, 256, 4, 4] 131,072 InstanceNorm2d-39 [-1, 256, 4, 4] 512 _BlockBo...neckNd-40 [-1, 256, 4, 4] 0 InstanceNorm2d-41 [-1, 256, 4, 4] 512 PReLU-42 [-1, 256, 4, 4] 256 Conv2d-43 [-1, 256, 4, 4] 65,536 InstanceNorm2d-44 [-1, 256, 4, 4] 512 PReLU-45 [-1, 256, 4, 4] 256 Upsample-46 [-1, 256, 8, 8] 0 Conv2d-47 [-1, 256, 8, 8] 589,824 InstanceNorm2d-48 [-1, 256, 8, 8] 512 PReLU-49 [-1, 256, 8, 8] 256 Conv2d-50 [-1, 256, 8, 8] 65,536 Upsample-51 [-1, 256, 8, 8] 0 Conv2d-52 [-1, 256, 8, 8] 65,536 InstanceNorm2d-53 [-1, 256, 8, 8] 512 _BlockBo...neckNd-54 [-1, 256, 8, 8] 0 _BlockResStkNd-55 [-1, 256, 8, 8] 0 InstanceNorm2d-56 [-1, 256, 8, 8] 512 PReLU-57 [-1, 256, 8, 8] 256 Conv2d-58 [-1, 256, 8, 8] 65,536 InstanceNorm2d-59 [-1, 256, 8, 8] 512 PReLU-60 [-1, 256, 8, 8] 256 Conv2d-61 [-1, 256, 8, 8] 589,824 InstanceNorm2d-62 [-1, 256, 8, 8] 512 PReLU-63 [-1, 256, 8, 8] 256 Conv2d-64 [-1, 128, 8, 8] 32,768 Conv2d-65 [-1, 128, 8, 8] 32,768 InstanceNorm2d-66 [-1, 128, 8, 8] 256 _BlockBo...neckNd-67 [-1, 128, 8, 8] 0 InstanceNorm2d-68 [-1, 128, 8, 8] 256 PReLU-69 [-1, 128, 8, 8] 128 Conv2d-70 [-1, 128, 8, 8] 16,384 InstanceNorm2d-71 [-1, 128, 8, 8] 256 PReLU-72 [-1, 128, 8, 8] 128 Upsample-73 [-1, 128, 16, 16] 0 Conv2d-74 [-1, 128, 16, 16] 147,456 InstanceNorm2d-75 [-1, 128, 16, 16] 256 PReLU-76 [-1, 128, 16, 16] 128 Conv2d-77 [-1, 128, 16, 16] 16,384 Upsample-78 [-1, 128, 16, 16] 0 Conv2d-79 [-1, 128, 16, 16] 16,384 InstanceNorm2d-80 [-1, 128, 16, 16] 256 _BlockBo...neckNd-81 [-1, 128, 16, 16] 0 _BlockResStkNd-82 [-1, 128, 16, 16] 0 InstanceNorm2d-83 [-1, 128, 16, 16] 256 PReLU-84 [-1, 128, 16, 16] 128 Conv2d-85 [-1, 128, 16, 16] 16,384 InstanceNorm2d-86 [-1, 128, 16, 16] 256 PReLU-87 [-1, 128, 16, 16] 128 Conv2d-88 [-1, 128, 16, 16] 147,456 InstanceNorm2d-89 [-1, 128, 16, 16] 256 PReLU-90 [-1, 128, 16, 16] 128 Conv2d-91 [-1, 64, 16, 16] 8,192 Conv2d-92 [-1, 64, 16, 16] 8,192 InstanceNorm2d-93 [-1, 64, 16, 16] 128 _BlockBo...neckNd-94 [-1, 64, 16, 16] 0 InstanceNorm2d-95 [-1, 64, 16, 16] 128 PReLU-96 [-1, 64, 16, 16] 64 Conv2d-97 [-1, 64, 16, 16] 4,096 InstanceNorm2d-98 [-1, 64, 16, 16] 128 PReLU-99 [-1, 64, 16, 16] 64 Upsample-100 [-1, 64, 32, 32] 0 Conv2d-101 [-1, 64, 32, 32] 36,864 InstanceNorm2d-102 [-1, 64, 32, 32] 128 PReLU-103 [-1, 64, 32, 32] 64 Conv2d-104 [-1, 64, 32, 32] 4,096 Upsample-105 [-1, 64, 32, 32] 0 Conv2d-106 [-1, 64, 32, 32] 4,096 InstanceNorm2d-107 [-1, 64, 32, 32] 128 _BlockBo...eckNd-108 [-1, 64, 32, 32] 0 _BlockResStkNd-109 [-1, 64, 32, 32] 0 InstanceNorm2d-110 [-1, 64, 32, 32] 128 PReLU-111 [-1, 64, 32, 32] 64 Conv2d-112 [-1, 64, 32, 32] 4,096 InstanceNorm2d-113 [-1, 64, 32, 32] 128 PReLU-114 [-1, 64, 32, 32] 64 Conv2d-115 [-1, 64, 32, 32] 36,864 InstanceNorm2d-116 [-1, 64, 32, 32] 128 PReLU-117 [-1, 64, 32, 32] 64 Conv2d-118 [-1, 64, 32, 32] 4,096 _BlockBo...eckNd-119 [-1, 64, 32, 32] 0 InstanceNorm2d-120 [-1, 64, 32, 32] 128 PReLU-121 [-1, 64, 32, 32] 64 Conv2d-122 [-1, 64, 32, 32] 4,096 InstanceNorm2d-123 [-1, 64, 32, 32] 128 PReLU-124 [-1, 64, 32, 32] 64 Upsample-125 [-1, 64, 64, 64] 0 Conv2d-126 [-1, 64, 64, 64] 36,864 InstanceNorm2d-127 [-1, 64, 64, 64] 128 PReLU-128 [-1, 64, 64, 64] 64 Conv2d-129 [-1, 64, 64, 64] 4,096 Upsample-130 [-1, 64, 64, 64] 0 Conv2d-131 [-1, 64, 64, 64] 4,096 InstanceNorm2d-132 [-1, 64, 64, 64] 128 _BlockBo...eckNd-133 [-1, 64, 64, 64] 0 _BlockResStkNd-134 [-1, 64, 64, 64] 0 Conv2d-135 [-1, 3, 64, 63] 4,803 DecoderNet2d-136 [-1, 3, 64, 63] 0 ================================================================ Total params: 29,064,195 Trainable params: 29,064,195 Non-trainable params: 0 ---------------------------------------------------------------- Input size (MB): 0.02 Forward/backward pass size (MB): 42.95 Params size (MB): 110.87 Estimated Total Size (MB): 153.84 ----------------------------------------------------------------","titl
…
 , [ 2 , 2 , 2 , 2 , 2 ], in_length = 32 , out_size = ( 31 , 32 , 30 ), out_planes = 3 ) print ( 'The number of convolutional layers along the depth is {0} .' . format ( net . nlayers )) print ( 'The input size is {0} .' . format ( net . input_size )) mdnc . contribs . torchsummary . summary ( net , net . input_size , device = 'cpu' ) Output The number of convolutional layers along the depth is 33. The input size is (32,). ---------------------------------------------------------------- Layer (type) Output Shape Param # ================================================================ Conv3d-1 [-1, 1024, 1, 1, 1] 33,792 Conv3d-2 [-1, 1024, 1, 1, 1] 28,311,552 InstanceNorm3d-3 [-1, 1024, 1, 1, 1] 2,048 PReLU-4 [-1, 1024, 1, 1, 1] 1,024 Conv3d-5 [-1, 1024, 1, 1, 1] 1,048,576 InstanceNorm3d-6 [-1, 1024, 1, 1, 1] 2,048 PReLU-7 [-1, 1024, 1, 1, 1] 1,024 Conv3d-8 [-1, 1024, 1, 1, 1] 28,311,552 InstanceNorm3d-9 [-1, 1024, 1, 1, 1] 2,048 PReLU-10 [-1, 1024, 1, 1, 1] 1,024 Conv3d-11 [-1, 512, 1, 1, 1] 524,288 Conv3d-12 [-1, 512, 1, 1, 1] 524,288 InstanceNorm3d-13 [-1, 512, 1, 1, 1] 1,024 _BlockBo...neckNd-14 [-1, 512, 1, 1, 1] 0 InstanceNorm3d-15 [-1, 512, 1, 1, 1] 1,024 PReLU-16 [-1, 512, 1, 1, 1] 512 Conv3d-17 [-1, 512, 1, 1, 1] 262,144 InstanceNorm3d-18 [-1, 512, 1, 1, 1] 1,024 PReLU-19 [-1, 512, 1, 1, 1] 512 Upsample-20 [-1, 512, 2, 2, 2] 0 Conv3d-21 [-1, 512, 2, 2, 2] 7,077,888 InstanceNorm3d-22 [-1, 512, 2, 2, 2] 1,024 PReLU-23 [-1, 512, 2, 2, 2] 512 Conv3d-24 [-1, 512, 2, 2, 2] 262,144 Upsample-25 [-1, 512, 2, 2, 2] 0 Conv3d-26 [-1, 512, 2, 2, 2] 262,144 InstanceNorm3d-27 [-1, 512, 2, 2, 2] 1,024 _BlockBo...neckNd-28 [-1, 512, 2, 2, 2] 0 _BlockResStkNd-29 [-1, 512, 2, 2, 2] 0 InstanceNorm3d-30 [-1, 512, 2, 2, 2] 1,024 PReLU-31 [-1, 512, 2, 2, 2] 512 Conv3d-32 [-1, 512, 2, 2, 2] 262,144 InstanceNorm3d-33 [-1, 512, 2, 2, 2] 1,024 PReLU-34 [-1, 512, 2, 2, 2] 512 Conv3d-35 [-1, 512, 2, 2, 2] 7,077,888 InstanceNorm3d-36 [-1, 512, 2, 2, 2] 1,024 PReLU-37 [-1, 512, 2, 2, 2] 512 Conv3d-38 [-1, 256, 2, 2, 2] 131,072 Conv3d-39 [-1, 256, 2, 2, 2] 131,072 InstanceNorm3d-40 [-1, 256, 2, 2, 2] 512 _BlockBo...neckNd-41 [-1, 256, 2, 2, 2] 0 InstanceNorm3d-42 [-1, 256, 2, 2, 2] 512 PReLU-43 [-1, 256, 2, 2, 2] 256 Conv3d-44 [-1, 256, 2, 2, 2] 65,536 InstanceNorm3d-45 [-1, 256, 2, 2, 2] 512 PReLU-46 [-1, 256, 2, 2, 2] 256 Upsample-47 [-1, 256, 4, 4, 4] 0 Conv3d-48 [-1, 256, 4, 4, 4] 1,769,472 InstanceNorm3d-49 [-1, 256, 4, 4, 4] 512 PReLU-50 [-1, 256, 4, 4, 4] 256 Conv3d-51 [-1, 256, 4, 4, 4] 65,536 Upsample-52 [-1, 256, 4, 4, 4] 0 Conv3d-53 [-1, 256, 4, 4, 4] 65,536 InstanceNorm3d-54 [-1, 256, 4, 4, 4] 512 _BlockBo...neckNd-55 [-1, 256, 4, 4, 4] 0 _BlockResStkNd-56 [-1, 256, 4, 4, 4] 0 InstanceNorm3d-57 [-1, 256, 4, 4, 4] 512 PReLU-58 [-1, 256, 4, 4, 4] 256 Conv3d-59 [-1, 256, 4, 4, 4] 65,536 InstanceNorm3d-60 [-1, 256, 4, 4, 4] 512 PReLU-61 [-1, 256, 4, 4, 4] 256 Conv3d-62 [-1, 256, 4, 4, 4] 1,769,472 InstanceNorm3d-63 [-1, 256, 4, 4, 4] 512 PReLU-64 [-1, 256, 4, 4, 4] 256 Conv3d-65 [-1, 128, 4, 4, 4] 32,768 Conv3d-66 [-1, 128, 4, 4, 4] 32,768 InstanceNorm3d-67 [-1, 128, 4, 4, 4] 256 _BlockBo...neckNd-68 [-1, 128, 4, 4, 4] 0 InstanceNorm3d-69 [-1, 128, 4, 4, 4] 256 PReLU-70 [-1, 128, 4, 4, 4] 128 Conv3d-71 [-1, 128, 4, 4, 4] 16,384 InstanceNorm3d-72 [-1, 128, 4, 4, 4] 256 PReLU-73 [-1, 128, 4, 4, 4] 128 Upsample-74 [-1, 128, 8, 8, 8] 0 Conv3d-75 [-1, 128, 8, 8, 8] 442,368 InstanceNorm3d-76 [-1, 128, 8, 8, 8] 256 PReLU-77 [-1, 128, 8, 8, 8] 128 Conv3d-78 [-1, 128, 8, 8, 8] 16,384 Upsample-79 [-1, 128, 8, 8, 8] 0 Conv3d-80 [-1, 128, 8, 8, 8] 16,384 InstanceNorm3d-81 [-1, 128, 8, 8, 8] 256 _BlockBo...neckNd-82 [-1, 128, 8, 8, 8] 0 _BlockResStkNd-83 [-1, 128, 8, 8, 8] 0 InstanceNorm3d-84 [-1, 128, 8, 8, 8] 256 PReLU-85 [-1, 128, 8, 8, 8] 128 Conv3d-86 [-1, 128, 8, 8, 8] 16,384 InstanceNorm3d-87 [-1, 128, 8, 8, 8] 256 PReLU-88 [-1, 128, 8, 8, 8] 128 Conv3d-89 [-1, 128, 8, 8, 8] 442,368 InstanceNorm3d-90 [-1, 128, 8, 8, 8] 256 PReLU-91 [-1, 128, 8, 8, 8] 128 Conv3d-92 [-1, 64, 8, 8, 8] 8,192 Conv3d-93 [-1, 64, 8, 8, 8] 8,192 InstanceNorm3d-94 [-1, 64, 8, 8, 8] 128 _BlockBo...neckNd-95 [-1, 64, 8, 8, 8] 0 InstanceNorm3d-96 [-1, 64, 8, 8, 8] 128 PReLU-97 [-1, 64, 8, 8, 8] 64 Conv3d-98 [-1, 64, 8, 8, 8] 4,096 InstanceNorm3d-99 [-1, 64, 8, 8, 8] 128 PReLU-100 [-1, 64, 8, 8, 8] 64 Upsample-101 [-1, 64, 16, 16, 16] 0 Conv3d-102 [-1, 64, 16, 16, 16] 110,592 InstanceNorm3d-103 [-1, 64, 16, 16, 16] 128 PReLU-104 [-1, 64, 16, 16, 16] 64 Conv3d-105 [-1, 64, 16, 16, 16] 4,096 Upsample-106 [-1, 64, 16, 16, 16] 0 Conv3d-107 [-1, 64, 16, 16, 16] 4,096 InstanceNorm3d-108 [-1, 64, 16, 16, 16] 128 _BlockBo...eckNd-109 [-1, 64, 16, 16, 16] 0 _BlockResStkNd-110 [-1, 64, 16, 16, 16] 0 InstanceNorm3d-111 [-1, 64, 16, 16, 15] 128 PReLU-112 [-1, 64, 16, 16, 15] 64 Conv3d-113 [-1, 64, 16, 16, 15] 4,096 InstanceNorm3d-114 [-1, 64, 16, 16, 15] 128 PReLU-115 [-1, 64, 16, 16, 15] 64 Conv3d-116 [-1, 64, 16, 16, 15] 110,592 InstanceNorm3d-117 [-1, 64, 16, 16, 15] 128 PReLU-118 [-1, 64, 16, 16, 15] 64 Conv3d-119 [-1, 64, 16, 16, 15] 4,096 _BlockBo...eckNd-120 [-1, 64, 16, 16, 15] 0 InstanceNorm3d-121 [-1, 64, 16, 16, 15] 128 PReLU-122 [-1, 64, 16, 16, 15] 64 Conv3d-123 [-1, 64, 16, 16, 15] 4,096 InstanceNorm3d-124 [-1, 64, 16, 16, 15] 128 PReLU-125 [-1, 64, 16, 16, 15] 64 Upsample-126 [-1, 64, 32, 32, 30] 0 Conv3d-127 [-1, 64, 32, 32, 30] 110,592 InstanceNorm3d-128 [-1, 64, 32, 32, 30] 128 PReLU-129 [-1, 64, 32, 32, 30] 64 Conv3d-130 [-1, 64, 32, 32, 30] 4,096 Upsample-131 [-1, 64, 32, 32, 30] 0 Conv3d-132 [-1, 64, 32, 32, 30] 4,096 InstanceNorm3d-133 [-1, 64, 32, 32, 30] 128 _BlockBo...eckNd-134 [-1, 64, 32, 32, 30] 0 _BlockResStkNd-135 [-1, 64, 32, 32, 30] 0 Conv3d-136 [-1, 3, 31, 32, 30] 24,003 DecoderNet3d-137 [-1, 3, 31, 32, 30] 0 ================================================================ Total params: 79,473,411 Trainable params: 79,473,411 Non-trainable params: 0 ---------------------------------------------------------------- Input size (MB): 0.00 Forward/backward pass size (MB): 214.37 Params size (MB): 303.17 Estimated Total Size (MB): 517.53 ---------------------------------------------------------------- Examp
…
 2 , 2 , 2 ], in_length = None , out_size = ( 31 , 32 , 30 ), out_planes = 3 ) print ( 'The number of convolutional layers along the depth is {0} .' . format ( net . nlayers )) print ( 'The input size is {0} .' . format ( net . input_size )) mdnc . contribs . torchsummary . summary ( net , net . input_size , device = 'cpu' ) Output The number of convolutional layers along the depth is 32. The input size is (1024, 1, 1, 1). ---------------------------------------------------------------- Layer (type) Output Shape Param # ================================================================ Conv3d-1 [-1, 1024, 1, 1, 1] 28,311,552 InstanceNorm3d-2 [-1, 1024, 1, 1, 1] 2,048 PReLU-3 [-1, 1024, 1, 1, 1] 1,024 Conv3d-4 [-1, 1024, 1, 1, 1] 1,048,576 InstanceNorm3d-5 [-1, 1024, 1, 1, 1] 2,048 PReLU-6 [-1, 1024, 1, 1, 1] 1,024 Conv3d-7 [-1, 1024, 1, 1, 1] 28,311,552 InstanceNorm3d-8 [-1, 1024, 1, 1, 1] 2,048 PReLU-9 [-1, 1024, 1, 1, 1] 1,024 Conv3d-10 [-1, 512, 1, 1, 1] 524,288 Conv3d-11 [-1, 512, 1, 1, 1] 524,288 InstanceNorm3d-12 [-1, 512, 1, 1, 1] 1,024 _BlockBo...neckNd-13 [-1, 512, 1, 1, 1] 0 InstanceNorm3d-14 [-1, 512, 1, 1, 1] 1,024 PReLU-15 [-1, 512, 1, 1, 1] 512 Conv3d-16 [-1, 512, 1, 1, 1] 262,144 InstanceNorm3d-17 [-1, 512, 1, 1, 1] 1,024 PReLU-18 [-1, 512, 1, 1, 1] 512 Upsample-19 [-1, 512, 2, 2, 2] 0 Conv3d-20 [-1, 512, 2, 2, 2] 7,077,888 InstanceNorm3d-21 [-1, 512, 2, 2, 2] 1,024 PReLU-22 [-1, 512, 2, 2, 2] 512 Conv3d-23 [-1, 512, 2, 2, 2] 262,144 Upsample-24 [-1, 512, 2, 2, 2] 0 Conv3d-25 [-1, 512, 2, 2, 2] 262,144 InstanceNorm3d-26 [-1, 512, 2, 2, 2] 1,024 _BlockBo...neckNd-27 [-1, 512, 2, 2, 2] 0 _BlockResStkNd-28 [-1, 512, 2, 2, 2] 0 InstanceNorm3d-29 [-1, 512, 2, 2, 2] 1,024 PReLU-30 [-1, 512, 2, 2, 2] 512 Conv3d-31 [-1, 512, 2, 2, 2] 262,144 InstanceNorm3d-32 [-1, 512, 2, 2, 2] 1,024 PReLU-33 [-1, 512, 2, 2, 2] 512 Conv3d-34 [-1, 512, 2, 2, 2] 7,077,888 InstanceNorm3d-35 [-1, 512, 2, 2, 2] 1,024 PReLU-36 [-1, 512, 2, 2, 2] 512 Conv3d-37 [-1, 256, 2, 2, 2] 131,072 Conv3d-38 [-1,…
 16, 16] 128 Conv2d-45 [-1, 128, 16, 16] 16,384 Conv2d-46 [-1, 128, 16, 16] 16,384 InstanceNorm2d-47 [-1, 128, 16, 16] 256 _BlockBo...neckNd-48 [-1, 128, 16, 16] 0 _BlockResStkNd-49 [-1, 128, 16, 16] 0 InstanceNorm2d-50 [-1, 128, 16, 16] 256 PReLU-51 [-1, 128, 16, 16] 128 Conv2d-52 [-1, 128, 16, 16] 16,384 InstanceNorm2d-53 [-1, 128, 16, 16] 256 PReLU-54 [-1, 128, 16, 16] 128 Conv2d-55 [-1, 128, 16, 16] 147,456 InstanceNorm2d-56 [-1, 128, 16, 16] 256 PReLU-57 [-1, 128, 16, 16] 128 Conv2d-58 [-1, 256, 16, 16] 32,768 Conv2d-59 [-1, 256, 16, 16] 32,768 InstanceNorm2d-60 [-1, 256, 16, 16] 512 _BlockBo...neckNd-61 [-1, 256, 16, 16] 0 InstanceNorm2d-62 [-1, 256, 16, 16] 512 PReLU-63 [-1, 256, 16, 16] 256 Conv2d-64 [-1, 256, 16, 16] 65,536 InstanceNorm2d-65 [-1, 256, 16, 16] 512 PReLU-66 [-1, 256, 16, 16] 256 Conv2d-67 [-1, 256, 8, 8] 589,824 InstanceNorm2d-68 [-1, 256, 8, 8] 512 PReLU-69 [-1, 256, 8, 8] 256 Conv2d-70 [-1, 256, 8, 8] 65,536 Conv2d-71 [-1, 256, 8, 8] 65,536 InstanceNorm2d-72 [-1, 256, 8, 8] 512 _BlockBo...neckNd-73 [-1, 256, 8, 8] 0 _BlockResStkNd-74 [-1, 256, 8, 8] 0 InstanceNorm2d-75 [-1, 256, 8, 8] 512 PReLU-76 [-1, 256, 8, 8] 256 Conv2d-77 [-1, 256, 8, 8] 65,536 InstanceNorm2d-78 [-1, 256, 8, 8] 512 PReLU-79 [-1, 256, 8, 8] 256 Conv2d-80 [-1, 256, 8, 8] 589,824 InstanceNorm2d-81 [-1, 256, 8, 8] 512 PReLU-82 [-1, 256, 8, 8] 256 Conv2d-83 [-1, 512, 8, 8] 131,072 Conv2d-84 [-1, 512, 8, 8] 131,072 InstanceNorm2d-85 [-1, 512, 8, 8] 1,024 _BlockBo...neckNd-86 [-1, 512, 8, 8] 0 InstanceNorm2d-87 [-1, 512, 8, 8] 1,024 PReLU-88 [-1, 512, 8, 8] 512 Conv2d-89 [-1, 512, 8, 8] 262,144 InstanceNorm2d-90 [-1, 512, 8, 8] 1,024 PReLU-91 [-1, 512, 8, 8] 512 Conv2d-92 [-1, 512, 4, 4] 2,359,296 InstanceNorm2d-93 [-1, 512, 4, 4] 1,024 PReLU-94 [-1, 512, 4, 4] 512 Conv2d-95 [-1, 512, 4, 4] 262,144 Conv2d-96 [-1, 512, 4, 4] 262,144 InstanceNorm2d-97 [-1, 512, 4, 4] 1,024 _BlockBo...neckNd-98 [-1, 512, 4, 4] 0 _BlockResStkNd-99 [-1, 512, 4, 4] 0 InstanceNorm2d-100 [-1, 512, 4, 4] 1,024 PReLU-101 [-1, 512, 4, 4] 512 Conv2d-102 [-1, 512, 4, 4] 262,144 InstanceNorm2d-103 [-1, 512, 4, 4] 1,024 PReLU-104 [-1, 512, 4, 4] 512 Conv2d-105 [-1, 512, 4, 4] 2,359,296 InstanceNorm2d-106 [-1, 512, 4, 4] 1,024 PReLU-107 [-1, 512, 4, 4] 512 Conv2d-108 [-1, 1024, 4, 4] 524,288 Conv2d-109 [-1, 1024, 4, 4] 524,288 InstanceNorm2d-110 [-1, 1024, 4, 4] 2,048 _BlockBo...eckNd-111 [-1, 1024, 4, 4] 0 InstanceNorm2d-112 [-1, 1024, 4, 4] 2,048 PReLU-113 [-1, 1024, 4, 4] 1,024 Conv2d-114 [-1, 1024, 4, 4] 1,048,576 InstanceNorm2d-115 [-1, 1024, 4, 4] 2,048 PReLU-116 [-1, 1024, 4, 4] 1,024 Conv2d-117 [-1, 1024, 2, 2] 9,437,184 InstanceNorm2d-118 [-1, 1024, 2, 2] 2,048 PReLU-119 [-1, 1024, 2, 2] 1,024 Conv2d-120 [-1, 1024, 2, 2] 1,048,576 Conv2d-121 [-1, 1024, 2, 2] 1,048,576 InstanceNorm2d-122 [-1, 1024, 2, 2] 2,048 _BlockBo...eckNd-123 [-1, 1024, 2, 2] 0 _BlockResStkNd-124 [-1, 1024, 2, 2] 0 Conv2d-125 [-1, 1024, 2, 2] 9,438,208 Adaptive...ool2d-126 [-1, 1024, 1, 1] 0 Linear-127 [-1, 32] 32,800 EncoderNet2d-128 [-1, 32] 0 ================================================================ Total params: 31,190,816 Trainable params: 31,190,816 Non-trainable params: 0 ---------------------------------------------------------------- Input size (MB): 0.05 Forward/backward pass size (MB): 63.66 Params size (MB): 118.98 Estimated Total Size (MB): 182.69 ---------------------------------------------------------------- Example 2 Codes 1 2 3 4 5 import mdnc net = mdnc . modules . resnet . EncoderNet2d ( 64 , [ 2 , 2 , 2 , 2 , 2 ], in_planes = 3 , out_length = None ) print ( 'The number of convolutional layers along the depth is {0} .' . format ( net . nlayers )) mdnc . contribs . torchsummary . summary ( net , ( 3 , 64 , 63 ), device = 'cpu' ) Output The number of convolutional layers along the depth is 32. ---------------------------------------------------------------- Layer (type) Output Shape Param # ================================================================ Conv2d-1 [-1, 64, 64, 63] 4,800 InstanceNorm2d-2 [-1, 64, 64, 63] 128 PReLU-3 [-1, 64, 64, 63] 64 Conv2d-4 [-1, 64, 64, 63] 4,096 InstanceNorm2d-5 [-1, 64, 64, 63] 128 PReLU-6 [-1, 64, 64, 63] 64 Conv2d-7 [-1, 64, 64, 63] 36,864 InstanceNorm2d-8 [-1, 64, 64, 63] 128 PReLU-9 [-1, 64, 64, 63] 64 Conv2d-10 [-1, 64, 64, 63] 4,096 _BlockBo...neckNd-11 [-1, 64, 64, 63] 0 InstanceNorm2d-12 [-1, 64, 64, 63] 128 PReLU-13 [-1, 64, 64, 63] 64 Conv2d-14 [-1, 64, 64, 63] 4,096 InstanceNorm2d-15 [-1, 64, 64, 63] 128 PReLU-16 [-1, 64, 64, 63] 64 Conv2d-17 [-1, 64, 32, 32] 36,864 InstanceNorm2d-18 [-1, 64, 32, 32] 128 PReLU-19 [-1, 64, 32, 32] 64 Conv2d-20 [-1, 64, 32, 32] 4,096 Conv2d-21 [-1, 64, 32, 32] 4,096 InstanceNorm2d-22 [-1, 64, 32, 32] 128 _BlockBo...neckNd-23 [-1, 64, 32, 32] 0 _BlockResStkNd-24 [-1, 64, 32, 32] 0 InstanceNorm2d-25 [-1, 64, 32, 32] 128 PReLU-26 [-1, 64, 32, 32] 64 Conv2d-27 [-1, 64, 32, 32] 4,096 InstanceNorm2d-28 [-1, 64, 32, 32] 128 PReLU-29 [-1, 64, 32, 32] 64 Conv2d-30 [-1, 64, 32, 32] 36,864 InstanceNorm2d-31 [-1, 64, 32, 32] 128 PReLU-32 [-1, 64, 32, 32] 64 Conv2d-33 [-1, 128, 32, 32] 8,192 Conv2d-34 [-1, 128, 32, 32] 8,192 InstanceNorm2d-35 [-1, 128, 32, 32] 256 _BlockBo...neckNd-36 [-1, 128, 32, 32] 0 InstanceNorm2d-37 [-1, 128, 32, 32] 256 PReLU-38 [-1, 128, 32, 32] 128 Conv2d-39 [-1, 128, 32, 32] 16,384 InstanceNorm2d-40 [-1, 128, 32, 32] 256 PReLU-41 [-1, 128, 32, 32] 128 Conv2d-42 [-1, 128, 16, 16] 147,456 InstanceNorm2d-43 [-1, 128, 16, 16] 256 PReLU-44 [-1, 128, 16, 16] 128 Conv2d-45 [-1, 128, 16, 16] 16,384 Conv2d-46 [-1, 128, 16, 16] 16,384 InstanceNorm2d-47 [-1, 128, 16, 16] 256 _BlockBo...neckNd-48 [-1, 128, 16, 16] 0 _BlockResStkNd-49 [-1, 128, 16, 16] 0 InstanceNorm2d-50 [-1, 128, 16, 16] 256 PReLU-51 [-1, 128, 16, 16] 128 Conv2d-52 [-1, 128, 16, 16] 16,384 InstanceNorm2d-53 [-1, 128, 16, 16] 256 PReLU-54 [-1, 128, 16, 16] 128 Conv2d-55 [-1, 128, 16, 16] 147,456 InstanceNorm2d-56 [-1, 128, 16, 16] 256 PReLU-57 [-1, 128, 16, 16] 128 Conv2d-58 [-1, 256, 16, 16] 32,768 Conv2d-59 [-1, 256, 16, 16] 32,768 InstanceNorm2d-60 [-1, 256, 16, 16] 512 _BlockBo...neckNd-61 [-1, 256, 16, 16] 0 InstanceNorm2d-62 [-1, 256, 16, 16] 512 PReLU-63 [-1, 256, 16, 16] 256 Conv2d-64 [-1, 256, 16, 16] 65,536 InstanceNorm2d-65 [-1, 256, 16, 16] 512 PReLU-66 [-1, 256, 16, 16] 256 Conv2d-67 [-1, 256, 8, 8] 589,824 InstanceNorm2d-68 [-1, 256, 8, 8] 512 PReLU-69 [-1, 256, 8, 8] 256 Conv2d-70 [-1, 256, 8, 8] 65,536 Conv2d-71 [-1, 256, 8, 8] 65,536 InstanceNorm2d-72 [-1, 256, 8, 8] 512 _BlockBo...neckNd-73 [-1, 256, 8, 8] 0 _BlockResStkNd-74 [-1, 256, 8, 8] 0 InstanceNorm2d-75 [-1, 256, 8, 8] 512 PReLU-76 [-1, 256, 8, 8] 256 Conv2d-77 [-1, 256, 8, 8] 65,536 InstanceNorm2d-78 [-1, 256, 8, 8] 512 PReLU-79 [-1, 256, 8, 8] 256 Conv2d-80 [-1, 256, 8, 8] 589,824 InstanceNorm2d-81 [-1, 256, 8, 8] 512 PReLU-82 [-1, 256, 8, 8] 256 Conv2d-83 [-1, 512, 8, 8] 131,072 Conv2d-84 [-1, 512, 8, 8] 131,072 InstanceNorm2d-85 [-1, 512, 8, 8] 1,024 _BlockBo...neckNd-86 [-1, 512, 8, 8] 0 InstanceNorm2d-87 [-1, 512, 8, 8] 1,024 PReLU-88 [-1, 512, 8, 8] 512 Conv2d-89 [-1, 512, 8, 8] 262,144 InstanceNorm2d-90 [-1, 512, 8, 8] 1,024 PReLU-91 [-1, 512, 8, 8] 512 Conv2d-92 [-1, 512, 4, 4] 2,359,296 InstanceNorm2d-93 [-1, 512, 4, 4] 1,024 PReLU-94 [-1, 512, 4, 4] 512 Conv2d-95 [-1, 512, 4, 4] 262,144 Conv2d-96 [-1, 512, 4, 4] 262,144 InstanceNorm2d-97 [-1, 512, 4, 4] 1,024 _BlockBo...neckNd-98 [-1, 512, 4, 4] 0 _BlockResStkNd-99 [-1, 512, 4, 4] 0 InstanceNorm2d-100 [-1, 512, 4, 4] 1,024 PReLU-101 [-1, 512, 4, 4] 512 Conv2d-102 [-1, 512, 4, 4] 262,144 InstanceNorm2d-103 [-1, 512, 4, 4] 1,024 PReLU-104 [-1, 512, 4, 4] 512 Conv2d-105 [-1, 512, 4, 4] 2,359,296 InstanceNorm2d-106 [-1, 512, 4, 4] 1,024 PReLU-107 [-1, 512, 4, 4] 512 Conv2d-108 [-1, 1024, 4, 4] 524,288 Conv2d-109 [-1, 1024, 4, 4] 524,288 InstanceNorm2d-110 [-1, 1024, 4, 4] 2,048 _BlockBo...eckNd-111 [-1, 1024, 4, 4] 0 InstanceNorm2d-112 [-1, 1024, 4, 4] 2,048 PReLU-113 [-1, 1024, 4, 4] 1,024 Conv2d-114 [-1, 1024, 4, 4] 1,048,576 InstanceNorm2d-115 [-1, 1024, 4, 4] 2,048 PReLU-116 [-1, 1024, 4, 4] 1,024 Conv2d-117 [-1, 1024, 2, 2] 9,437,184 InstanceNorm2d-118 [-1, 1024, 2, 2] 2,048 PReLU-119 [-1, 1024, 2, 2] 1,024 Conv2d-120 [-1, 1024, 2, 2] 1,048,576 Conv2d-121 [-1, 1024, 2, 2] 1,048,576 InstanceNorm2d-122 [-1, 1024, 2, 2] 2,048 _BlockBo...eckNd-123 [-1, 1024, 2, 2] 0 _BlockResStkNd-124 [-1, 1024, 2, 2] 0 Conv2d-125 [-1, 1024, 2, 2] 9,438,208 EncoderNet2d-126 [-1, 1024, 2, 2] 0 ================================================================ Total params: 31,158,016 Trainable params: 31,158,016 Non-trainable params: 0 ---------------------------------------------------------------- Input size (MB): 0.05 Forward/backward pass size (MB): 63.69 Params size (MB): 118.86 Estimated Total Size (MB): 182.59 ----------------------------------------------------------------","titl
…
nsideration. Examples \u00b6 Example 1 Codes 1 2 3 4 5 import mdnc net = mdnc . modules . resnet . EncoderNet3d ( 64 , [ 2 , 2 , 2 , 2 , 2 ], in_planes = 3 , out_length = 32 ) print ( 'The number of convolutional layers along the depth is {0} .' . format ( net . nlayers )) mdnc . contribs . torchsummary . summary ( net , ( 3 , 31 , 32 , 30 ), device = 'cpu' ) Output The number of convolutional layers along the depth is 32. ---------------------------------------------------------------- Layer (type) Output Shape Param # ================================================================ Conv3d-1 [-1, 64, 31, 32, 30] 24,000 InstanceNorm3d-2 [-1, 64, 31, 32, 30] 128 PReLU-3 [-1, 64, 31, 32, 30] 64 Conv3d-4 [-1, 64, 31, 32, 30] 4,096 InstanceNorm3d-5 [-1, 64, 31, 32, 30] 128 PReLU-6 [-1, 64, 31, 32, 30] 64 Conv3d-7 [-1, 64, 31, 32, 30] 110,592 InstanceNorm3d-8 [-1, 64, 31, 32, 30] 128 PReLU-9 [-1, 64, 31, 32, 30] 64 Conv3d-10 [-1, 64, 31, 32, 30] 4,096 _BlockBo...neckNd-11 [-1, 64, 31, 32, 30] 0 InstanceNorm3d-12 [-1, 64, 31, 32, 30] 128 PReLU-13 [-1, 64, 31, 32, 30] 64 Conv3d-14 [-1, 64, 31, 32, 30] 4,096 InstanceNorm3d-15 [-1, 64, 31, 32, 30] 128 PReLU-16 [-1, 64, 31, 32, 30] 64 Conv3d-17 [-1, 64, 16, 16, 15] 110,592 InstanceNorm3d-18 [-1, 64, 16, 16, 15] 128 PReLU-19 [-1, 64, 16, 16, 15] 64 Conv3d-20 [-1, 64, 16, 16, 15] 4,096 Conv3d-21 [-1, 64, 16, 16, 15] 4,096 InstanceNorm3d-22 [-1, 64, 16, 16, 15] 128 _BlockBo...neckNd-23 [-1, 64, 16, 16, 15] 0 _BlockResStkNd-24 [-1, 64, 16, 16, 15] 0 InstanceNorm3d-25 [-1, 64, 16, 16, 15] 128 PReLU-26 [-1, 64, 16, 16, 15] 64 Conv3d-27 [-1, 64, 16, 16, 15] 4,096 InstanceNorm3d-28 [-1, 64, 16, 16, 15] 128 PReLU-29 [-1, 64, 16, 16, 15] 64 Conv3d-30 [-1, 64, 16, 16, 15] 110,592 InstanceNorm3d-31 [-1, 64, 16, 16, 15] 128 PReLU-32 [-1, 64, 16, 16, 15] 64 Conv3d-33 [-1, 128, 16, 16, 15] 8,192 Conv3d-34 [-1, 128, 16, 16, 15] 8,192 InstanceNorm3d-35 [-1, 128, 16, 16, 15] 256 _BlockBo...neckNd-36 [-1, 128, 16, 16, 15] 0 InstanceNorm3d-37 [-1, 128, 16, 16, 15] 256 PReLU-38 [-1, 128, 16, 16, 15] 128 Conv3d-39 [-1, 128, 16, 16, 15] 16,384 InstanceNorm3d-40 [-1, 128, 16, 16, 15] 256 PReLU-41 [-1, 128, 16, 16, 15] 128 Conv3d-42 [-1, 128, 8, 8, 8] 442,368 InstanceNorm3d-43 [-1, 128, 8, 8, 8] 256 PReLU-44 [-1, 128, 8, 8, 8] 128 Conv3d-45 [-1, 128, 8, 8, 8] 16,384 Conv3d-46 [-1, 128, 8, 8, 8] 16,384 InstanceNorm3d-47 [-1, 128, 8, 8, 8] 256 _BlockBo...neckNd-48 [-1, 128, 8, 8, 8] 0 _BlockResStkNd-49 [-1, 128, 8, 8, 8] 0 InstanceNorm3d-50 [-1, 128, 8, 8, 8] 256 PReLU-51 [-1, 128, 8, 8, 8] 128 Conv3d-52 [-1, 128, 8, 8, 8] 16,384 InstanceNorm3d-53 [-1, 128, 8, 8, 8] 256 PReLU-54 [-1, 128, 8, 8, 8] 128 Conv3d-55 [-1, 128, 8, 8, 8] 442,368 InstanceNorm3d-56 [-1, 128, 8, 8, 8] 256 PReLU-57 [-1, 128, 8, 8, 8] 128 Conv3d-58 [-1, 256, 8, 8, 8] 32,768 Conv3d-59 [-1, 256, 8, 8, 8] 32,768 InstanceNorm3d-60 [-1, 256, 8, 8, 8] 512 _BlockBo...neckNd-61 [-1, 256, 8, 8, 8] 0 InstanceNorm3d-62 [-1, 256, 8, 8, 8] 512 PReLU-63 [-1, 256, 8, 8, 8] 256 Conv3d-64 [-1, 256, 8, 8, 8] 65,536 InstanceNorm3d-65 [-1, 256, 8, 8, 8] 512 PReLU-66 [-1, 256, 8, 8, 8] 256 Conv3d-67 [-1, 256, 4, 4, 4] 1,769,472 InstanceNorm3d-68 [-1, 256, 4, 4, 4] 512 PReLU-69 [-1, 256, 4, 4, 4] 256 Conv3d-70 [-1, 256, 4, 4, 4] 65,536 Conv3d-71 [-1, 256, 4, 4, 4] 65,536 InstanceNorm3d-72 [-1, 256, 4, 4, 4] 512 _BlockBo...neckNd-73 [-1, 256, 4, 4, 4] 0 _BlockResStkNd-74 [-1, 256, 4, 4, 4] 0 InstanceNorm3d-75 [-1, 256, 4, 4, 4] 512 PReLU-76 [-1, 256, 4, 4, 4] 256 Conv3d-77 [-1, 256, 4, 4, 4] 65,536 InstanceNorm3d-78 [-1, 256, 4, 4, 4] 512 PReLU-79 [-1, 256, 4, 4, 4] 256 Conv3d-80 [-1, 256, 4, 4, 4] 1,769,472 InstanceNorm3d-81 [-1, 256, 4, 4, 4] 512 PReLU-82 [-1, 256, 4, 4, 4] 256 Conv3d-83 [-1, 512, 4, 4, 4] 131,072 Conv3d-84 [-1, 512, 4, 4, 4] 131,072 InstanceNorm3d-85 [-1, 512, 4, 4, 4] 1,024 _BlockBo...neckNd-86 [-1, 512, 4, 4, 4] 0 InstanceNorm3d-87 [-1, 512, 4, 4, 4] 1,024 PReLU-88 [-1, 512, 4, 4, 4] 512 Conv3d-89 [-1, 512, 4, 4, 4] 262,144 InstanceNorm3d-90 [-1, 512, 4, 4, 4] 1,024 PReLU-91 [-1, 512, 4, 4, 4] 512 Conv3d-92 [-1, 512, 2, 2, 2] 7,077,888 InstanceNorm3d-93 [-1, 512, 2, 2, 2] 1,024 PReLU-94 [-1, 512, 2, 2, 2] 512 Conv3d-95 [-1, 512, 2, 2, 2] 262,144 Conv3d-96 [-1, 512, 2, 2, 2] 262,144 InstanceNorm3d-97 [-1, 512, 2, 2, 2] 1,024 _BlockBo...neckNd-98 [-1, 512, 2, 2, 2] 0 _BlockResStkNd-99 [-1, 512, 2, 2, 2] 0 InstanceNorm3d-100 [-1, 512, 2, 2, 2] 1,024 PReLU-101 [-1, 512, 2, 2, 2] 512 Conv3d-102 [-1, 512, 2, 2, 2] 262,144 InstanceNorm3d-103 [-1, 512, 2, 2, 2] 1,024 PReLU-104 [-1, 512, 2, 2, 2] 512 Conv3d-105 [-1, 512, 2, 2, 2] 7,077,888 InstanceNorm3d-106 [-1, 512, 2, 2, 2] 1,024 PReLU-107 [-1, 512, 2, 2, 2] 512 Conv3d-108 [-1, 1024, 2, 2, 2] 524,288 Conv3d-109 [-1, 1024, 2, 2, 2] 524,288 InstanceNorm3d-110 [-1, 1024, 2, 2, 2] 2,048 _BlockBo...eckNd-111 [-1, 1024, 2, 2, 2] 0 InstanceNorm3d-112 [-1, 1024, 2, 2, 2] 2,048 PReLU-113 [-1, 1024, 2, 2, 2] 1,024 Conv3d-114 [-1, 1024, 2, 2, 2] 1,048,576 InstanceNorm3d-115 [-1, 1024, 2, 2, 2] 2,048 PReLU-116 [-1, 1024, 2, 2, 2] 1,024 Conv3d-117 [-1, 1024, 1, 1, 1] 28,311,552 InstanceNorm3d-118 [-1, 1024, 1, 1, 1] 2,048 PReLU-119 [-1, 1024, 1, 1, 1] 1,024 Conv3d-120 [-1, 1024, 1, 1, 1] 1,048,576 Conv3d-121 [-1, 1024, 1, 1, 1] 1,048,576 InstanceNorm3d-122 [-1, 1024, 1, 1, 1] 2,048 _BlockBo...eckNd-123 [-1, 1024, 1, 1, 1] 0 _BlockResStkNd-124 [-1, 1024, 1, 1, 1] 0 Conv3d-125 [-1, 1024, 1, 1, 1] 28,312,576 Adaptive...ool3d-126 [-1, 1024, 1, 1, 1] 0 Linear-127 [-1, 32] 32,800 EncoderNet3d-128 [-1, 32] 0 ================================================================ Total params: 81,566,240 Trainable params: 81,566,240 Non-trainable params: 0 ---------------------------------------------------------------- Input size (MB): 0.34 Forward/backward pass size (MB): 318.64 Params size (MB): 311.15 Estimated Total Size (MB): 630.13 ---------------------------------------------------------------- Example 2 Codes 1 2 3 4 5 import mdnc net = mdnc . modules . resnet . EncoderNet3d ( 64 , [ 2 , 2 , 2 , 2 , 2 ], in_planes = 3 , out_length = None ) print ( 'The number of convolutional layers along the depth is {0} .' . format ( net . nlayers )) mdnc . contribs . torchsummary . summary ( net , ( 3 , 31 , 32 , 30 ), device = 'cpu' ) Output The number of convolutional layers along the depth is 32. ---------------------------------------------------------------- Layer (type) Output Shape Param # ================================================================ Conv3d-1 [-1, 64, 31, 32, 30] 24,000 InstanceNorm3d-2 [-1, 64, 31, 32, 30] 128 PReLU-3 [-1, 64, 31, 32, 30] 64 Conv3d-4 [-1, 64, 31, 32, 30] 4,096 InstanceNorm3d-5 [-1, 64, 31, 32, 30] 128 PReLU-6 [-1, 64, 31, 32, 30] 64 Conv3d-7 [-1, 64, 31, 32, 30] 110,592 InstanceNorm3d-8 [-1, 64, 31, 32, 30] 128 PReLU-9 [-1, 64, 31, 32, 30] 64 Conv3d-10 [-1, 64, 31, 32, 30] 4,096 _BlockBo...neckNd-11 [-1, 64, 31, 32, 30] 0 InstanceNorm3d-12 [-1, 64, 31, 32, 30] 128 PReLU-13 [-1, 64, 31, 32, 30] 64 Conv3d-14 [-1, 64, 31, 32, 30] 4,096 InstanceNorm3d-15 [-1, 64, 31, 32, 30] 128 PReLU-16 [-1, 64, 31, 32, 30] 64 Conv3d-17 [-1, 64, 16, 16, 15] 110,592 InstanceNorm3d-18 [-1, 64, 16, 16, 15] 128 PReLU-19 [-1, 64, 16, 16, 15] 64 Conv3d-20 [-1, 64, 16, 16, 15] 4,096 Conv3d-21 [-1, 64, 16, 16, 15] 4,096 InstanceNorm3d-22 [-1, 64, 16, 16, 15] 128 _BlockBo...neckNd-23 [-1, 64, 16, 16, 15] 0 _BlockResStkNd-24 [-1, 64, 16, 16, 15] 0 InstanceNorm3d-25 [-1, 64, 16, 16, 15] 128 PReLU-26 [-1, 64, 16, 16, 15] 64 Conv3d-27 [-1, 64, 16, 16, 15] 4,096 InstanceNorm3d-28 [-1, 64, 16, 16, 15] 128 PReLU-29 [-1, 64, 16, 16, 15] 64 Conv3d-30 [-1, 64, 16, 16, 15] 110,592 InstanceNorm3d-31 [-1, 64, 16, 16, 15] 128 PReLU-32 [-1, 64, 16, 16, 15] 64 Conv3d-33 [-1, 128, 16, 16, 15] 8,192 Conv3d-34 [-1, 128, 16, 16, 15] 8,192 InstanceNorm3d-35 [-1, 128, 16, 16, 15] 256 _BlockBo...neckNd-36 [-1, 128, 16, 16, 15] 0 InstanceNorm3d-37 [-1, 128, 16, 16, 15] 256 PReLU-38 [-1, 128, 16, 16, 15] 128 Conv3d-39 [-1, 128, 16, 16, 15] 16,384 InstanceNorm3d-40 [-1, 128, 16, 16, 15] 256 PReLU-41 [-1, 128, 16, 16, 15] 128 Conv3d-42 [-1, 128, 8, 8, 8] 442,368 InstanceNorm3d-43 [-1, 128, 8, 8, 8] 256 PReLU-44 [-1, 128, 8, 8, 8] 128 Conv3d-45 [-1, 128, 8, 8, 8] 16,384 Conv3d-46 [-1, 128, 8, 8, 8] 16,384 InstanceNorm3d-47 [-1, 128, 8, 8, 8] 256 _BlockBo...neckNd-48 [-1, 128, 8, 8, 8] 0 _BlockResStkNd-49 [-1, 128, 8, 8, 8] 0 InstanceNorm3d-50 [-1, 128, 8, 8, 8] 256 PReLU-51 [-1, 128, 8, 8, 8] 128 Conv3d-52 [-1, 128, 8, 8, 8] 16,384 InstanceNorm3d-53 [-1, 128, 8, 8, 8] 256 PReLU-54 [-1, 128, 8, 8, 8] 128 Conv3d-55 [-1, 128, 8, 8, 8] 442,368 InstanceNorm3d-56 [-1, 128, 8, 8, 8] 256 PReLU-57 [-1, 128, 8, 8, 8] 128 Conv3d-58 [-1, 256, 8, 8, 8] 32,768 Conv3d-59 [-1, 256, 8, 8, 8] 32,768 InstanceNorm3d-60 [-1, 256, 8, 8, 8] 512 _BlockBo...neckNd-61 [-1, 256, 8, 8, 8] 0 InstanceNorm3d-62 [-1, 256, 8, 8, 8] 512 PReLU-63 [-1, 256, 8, 8, 8] 256 Conv3d-64 [-1, 256, 8, 8, 8] 65,536 InstanceNorm3d-65 [-1, 256, 8, 8, 8] 512 PReLU-66 [-1, 256, 8, 8, 8] 256 Conv3d-67 [-1, 256, 4, 4, 4] 1,769,472 InstanceNorm3d-68 [-1, 256, 4, 4, 4] 512 PReLU-69 [-1, 256, 4, 4, 4] 256 Conv3d-70 [-1, 256, 4, 4, 4] 65,536 Conv3d-71 [-1, 256, 4, 4, 4] 65,536 InstanceNorm3d-72 [-1, 256, 4, 4, 4] 512 _BlockBo...neckNd-73 [-1, 256, 4, 4, 4] 0 _BlockResStkNd-74 [-1, 256, 4, 4, 4] 0 InstanceNorm3d-75 [-1, 256, 4, 4, 4] 512 PReLU-76 [-1, 256, 4, 4, 4] 256 Conv3d-77 [-1, 256, 4, 4, 4] 65,536 InstanceNorm3d-78 [-1, 256, 4, 4, 4] 512 PReLU-79 [-1, 256, 4, 4, 4] 256 Conv3d-80 [-1, 256, 4, 4, 4] 1,769,472 InstanceNorm3d-81 [-1, 256, 4, 4, 4] 512 PReLU-82 [-1, 256, 4, 4, 4] 256 Conv3d-83 [-1, 512, 4, 4, 4] 131,072 Conv3d-84 [-1, 512, 4, 4, 4] 131,072 InstanceNorm3d-85 [-1, 512, 4, 4, 4] 1,024 _BlockBo...neckNd-86 [-1, 512, 4, 4, 4] 0 InstanceNorm3d-87 [-1, 512, 4, 4, 4] 1,024 PReLU-88 [-1, 512, 4, 4, 4] 512 Conv3d-89 [-1, 512, 4, 4, 4] 262,144 InstanceNorm3d-90 [-1, 512, 4, 4, 4] 1,024 PReLU-91 [-1, 512, 4, 4, 4] 512 Conv3d-92 [-1, 512, 2, 2, 2] 7,077,888 InstanceNorm3d-93 [-1, 512, 2, 2, 2] 1,024 PReLU-94 [-1, 512, 2, 2, 2] 512 Conv3d-95 [-1, 512, 2, 2, 2] 262,144 Conv3d-96 [-1, 512, 2, 2, 2] 262,144 InstanceNorm3d-97 [-1, 512, 2, 2, 2] 1,024 _BlockBo...neckNd-98 [-1, 512, 2, 2, 2] 0 _BlockResStkNd-99 [-1, 512, 2, 2, 2] 0 InstanceNorm3d-100 [-1, 512, 2, 2, 2] 1,024 PReLU-101 [-1, 512, 2, 2, 2] 512 Conv3d-102 [-1, 512, 2, 2, 2] 262,144 InstanceNorm3d-103 [-1, 512, 2, 2, 2] 1,024 PReLU-104 [-1, 512, 2, 2, 2] 512 Conv3d-105 [-1, 512, 2, 2, 2] 7,077,888 InstanceNorm3d-106 [-1, 512, 2, 2, 2] 1,024 PReLU-107 [-1, 512, 2, 2, 2] 512 Conv3d-108 [-1, 1024, 2, 2, 2] 524,288 Conv3d-109 [-1, 1024, 2, 2, 2] 524,288 InstanceNorm3d-110 [-1, 1024, 2, 2, 2] 2,048 _BlockBo...eckNd-111 [-1, 1024, 2, 2, 2] 0 InstanceNorm3d-112 [-1, 1024, 2, 2, 2] 2,048 PReLU-113 [-1, 1024, 2, 2, 2] 1,024 Conv3d-114 [-1, 1024, 2, 2, 2] 1,048,576 InstanceNorm3d-115 [-1, 1024, 2, 2, 2] 2,048 PReLU-116 [-1, 1024, 2, 2, 2] 1,024 Conv3d-117 [-1, 1024, 1, 1, 1] 28,311,552 InstanceNorm3d-118 [-1, 1024, 1, 1, 1] 2,048 PReLU-119 [-1, 1024, 1, 1, 1] 1,024 Conv3d-120 [-1, 1024, 1, 1, 1] 1,048,576 Conv3d-121 [-1, 1024, 1, 1, 1] 1,048,576 InstanceNorm3d-122 [-1, 1024, 1, 1, 1] 2,048 _BlockBo...eckNd-123 [-1, 1024, 1, 1, 1] 0 _BlockResStkNd-124 [-1, 1024, 1, 1, 1] 0 Conv3d-125 [-1, 1024, 1, 1, 1] 28,312,576 EncoderNet3d-126 [-1, 1024, 1, 1, 1] 0 ================================================================ Total params: 81,533,440 Trainable params: 81,533,440 Non-trainable params: 0 ---------------------------------------------------------------- Input size (MB): 0.34 Forward/backward pass size (MB): 318.64 Params size (MB): 311.03 Estimated Total Size (MB): 630.01 ----------------------------------------------------------------","tit
…
long the depth of the network. Examples \u00b6 Example Codes 1 2 3 4 5 import mdnc net = mdnc . modules . resnet . UNet1d ( 64 , [ 2 , 2 , 2 , 2 , 3 ], in_planes = 3 , out_planes = 1 ) print ( 'The number of convolutional layers along the depth is {0} .' . format ( net . nlayers )) mdnc . contribs . torchsummary . summary ( net , ( 3 , 128 ), device = 'cpu' ) Output The number of convolutional layers along the depth is 59. ---------------------------------------------------------------- Layer (type) Output Shape Param # ================================================================ Conv1d-1 [-1, 64, 128] 960 InstanceNorm1d-2 [-1, 64, 128] 128 PReLU-3 [-1, 64, 128] 64 Conv1d-4 [-1, 64, 128] 4,096 InstanceNorm1d-5 [-1, 64, 128] 128 PReLU-6 [-1, 64, 128] 64 Conv1d-7 [-1, 64, 128] 12,288 InstanceNorm1d-8 [-1, 64, 128] 128 PReLU-9 [-1, 64, 128] 64 Conv1d-10 [-1, 64, 128] 4,096 _BlockBo...neckNd-11 [-1, 64, 128] 0 InstanceNorm1d-12 [-1, 64, 128] 128 PReLU-13 [-1, 64, 128] 64 Conv1d-14 [-1, 64, 128] 4,096 InstanceNorm1d-15 [-1, 64, 128] 128 PReLU-16 [-1, 64, 128] 64 Conv1d-17 [-1, 64, 64] 12,288 InstanceNorm1d-18 [-1, 64, 64] 128 PReLU-19 [-1, 64, 64] 64 Conv1d-20 [-1, 64, 64] 4,096 Conv1d-21 [-1, 64, 64] 4,096 InstanceNorm1d-22 [-1, 64, 64] 128 _BlockBo...neckNd-23 [-1, 64, 64] 0 _BlockResStkNd-24 [-1, 64, 64] 0 [-1, 64, 128] InstanceNorm1d-25 [-1, 64, 64] 128 PReLU-26 [-1, 64, 64] 64 Conv1d-27 [-1, 64, 64] 4,096 InstanceNorm1d-28 [-1, 64, 64] 128 PReLU-29 [-1, 64, 64] 64 Conv1d-30 [-1, 64, 64] 12,288 InstanceNorm1d-31 [-1, 64, 64] 128 PReLU-32 [-1, 64, 64] 64 Conv1d-33 [-1, 128, 64] 8,192 Conv1d-34 [-1, 128, 64] 8,192 InstanceNorm1d-35 [-1, 128, 64] 256 _BlockBo...neckNd-36 [-1, 128, 64] 0 InstanceNorm1d-37 [-1, 128, 64] 256 PReLU-38 [-1, 128, 64] 128 Conv1d-39 [-1, 128, 64] 16,384 InstanceNorm1d-40 [-1, 128, 64] 256 PReLU-41 [-1, 128, 64] 128 Conv1d-42 [-1, 128, 32] 49,152 InstanceNorm1d-43 [-1, 128, 32] 256 PReLU-44 [-1, 128, 32] 128 Conv1d-45 [-1, 128, 32] 16,384 Conv1d-46 [-1, 128, 32] 16,384 InstanceNorm1d-47 [-1, 128, 32] 256 _BlockBo...neckNd-48 [-1, 128, 32] 0 _BlockResStkNd-49 [-1, 128, 32] 0 [-1, 128, 64] InstanceNorm1d-50 [-1, 128, 32] 256 PReLU-51 [-1, 128, 32] 128 Conv1d-52 [-1, 128, 32] 16,384 InstanceNorm1d-53 [-1, 128, 32] 256 PReLU-54 [-1, 128, 32] 128 Conv1d-55 [-1, 128, 32] 49,152 InstanceNorm1d-56 [-1, 128, 32] 256 PReLU-57 [-1, 128, 32] 128 Conv1d-58 [-1, 256, 32] 32,768 Conv1d-59 [-1, 256, 32] 32,768 InstanceNorm1d-60 [-1, 256, 32] 512 _BlockBo...neckNd-61 [-1, 256, 32] 0 InstanceNorm1d-62 [-1, 256, 32] 512 PReLU-63 [-1, 256, 32] 256 Conv1d-64 [-1, 256, 32] 65,536 InstanceNorm1d-65 [-1, 256, 32] 512 PReLU-66 [-1, 256, 32] 256 Conv1d-67 [-1, 256, 16] 196,608 InstanceNorm1d-68 [-1, 256, 16] 512 PReLU-69 [-1, 256, 16] 256 Conv1d-70 [-1, 256, 16] 65,536 Conv1d-71 [-1, 256, 16] 65,536 InstanceNorm1d-72 [-1, 256, 16] 512 _BlockBo...neckNd-73 [-1, 256, 16] 0 _BlockResStkNd-74 [-1, 256, 16] 0 [-1, 256, 32] InstanceNorm1d-75 [-1, 256, 16] 512 PReLU-76 [-1, 256, 16] 256 Conv1d-77 [-1, 256, 16] 65,536 InstanceNorm1d-78 [-1, 256, 16] 512 PReLU-79 [-1, 256, 16] 256 Conv1d-80 [-1, 256, 16] 196,608 InstanceNorm1d-81 [-1, 256, 16] 512 PReLU-82 [-1, 256, 16] 256 Conv1d-83 [-1, 512, 16] 131,072 Conv1d-84 [-1, 512, 16] 131,072 InstanceNorm1d-85 [-1, 512, 16] 1,024 _BlockBo...neckNd-86 [-1, 512, 16] 0 InstanceNorm1d-87 [-1, 512, 16] 1,024 PReLU-88 [-1, 512, 16] 512 Conv1d-89 [-1, 512, 16] 262,144 InstanceNorm1d-90 [-1, 512, 16] 1,024 PReLU-91 [-1, 512, 16] 512 Conv1d-92 [-1, 512, 8] 786,432 InstanceNorm1d-93 [-1, 512, 8] 1,024 PReLU-94 [-1, 512, 8] 512 Conv1d-95 [-1, 512, 8] 262,144 Conv1d-96 [-1, 512, 8] 262,144 InstanceNorm1d-97 [-1, 512, 8] 1,024 _BlockBo...neckNd-98 [-1, 512, 8] 0 _BlockResStkNd-99 [-1, 512, 8] 0 [-1, 512, 16] InstanceNorm1d-100 [-1, 512, 8] 1,024 PReLU-101 [-1, 512, 8] 512 Conv1d-102 [-1, 512, 8] 262,144 InstanceNorm1d-103 [-1, 512, 8] 1,024 PReLU-104 [-1, 512, 8] 512 Conv1d-105 [-1, 512, 8] 786,432 InstanceNorm1d-106 [-1, 512, 8] 1,024 PReLU-107 [-1, 512, 8] 512 Conv1d-108 [-1, 1024, 8] 524,288 Conv1d-109 [-1, 1024, 8] 524,288 InstanceNorm1d-110 [-1, 1024, 8] 2,048 _BlockBo...eckNd-111 [-1, 1024, 8] 0 InstanceNorm1d-112 [-1, 1024, 8] 2,048 PReLU-113 [-1, 1024, 8] 1,024 Conv1d-114 [-1, 1024, 8] 1,048,576 InstanceNorm1d-115 [-1, 1024, 8] 2,048 PReLU-116 [-1, 1024, 8] 1,024 Conv1d-117 [-1, 1024, 8] 3,145,728 InstanceNorm1d-118 [-1, 1024, 8] 2,048 PReLU-119 [-1, 1024, 8] 1,024 Conv1d-120 [-1, 1024, 8] 1,048,576 _BlockBo...eckNd-121 [-1, 1024, 8] 0 InstanceNorm1d-122 [-1, 1024, 8] 2,048 PReLU-123 [-1, 1024, 8] 1,024 Conv1d-124 [-1, 1024, 8] 1,048,576 InstanceNorm1d-125 [-1, 1024, 8] 2,048 PReLU-126 [-1, 1024, 8] 1,024 Upsample-127 [-1, 1024, 16] 0 Conv1d-128 [-1, 1024, 16] 3,145,728 InstanceNorm1d-129 [-1, 1024, 16] 2,048 PReLU-130 [-1, 1024, 16] 1,024 Conv1d-131 [-1, 512, 16] 524,288 Upsample-132 [-1, 1024, 16] 0 Conv1d-133 [-1, 512, 16] 524,288 InstanceNorm1d-134 [-1, 512, 16] 1,024 _BlockBo...eckNd-135 [-1, 512, 16] 0 _BlockResStkNd-136 [-1, 512, 16] 0 InstanceNorm1d-137 [-1, 1024, 16] 2,048 PReLU-138 [-1, 1024, 16] 1,024 Conv1d-139 [-1, 1024, 16] 1,048,576 InstanceNorm1d-140 [-1, 1024, 16] 2,048 PReLU-141 [-1, 1024, 16] 1,024 Conv1d-142 [-1, 1024, 16] 3,145,728 InstanceNorm1d-143 [-1, 1024, 16] 2,048 PReLU-144 [-1, 1024, 16] 1,024 Conv1d-145 [-1, 512, 16] 524,288 Conv1d-146 [-1, 512, 16] 524,288 InstanceNorm1d-147 [-1, 512, 16] 1,024 _BlockBo...eckNd-148 [-1, 512, 16] 0 InstanceNorm1d-149 [-1, 512, 16] 1,024 PReLU-150 [-1, 512, 16] 512 Conv1d-151 [-1, 512, 16] 262,144 InstanceNorm1d-152 [-1, 512, 16] 1,024 PReLU-153 [-1, 512, 16] 512 Upsample-154 [-1, 512, 32] 0 Conv1d-155 [-1, 512, 32] 786,432 InstanceNorm1d-156 [-1, 512, 32] 1,024 PReLU-157 [-1, 512, 32] 512 Conv1d-158 [-1, 256, 32] 131,072 Upsample-159 [-1, 512, 32] 0 Conv1d-160 [-1, 256, 32] 131,072 InstanceNorm1d-161 [-1, 256, 32] 512 _BlockBo...eckNd-162 [-1, 256, 32] 0 _BlockResStkNd-163 [-1, 256, 32] 0 InstanceNorm1d-164 [-1, 512, 32] 1,024 PReLU-165 [-1, 512, 32] 512 Conv1d-166 [-1, 512, 32] 262,144 InstanceNorm1d-167 [-1, 512, 32] 1,024 PReLU-168 [-1, 512, 32] 512 Conv1d-169 [-1, 512, 32] 786,432 InstanceNorm1d-170 [-1, 512, 32] 1,024 PReLU-171 [-1, 512, 32] 512 Conv1d-172 [-1, 256, 32] 131,072 Conv1d-173 [-1, 256, 32] 131,072 InstanceNorm1d-174 [-1, 256, 32] 512 _BlockBo...eckNd-175 [-1, 256, 32] 0 InstanceNorm1d-176 [-1, 256, 32] 512 PReLU-177 [-1, 256, 32] 256 Conv1d-178 [-1, 256, 32] 65,536 InstanceNorm1d-179 [-1, 256, 32] 512 PReLU-180 [-1, 256, 32] 256 Upsample-181 [-1, 256, 64] 0 Conv1d-182 [-1, 256, 64] 196,608 InstanceNorm1d-183 [-1, 256, 64] 512 PReLU-184 [-1, 256, 64] 256 Conv1d-185 [-1, 128, 64] 32,768 Upsample-186 [-1, 256, 64] 0 Conv1d-187 [-1, 128, 64] 32,768 InstanceNorm1d-188 [-1, 128, 64] 256 _BlockBo...eckNd-189 [-1, 128, 64] 0 _BlockResStkNd-190 [-1, 128, 64] 0 InstanceNorm1d-191 [-1, 256, 64] 512 PReLU-192 [-1, 256, 64] 256 Conv1d-193 [-1, 256, 64] 65,536 InstanceNorm1d-194 [-1, 256, 64] 512 PReLU-195 [-1, 256, 64] 256 Conv1d-196 [-1, 256, 64] 196,608 InstanceNorm1d-197 [-1, 256, 64] 512 PReLU-198 [-1, 256, 64] 256 Conv1d-199 [-1, 128, 64] 32,768 Conv1d-200 [-1, 128, 64] 32,768 InstanceNorm1d-201 [-1, 128, 64] 256 _BlockBo...eckNd-202 [-1, 128, 64] 0 InstanceNorm1d-203 [-1, 128, 64] 256 PReLU-204 [-1, 128, 64] 128 Conv1d-205 [-1, 128, 64] 16,384 InstanceNorm1d-206 [-1, 128, 64] 256 PReLU-207 [-1, 128, 64] 128 Upsample-208 [-1, 128, 128] 0 Conv1d-209 [-1, 128, 128] 49,152 InstanceNorm1d-210 [-1, 128, 128] 256 PReLU-211 [-1, 128, 128] 128 Conv1d-212 [-1, 64, 128] 8,192 Upsample-213 [-1, 128, 128] 0 Conv1d-214 [-1, 64, 128] 8,192 InstanceNorm1d-215 [-1, 64, 128] 128 _BlockBo...eckNd-216 [-1, 64, 128] 0 _BlockResStkNd-217 [-1, 64, 128] 0 InstanceNorm1d-218 [-1, 128, 128] 256 PReLU-219 [-1, 128, 128] 128 Conv1d-220 [-1, 128, 128] 16,384 InstanceNorm1d-221 [-1, 128, 128] 256 PReLU-222 [-1, 128, 128] 128 Conv1d-223 [-1, 128, 128] 49,152 InstanceNorm1d-224 [-1, 128, 128] 256 PReLU-225 [-1, 128, 128] 128 Conv1d-226 [-1, 64, 128] 8,192 Conv1d-227 [-1, 64, 128] 8,192 InstanceNorm1d-228 [-1, 64, 128] 128 _BlockBo...eckNd-229 [-1, 64, 128] 0 InstanceNorm1d-230 [-1, 64, 128] 128 PReLU-231 [-1, 64, 128] 64 Conv1d-232 [-1, 64, 128] 4,096 InstanceNorm1d-233 [-1, 64, 128] 128 PReLU-234 [-1, 64, 128] 64 Conv1d-235 [-1, 64, 128] 12,288 InstanceNorm1d-236 [-1, 64, 128] 128 PReLU-237 [-1, 64, 128] 64 Conv1d-238 [-1, 64, 128] 4,096 _BlockBo...eckNd-239 [-1, 64, 128] 0 _BlockResStkNd-240 [-1, 64, 128] 0 Conv1d-241 [-1, 1, 128] 321 UNet1d-242 [-1, 1, 128] 0 ================================================================ Total params: 24,157,569 Trainable params: 24,157,569 Non-trainable params: 0 ---------------------------------------------------------------- Input size (MB): 0.00 Forward/backward pass size (MB): 16.50 Params size (MB): 92.15 Estimated Total Size (MB): 108.66 ----------------------------------------------------------------","title
…
 the depth of the network. Examples \u00b6 Example Codes 1 2 3 4 5 import mdnc net = mdnc . modules . resnet . UNet2d ( 64 , [ 2 , 2 , 2 , 2 , 3 ], in_planes = 3 , out_planes = 1 ) print ( 'The number of convolutional layers along the depth is {0} .' . format ( net . nlayers )) mdnc . contribs . torchsummary . summary ( net , ( 3 , 64 , 63 ), device = 'cpu' ) Output The number of convolutional layers along the depth is 59. ---------------------------------------------------------------- Layer (type) Output Shape Param # ================================================================ Conv2d-1 [-1, 64, 64, 63] 4,800 InstanceNorm2d-2 [-1, 64, 64, 63] 128 PReLU-3 [-1, 64, 64, 63] 64 Conv2d-4 [-1, 64, 64, 63] 4,096 InstanceNorm2d-5 [-1, 64, 64, 63] 128 PReLU-6 [-1, 64, 64, 63] 64 Conv2d-7 [-1, 64, 64, 63] 36,864 InstanceNorm2d-8 [-1, 64, 64, 63] 128 PReLU-9 [-1, 64, 64, 63] 64 Conv2d-10 [-1, 64, 64, 63] 4,096 _BlockBo...neckNd-11 [-1, 64, 64, 63] 0 InstanceNorm2d-12 [-1, 64, 64, 63] 128 PReLU-13 [-1, 64, 64, 63] 64 Conv2d-14 [-1, 64, 64, 63] 4,096 InstanceNorm2d-15 [-1, 64, 64, 63] 128 PReLU-16 [-1, 64, 64, 63] 64 Conv2d-17 [-1, 64, 32, 32] 36,864 InstanceNorm2d-18 [-1, 64, 32, 32] 128 PReLU-19 [-1, 64, 32, 32] 64 Conv2d-20 [-1, 64, 32, 32] 4,096 Conv2d-21 [-1, 64, 32, 32] 4,096 InstanceNorm2d-22 [-1, 64, 32, 32] 128 _BlockBo...neckNd-23 [-1, 64, 32, 32] 0 _BlockResStkNd-24 [-1, 64, 32, 32] 0 [-1, 64, 64, 63] InstanceNorm2d-25 [-1, 64, 32, 32] 128 PReLU-26 [-1, 64, 32, 32] 64 Conv2d-27 [-1, 64, 32, 32] 4,096 InstanceNorm2d-28 [-1, 64, 32, 32] 128 PReLU-29 [-1, 64, 32, 32] 64 Conv2d-30 [-1, 64, 32, 32] 36,864 InstanceNorm2d-31 [-1, 64, 32, 32] 128 PReLU-32 [-1, 64, 32, 32] 64 Conv2d-33 [-1, 128, 32, 32] 8,192 Conv2d-34 [-1, 128, 32, 32] 8,192 InstanceNorm2d-35 [-1, 128, 32, 32] 256 _BlockBo...neckNd-36 [-1, 128, 32, 32] 0 InstanceNorm2d-37 [-1, 128, 32, 32] 256 PReLU-38 [-1, 128, 32, 32] 128 Conv2d-39 [-1, 128, 32, 32] 16,384 InstanceNorm2d-40 [-1, 128, 32, 32] 256 PReLU-41 [-1, 128, 32, 32] 128 Conv2d-42 [-1, 128, 16, 16] 147,456 InstanceNorm2d-43 [-1, 128, 16, 16] 256 PReLU-44 [-1, 128, 16, 16] 128 Conv2d-45 [-1, 128, 16, 16] 16,384 Conv2d-46 [-1, 128, 16, 16] 16,384 InstanceNorm2d-47 [-1, 128, 16, 16] 256 _BlockBo...neckNd-48 [-1, 128, 16, 16] 0 _BlockResStkNd-49 [-1, 128, 16, 16] 0 [-1, 128, 32, 32] InstanceNorm2d-50 [-1, 128, 16, 16] 256 PReLU-51 [-1, 128, 16, 16] 128 Conv2d-52 [-1, 128, 16, 16] 16,384 InstanceNorm2d-53 [-1, 128, 16, 16] 256 PReLU-54 [-1, 128, 16, 16] 128 Conv2d-55 [-1, 128, 16, 16] 147,456 InstanceNorm2d-56 [-1, 128, 16, 16] 256 PReLU-57 [-1, 128, 16, 16] 128 Conv2d-58 [-1, 256, 16, 16] 32,768 Conv2d-59 [-1, 256, 16, 16] 32,768 InstanceNorm2d-60 [-1, 256, 16, 16] 512 _BlockBo...neckNd-61 [-1, 256, 16, 16] 0 InstanceNorm2d-62 [-1, 256, 16, 16] 512 PReLU-63 [-1, 256, 16, 16] 256 Conv2d-64 [-1, 256, 16, 16] 65,536 InstanceNorm2d-65 [-1, 256, 16, 16] 512 PReLU-66 [-1, 256, 16, 16] 256 Conv2d-67 [-1, 256, 8, 8] 589,824 InstanceNorm2d-68 [-1, 256, 8, 8] 512 PReLU-69 [-1, 256, 8, 8] 256 Conv2d-70 [-1, 256, 8, 8] 65,536 Conv2d-71 [-1, 256, 8, 8] 65,536 InstanceNorm2d-72 [-1, 256, 8, 8] 512 _BlockBo...neckNd-73 [-1, 256, 8, 8] 0 _BlockResStkNd-74 [-1, 256, 8, 8] 0 [-1, 256, 16, 16] InstanceNorm2d-75 [-1, 256, 8, 8] 512 PReLU-76 [-1, 256, 8, 8] 256 Conv2d-77 [-1, 256, 8, 8] 65,536 InstanceNorm2d-78 [-1, 256, 8, 8] 512 PReLU-79 [-1, 256, 8, 8] 256 Conv2d-80 [-1, 256, 8, 8] 589,824 InstanceNorm2d-81 [-1, 256, 8, 8] 512 PReLU-82 [-1, 256, 8, 8] 256 Conv2d-83 [-1, 512, 8, 8] 131,072 Conv2d-84 [-1, 512, 8, 8] 131,072 InstanceNorm2d-85 [-1, 512, 8, 8] 1,024 _BlockBo...neckNd-86 [-1, 512, 8, 8] 0 InstanceNorm2d-87 [-1, 512, 8, 8] 1,024 PReLU-88 [-1, 512, 8, 8] 512 Conv2d-89 [-1, 512, 8, 8] 262,144 InstanceNorm2d-90 [-1, 512, 8, 8] 1,024 PReLU-91 [-1, 512, 8, 8] 512 Conv2d-92 [-1, 512, 4, 4] 2,359,296 InstanceNorm2d-93 [-1, 512, 4, 4] 1,024 PReLU-94 [-1, 512, 4, 4] 512 Conv2d-95 [-1, 512, 4, 4] 262,144 Conv2d-96 [-1, 512, 4, 4] 262,144 InstanceNorm2d-97 [-1, 512, 4, 4] 1,024 _BlockBo...neckNd-98 [-1, 512, 4, 4] 0 _BlockResStkNd-99 [-1, 512, 4, 4] 0 [-1, 512, 8, 8] InstanceNorm2d-100 [-1, 512, 4, 4] 1,024 PReLU-101 [-1, 512, 4, 4] 512 Conv2d-102 [-1, 512, 4, 4] 262,144 InstanceNorm2d-103 [-1, 512, 4, 4] 1,024 PReLU-104 [-1, 512, 4, 4] 512 Conv2d-105 [-1, 512, 4, 4] 2,359,296 InstanceNorm2d-106 [-1, 512, 4, 4] 1,024 PReLU-107 [-1, 512, 4, 4] 512 Conv2d-108 [-1, 1024, 4, 4] 524,288 Conv2d-109 [-1, 1024, 4, 4] 524,288 InstanceNorm2d-110 [-1, 1024, 4, 4] 2,048 _BlockBo...eckNd-111 [-1, 1024, 4, 4] 0 InstanceNorm2d-112 [-1, 1024, 4, 4] 2,048 PReLU-113 [-1, 1024, 4, 4] 1,024 Conv2d-114 [-1, 1024, 4, 4] 1,048,576 InstanceNorm2d-115 [-1, 1024, 4, 4] 2,048 PReLU-116 [-1, 1024, 4, 4] 1,024 Conv2d-117 [-1, 1024, 4, 4] 9,437,184 InstanceNorm2d-118 [-1, 1024, 4, 4] 2,048 PReLU-119 [-1, 1024, 4, 4] 1,024 Conv2d-120 [-1, 1024, 4, 4] 1,048,576 _BlockBo...eckNd-121 [-1, 1024, 4, 4] 0 InstanceNorm2d-122 [-1, 1024, 4, 4] 2,048 PReLU-123 [-1, 1024, 4, 4] 1,024 Conv2d-124 [-1, 1024, 4, 4] 1,048,576 InstanceNorm2d-125 [-1, 1024, 4, 4] 2,048 PReLU-126 [-1, 1024, 4, 4] 1,024 Upsample-127 [-1, 1024, 8, 8] 0 Conv2d-128 [-1, 1024, 8, 8] 9,437,184 InstanceNorm2d-129 [-1, 1024, 8, 8] 2,048 PReLU-130 [-1, 1024, 8, 8] 1,024 Conv2d-131 [-1, 512, 8, 8] 524,288 Upsample-132 [-1, 1024, 8, 8] 0 Conv2d-133 [-1, 512, 8, 8] 524,288 InstanceNorm2d-134 [-1, 512, 8, 8] 1,024 _BlockBo...eckNd-135 [-1, 512, 8, 8] 0 _BlockResStkNd-136 [-1, 512, 8, 8] 0 InstanceNorm2d-137 [-1, 1024, 8, 8] 2,048 PReLU-138 [-1, 1024, 8, 8] 1,024 Conv2d-139 [-1, 1024, 8, 8] 1,048,576 InstanceNorm2d-140 [-1, 1024, 8, 8] 2,048 PReLU-141 [-1, 1024, 8, 8] 1,024 Conv2d-142 [-1, 1024, 8, 8] 9,437,184 InstanceNorm2d-143 [-1, 1024, 8, 8] 2,048 PReLU-144 [-1, 1024, 8, 8] 1,024 Conv2d-145 [-1, 512, 8, 8] 524,288 Conv2d-146 [-1, 512, 8, 8] 524,288 InstanceNorm2d-147 [-1, 512, 8, 8] 1,024 _BlockBo...eckNd-148 [-1, 512, 8, 8] 0 InstanceNorm2d-149 [-1, 512, 8, 8] 1,024 PReLU-150 [-1, 512, 8, 8] 512 Conv2d-151 [-1, 512, 8, 8] 262,144 InstanceNorm2d-152 [-1, 512, 8, 8] 1,024 PReLU-153 [-1, 512, 8, 8] 512 Upsample-154 [-1, 512, 16, 16] 0 Conv2d-155 [-1, 512, 16, 16] 2,359,296 InstanceNorm2d-156 [-1, 512, 16, 16] 1,024 PReLU-157 [-1, 512, 16, 16] 512 Conv2d-158 [-1, 256, 16, 16] 131,072 Upsample-159 [-1, 512, 16, 16] 0 Conv2d-160 [-1, 256, 16, 16] 131,072 InstanceNorm2d-161 [-1, 256, 16, 16] 512 _BlockBo...eckNd-162 [-1, 256, 16, 16] 0 _BlockResStkNd-163 [-1, 256, 16, 16] 0 InstanceNorm2d-164 [-1, 512, 16, 16] 1,024 PReLU-165 [-1, 512, 16, 16] 512 Conv2d-166 [-1, 512, 16, 16] 262,144 InstanceNorm2d-167 [-1, 512, 16, 16] 1,024 PReLU-168 [-1, 512, 16, 16] 512 Conv2d-169 [-1, 512, 16, 16] 2,359,296 InstanceNorm2d-170 [-1, 512, 16, 16] 1,024 PReLU-171 [-1, 512, 16, 16] 512 Conv2d-172 [-1, 256, 16, 16] 131,072 Conv2d-173 [-1, 256, 16, 16] 131,072 InstanceNorm2d-174 [-1, 256, 16, 16] 512 _BlockBo...eckNd-175 [-1, 256, 16, 16] 0 InstanceNorm2d-176 [-1, 256, 16, 16] 512 PReLU-177 [-1, 256, 16, 16] 256 Conv2d-178 [-1, 256, 16, 16] 65,536 InstanceNorm2d-179 [-1, 256, 16, 16] 512 PReLU-180 [-1, 256, 16, 16] 256 Upsample-181 [-1, 256, 32, 32] 0 Conv2d-182 [-1, 256, 32, 32] 589,824 InstanceNorm2d-183 [-1, 256, 32, 32] 512 PReLU-184 [-1, 256, 32, 32] 256 Conv2d-185 [-1, 128, 32, 32] 32,768 Upsample-186 [-1, 256, 32, 32] 0 Conv2d-187 [-1, 128, 32, 32] 32,768 InstanceNorm2d-188 [-1, 128, 32, 32] 256 _BlockBo...eckNd-189 [-1, 128, 32, 32] 0 _BlockResStkNd-190 [-1, 128, 32, 32] 0 InstanceNorm2d-191 [-1, 256, 32, 32] 512 PReLU-192 [-1, 256, 32, 32] 256 Conv2d-193 [-1, 256, 32, 32] 65,536 InstanceNorm2d-194 [-1, 256, 32, 32] 512 PReLU-195 [-1, 256, 32, 32] 256 Conv2d-196 [-1, 256, 32, 32] 589,824 InstanceNorm2d-197 [-1, 256, 32, 32] 512 PReLU-198 [-1, 256, 32, 32] 256 Conv2d-199 [-1, 128, 32, 32] 32,768 Conv2d-200 [-1, 128, 32, 32] 32,768 InstanceNorm2d-201 [-1, 128, 32, 32] 256 _BlockBo...eckNd-202 [-1, 128, 32, 32] 0 InstanceNorm2d-203 [-1, 128, 32, 32] 256 PReLU-204 [-1, 128, 32, 32] 128 Conv2d-205 [-1, 128, 32, 32] 16,384 InstanceNorm2d-206 [-1, 128, 32, 32] 256 PReLU-207 [-1, 128, 32, 32] 128 Upsample-208 [-1, 128, 64, 64] 0 Conv2d-209 [-1, 128, 64, 64] 147,456 InstanceNorm2d-210 [-1, 128, 64, 64] 256 PReLU-211 [-1, 128, 64, 64] 128 Conv2d-212 [-1, 64, 64, 64] 8,192 Upsample-213 [-1, 128, 64, 64] 0 Conv2d-214 [-1, 64, 64, 64] 8,192 InstanceNorm2d-215 [-1, 64, 64, 64] 128 _BlockBo...eckNd-216 [-1, 64, 64, 64] 0 _BlockResStkNd-217 [-1, 64, 64, 64] 0 InstanceNorm2d-218 [-1, 128, 64, 63] 256 PReLU-219 [-1, 128, 64, 63] 128 Conv2d-220 [-1, 128, 64, 63] 16,384 InstanceNorm2d-221 [-1, 128, 64, 63] 256 PReLU-222 [-1, 128, 64, 63] 128 Conv2d-223 [-1, 128, 64, 63] 147,456 InstanceNorm2d-224 [-1, 128, 64, 63] 256 PReLU-225 [-1, 128, 64, 63] 128 Conv2d-226 [-1, 64, 64, 63] 8,192 Conv2d-227 [-1, 64, 64, 63] 8,192 InstanceNorm2d-228 [-1, 64, 64, 63] 128 _BlockBo...eckNd-229 [-1, 64, 64, 63] 0 InstanceNorm2d-230 [-1, 64, 64, 63] 128 PReLU-231 [-1, 64, 64, 63] 64 Conv2d-232 [-1, 64, 64, 63] 4,096 InstanceNorm2d-233 [-1, 64, 64, 63] 128 PReLU-234 [-1, 64, 64, 63] 64 Conv2d-235 [-1, 64, 64, 63] 36,864 InstanceNorm2d-236 [-1, 64, 64, 63] 128 PReLU-237 [-1, 64, 64, 63] 64 Conv2d-238 [-1, 64, 64, 63] 4,096 _BlockBo...eckNd-239 [-1, 64, 64, 63] 0 _BlockResStkNd-240 [-1, 64, 64, 63] 0 Conv2d-241 [-1, 1, 64, 63] 1,601 UNet2d-242 [-1, 1, 64, 63] 0 ================================================================ Total params: 51,392,897 Trainable params: 51,392,897 Non-trainable params: 0 ---------------------------------------------------------------- Input size (MB): 0.05 Forward/backward pass size (MB): 229.44 Params size (MB): 196.05 Estimated Total Size (MB): 425.53 ----------------------------------------------------------------","tit
…
depth of the network. Examples \u00b6 Example Codes 1 2 3 4 5 import mdnc net = mdnc . modules . resnet . UNet3d ( 64 , [ 2 , 2 , 2 , 2 , 3 ], in_planes = 3 , out_planes = 1 ) print ( 'The number of convolutional layers along the depth is {0} .' . format ( net . nlayers )) mdnc . contribs . torchsummary . summary ( net , ( 3 , 31 , 32 , 30 ), device = 'cpu' ) Output The number of convolutional layers along the depth is 59. ---------------------------------------------------------------- Layer (type) Output Shape Param # ================================================================ Conv3d-1 [-1, 64, 31, 32, 30] 24,000 InstanceNorm3d-2 [-1, 64, 31, 32, 30] 128 PReLU-3 [-1, 64, 31, 32, 30] 64 Conv3d-4 [-1, 64, 31, 32, 30] 4,096 InstanceNorm3d-5 [-1, 64, 31, 32, 30] 128 PReLU-6 [-1, 64, 31, 32, 30] 64 Conv3d-7 [-1, 64, 31, 32, 30] 110,592 InstanceNorm3d-8 [-1, 64, 31, 32, 30] 128 PReLU-9 [-1, 64, 31, 32, 30] 64 Conv3d-10 [-1, 64, 31, 32, 30] 4,096 _BlockBo...neckNd-11 [-1, 64, 31, 32, 30] 0 InstanceNorm3d-12 [-1, 64, 31, 32, 30] 128 PReLU-13 [-1, 64, 31, 32, 30] 64 Conv3d-14 [-1, 64, 31, 32, 30] 4,096 InstanceNorm3d-15 [-1, 64, 31, 32, 30] 128 PReLU-16 [-1, 64, 31, 32, 30] 64 Conv3d-17 [-1, 64, 16, 16, 15] 110,592 InstanceNorm3d-18 [-1, 64, 16, 16, 15] 128 PReLU-19 [-1, 64, 16, 16, 15] 64 Conv3d-20 [-1, 64, 16, 16, 15] 4,096 Conv3d-21 [-1, 64, 16, 16, 15] 4,096 InstanceNorm3d-22 [-1, 64, 16, 16, 15] 128 _BlockBo...neckNd-23 [-1, 64, 16, 16, 15] 0 _BlockResStkNd-24 [-1, 64, 16, 16, 15] 0 [-1, 64, 31, 32, 30] InstanceNorm3d-25 [-1, 64, 16, 16, 15] 128 PReLU-26 [-1, 64, 16, 16, 15] 64 Conv3d-27 [-1, 64, 16, 16, 15] 4,096 InstanceNorm3d-28 [-1, 64, 16, 16, 15] 128 PReLU-29 [-1, 64, 16, 16, 15] 64 Conv3d-30 [-1, 64, 16, 16, 15] 110,592 InstanceNorm3d-31 [-1, 64, 16, 16, 15] 128 PReLU-32 [-1, 64, 16, 16, 15] 64 Conv3d-33 [-1, 128, 16, 16, 15] 8,192 Conv3d-34 [-1, 128, 16, 16, 15] 8,192 InstanceNorm3d-35 [-1, 128, 16, 16, 15] 256 _BlockBo...neckNd-36 [-1, 128, 16, 16, 15] 0 InstanceNorm3d-37 [-1, 128, 16, 16, 15] 256 PReLU-38 [-1, 128, 16, 16, 15] 128 Conv3d-39 [-1, 128, 16, 16, 15] 16,384 InstanceNorm3d-40 [-1, 128, 16, 16, 15] 256 PReLU-41 [-1, 128, 16, 16, 15] 128 Conv3d-42 [-1, 128, 8, 8, 8] 442,368 InstanceNorm3d-43 [-1, 128, 8, 8, 8] 256 PReLU-44 [-1, 128, 8, 8, 8] 128 Conv3d-45 [-1, 128, 8, 8, 8] 16,384 Conv3d-46 [-1, 128, 8, 8, 8] 16,384 InstanceNorm3d-47 [-1, 128, 8, 8, 8] 256 _BlockBo...neckNd-48 [-1, 128, 8, 8, 8] 0 _BlockResStkNd-49 [-1, 128, 8, 8, 8] 0 [-1, 128, 16, 16, 15] InstanceNorm3d-50 [-1, 128, 8, 8, 8] 256 PReLU-51 [-1, 128, 8, 8, 8] 128 Conv3d-52 [-1, 128, 8, 8, 8] 16,384 InstanceNorm3d-53 [-1, 128, 8, 8, 8] 256 PReLU-54 [-1, 128, 8, 8, 8] 128 Conv3d-55 [-1, 128, 8, 8, 8] 442,368 InstanceNorm3d-56 [-1, 128, 8, 8, 8] 256 PReLU-57 [-1, 128, 8, 8, 8] 128 Conv3d-58 [-1, 256, 8, 8, 8] 32,768 Conv3d-59 [-1, 256, 8, 8, 8] 32,768 InstanceNorm3d-60 [-1, 256, 8, 8, 8] 512 _BlockBo...neckNd-61 [-1, 256, 8, 8, 8] 0 InstanceNorm3d-62 [-1, 256, 8, 8, 8] 512 PReLU-63 [-1, 256, 8, 8, 8] 256 Conv3d-64 [-1, 256, 8, 8, 8] 65,536 InstanceNorm3d-65 [-1, 256, 8, 8, 8] 512 PReLU-66 [-1, 256, 8, 8, 8] 256 Conv3d-67 [-1, 256, 4, 4, 4] 1,769,472 InstanceNorm3d-68 [-1, 256, 4, 4, 4] 512 PReLU-69 [-1, 256, 4, 4, 4] 256 Conv3d-70 [-1, 256, 4, 4, 4] 65,536 Conv3d-71 [-1, 256, 4, 4, 4] 65,536 InstanceNorm3d-72 [-1, 256, 4, 4, 4] 512 _BlockBo...neckNd-73 [-1, 256, 4, 4, 4] 0 _BlockResStkNd-74 [-1, 256, 4, 4, 4] 0 [-1, 256, 8, 8, 8] InstanceNorm3d-75 [-1, 256, 4, 4, 4] 512 PReLU-76 [-1, 256, 4, 4, 4] 256 Conv3d-77 [-1, 256, 4, 4, 4] 65,536 InstanceNorm3d-78 [-1, 256, 4, 4, 4] 512 PReLU-79 [-1, 256, 4, 4, 4] 256 Conv3d-80 [-1, 256, 4, 4, 4] 1,769,472 InstanceNorm3d-81 [-1, 256, 4, 4, 4] 512 PReLU-82 [-1, 256, 4, 4, 4] 256 Conv3d-83 [-1, 512, 4, 4, 4] 131,072 Conv3d-84 [-1, 512, 4, 4, 4] 131,072 InstanceNorm3d-85 [-1, 512, 4, 4, 4] 1,024 _BlockBo...neckNd-86 [-1, 512, 4, 4, 4] 0 InstanceNorm3d-87 [-1, 512, 4, 4, 4] 1,024 PReLU-88 [-1, 512, 4, 4, 4] 512 Conv3d-89 [-1, 512, 4, 4, 4] 262,144 InstanceNorm3d-90 [-1, 512, 4, 4, 4] 1,024 PReLU-91 [-1, 512, 4, 4, 4] 512 Conv3d-92 [-1, 512, 2, 2, 2] 7,077,888 InstanceNorm3d-93 [-1, 512, 2, 2, 2] 1,024 PReLU-94 [-1, 512, 2, 2, 2] 512 Conv3d-95 [-1, 512, 2, 2, 2] 262,144 Conv3d-96 [-1, 512, 2, 2, 2] 262,144 InstanceNorm3d-97 [-1, 512, 2, 2, 2] 1,024 _BlockBo...neckNd-98 [-1, 512, 2, 2, 2] 0 _BlockResStkNd-99 [-1, 512, 2, 2, 2] 0 [-1, 512, 4, 4, 4] InstanceNorm3d-100 [-1, 512, 2, 2, 2] 1,024 PReLU-101 [-1, 512, 2, 2, 2] 512 Conv3d-102 [-1, 512, 2, 2, 2] 262,144 InstanceNorm3d-103 [-1, 512, 2, 2, 2] 1,024 PReLU-104 [-1, 512, 2, 2, 2] 512 Conv3d-105 [-1, 512, 2, 2, 2] 7,077,888 InstanceNorm3d-106 [-1, 512, 2, 2, 2] 1,024 PReLU-107 [-1, 512, 2, 2, 2] 512 Conv3d-108 [-1, 1024, 2, 2, 2] 524,288 Conv3d-109 [-1, 1024, 2, 2, 2] 524,288 InstanceNorm3d-110 [-1, 1024, 2, 2, 2] 2,048 _BlockBo...eckNd-111 [-1, 1024, 2, 2, 2] 0 InstanceNorm3d-112 [-1, 1024, 2, 2, 2] 2,048 PReLU-113 [-1, 1024, 2, 2, 2] 1,024 Conv3d-114 [-1, 1024, 2, 2, 2] 1,048,576 InstanceNorm3d-115 [-1, 1024, 2, 2, 2] 2,048 PReLU-116 [-1, 1024, 2, 2, 2] 1,024 Conv3d-117 [-1, 1024, 2, 2, 2] 28,311,552 InstanceNorm3d-118 [-1, 1024, 2, 2, 2] 2,048 PReLU-119 [-1, 1024, 2, 2, 2] 1,024 Conv3d-120 [-1, 1024, 2, 2, 2] 1,048,576 _BlockBo...eckNd-121 [-1, 1024, 2, 2, 2] 0 InstanceNorm3d-122 [-1, 1024, 2, 2, 2] 2,048 PReLU-123 [-1, 1024, 2, 2, 2] 1,024 Conv3d-124 [-1, 1024, 2, 2, 2] 1,048,576 InstanceNorm3d-125 [-1, 1024, 2, 2, 2] 2,048 PReLU-126 [-1, 1024, 2, 2, 2] 1,024 Upsample-127 [-1, 1024, 4, 4, 4] 0 Conv3d-128 [-1, 1024, 4, 4, 4] 28,311,552 InstanceNorm3d-129 [-1, 1024, 4, 4, 4] 2,048 PReLU-130 [-1, 1024, 4, 4, 4] 1,024 Conv3d-131 [-1, 512, 4, 4, 4] 524,288 Upsample-132 [-1, 1024, 4, 4, 4] 0 Conv3d-133 [-1, 512, 4, 4, 4] 524,288 InstanceNorm3d-134 [-1, 512, 4, 4, 4] 1,024 _BlockBo...eckNd-135 [-1, 512, 4, 4, 4] 0 _BlockResStkNd-136 [-1, 512, 4, 4, 4] 0 InstanceNorm3d-137 [-1, 1024, 4, 4, 4] 2,048 PReLU-138 [-1, 1024, 4, 4, 4] 1,024 Conv3d-139 [-1, 1024, 4, 4, 4] 1,048,576 InstanceNorm3d-140 [-1, 1024, 4, 4, 4] 2,048 PReLU-141 [-1, 1024, 4, 4, 4] 1,024 Conv3d-142 [-1, 1024, 4, 4, 4] 28,311,552 InstanceNorm3d-143 [-1, 1024, 4, 4, 4] 2,048 PReLU-144 [-1, 1024, 4, 4, 4] 1,024 Conv3d-145 [-1, 512, 4, 4, 4] 524,288 Conv3d-146 [-1, 512, 4, 4, 4] 524,288 InstanceNorm3d-147 [-1, 512, 4, 4, 4] 1,024 _BlockBo...eckNd-148 [-1, 512, 4, 4, 4] 0 InstanceNorm3d-149 [-1, 512, 4, 4, 4] 1,024 PReLU-150 [-1, 512, 4, 4, 4] 512 Conv3d-151 [-1, 512, 4, 4, 4] 262,144 InstanceNorm3d-152 [-1, 512, 4, 4, 4] 1,024 PReLU-153 [-1, 512, 4, 4, 4] 512 Upsample-154 [-1, 512, 8, 8, 8] 0 Conv3d-155 [-1, 512, 8, 8, 8] 7,077,888 InstanceNorm3d-156 [-1, 512, 8, 8, 8] 1,024 PReLU-157 [-1, 512, 8, 8, 8] 512 Conv3d-158 [-1, 256, 8, 8, 8] 131,072 Upsample-159 [-1, 512, 8, 8, 8] 0 Conv3d-160 [-1, 256, 8, 8, 8] 131,072 InstanceNorm3d-161 [-1, 256, 8, 8, 8] 512 _BlockBo...eckNd-162 [-1, 256, 8, 8, 8] 0 _BlockResStkNd-163 [-1, 256, 8, 8, 8] 0 InstanceNorm3d-164 [-1, 512, 8, 8, 8] 1,024 PReLU-165 [-1, 512, 8, 8, 8] 512 Conv3d-166 [-1, 512, 8, 8, 8] 262,144 InstanceNorm3d-167 [-1, 512, 8, 8, 8] 1,024 PReLU-168 [-1, 512, 8, 8, 8] 512 Conv3d-169 [-1, 512, 8, 8, 8] 7,077,888 InstanceNorm3d-170 [-1, 512, 8, 8, 8] 1,024 PReLU-171 [-1, 512, 8, 8, 8] 512 Conv3d-172 [-1, 256, 8, 8, 8] 131,072 Conv3d-173 [-1, 256, 8, 8, 8] 131,072 InstanceNorm3d-174 [-1, 256, 8, 8, 8] 512 _BlockBo...eckNd-175 [-1, 256, 8, 8, 8] 0 InstanceNorm3d-176 [-1, 256, 8, 8, 8] 512 PReLU-177 [-1, 256, 8, 8, 8] 256 Conv3d-178 [-1, 256, 8, 8, 8] 65,536 InstanceNorm3d-179 [-1, 256, 8, 8, 8] 512 PReLU-180 [-1, 256, 8, 8, 8] 256 Upsample-181 [-1, 256, 16, 16, 16] 0 Conv3d-182 [-1, 256, 16, 16, 16] 1,769,472 InstanceNorm3d-183 [-1, 256, 16, 16, 16] 512 PReLU-184 [-1, 256, 16, 16, 16] 256 Conv3d-185 [-1, 128, 16, 16, 16] 32,768 Upsample-186 [-1, 256, 16, 16, 16] 0 Conv3d-187 [-1, 128, 16, 16, 16] 32,768 InstanceNorm3d-188 [-1, 128, 16, 16, 16] 256 _BlockBo...eckNd-189 [-1, 128, 16, 16, 16] 0 _BlockResStkNd-190 [-1, 128, 16, 16, 16] 0 InstanceNorm3d-191 [-1, 256, 16, 16, 15] 512 PReLU-192 [-1, 256, 16, 16, 15] 256 Conv3d-193 [-1, 256, 16, 16, 15] 65,536 InstanceNorm3d-194 [-1, 256, 16, 16, 15] 512 PReLU-195 [-1, 256, 16, 16, 15] 256 Conv3d-196 [-1, 256, 16, 16, 15] 1,769,472 InstanceNorm3d-197 [-1, 256, 16, 16, 15] 512 PReLU-198 [-1, 256, 16, 16, 15] 256 Conv3d-199 [-1, 128, 16, 16, 15] 32,768 Conv3d-200 [-1, 128, 16, 16, 15] 32,768 InstanceNorm3d-201 [-1, 128, 16, 16, 15] 256 _BlockBo...eckNd-202 [-1, 128, 16, 16, 15] 0 InstanceNorm3d-203 [-1, 128, 16, 16, 15] 256 PReLU-204 [-1, 128, 16, 16, 15] 128 Conv3d-205 [-1, 128, 16, 16, 15] 16,384 InstanceNorm3d-206 [-1, 128, 16, 16, 15] 256 PReLU-207 [-1, 128, 16, 16, 15] 128 Upsample-208 [-1, 128, 32, 32, 30] 0 Conv3d-209 [-1, 128, 32, 32, 30] 442,368 InstanceNorm3d-210 [-1, 128, 32, 32, 30] 256 PReLU-211 [-1, 128, 32, 32, 30] 128 Conv3d-212 [-1, 64, 32, 32, 30] 8,192 Upsample-213 [-1, 128, 32, 32, 30] 0 Conv3d-214 [-1, 64, 32, 32, 30] 8,192 InstanceNorm3d-215 [-1, 64, 32, 32, 30] 128 _BlockBo...eckNd-216 [-1, 64, 32, 32, 30] 0 _BlockResStkNd-217 [-1, 64, 32, 32, 30] 0 InstanceNorm3d-218 [-1, 128, 31, 32, 30] 256 PReLU-219 [-1, 128, 31, 32, 30] 128 Conv3d-220 [-1, 128, 31, 32, 30] 16,384 InstanceNorm3d-221 [-1, 128, 31, 32, 30] 256 PReLU-222 [-1, 128, 31, 32, 30] 128 Conv3d-223 [-1, 128, 31, 32, 30] 442,368 InstanceNorm3d-224 [-1, 128, 31, 32, 30] 256 PReLU-225 [-1, 128, 31, 32, 30] 128 Conv3d-226 [-1, 64, 31, 32, 30] 8,192 Conv3d-227 [-1, 64, 31, 32, 30] 8,192 InstanceNorm3d-228 [-1, 64, 31, 32, 30] 128 _BlockBo...eckNd-229 [-1, 64, 31, 32, 30] 0 InstanceNorm3d-230 [-1, 64, 31, 32, 30] 128 PReLU-231 [-1, 64, 31, 32, 30] 64 Conv3d-232 [-1, 64, 31, 32, 30] 4,096 InstanceNorm3d-233 [-1, 64, 31, 32, 30] 128 PReLU-234 [-1, 64, 31, 32, 30] 64 Conv3d-235 [-1, 64, 31, 32, 30] 110,592 InstanceNorm3d-236 [-1, 64, 31, 32, 30] 128 PReLU-237 [-1, 64, 31, 32, 30] 64 Conv3d-238 [-1, 64, 31, 32, 30] 4,096 _BlockBo...eckNd-239 [-1, 64, 31, 32, 30] 0 _BlockResStkNd-240 [-1, 64, 31, 32, 30] 0 Conv3d-241 [-1, 1, 31, 32, 30] 8,001 UNet3d-242 [-1, 1, 31, 32, 30] 0 ================================================================ Total params: 133,109,121 Trainable params: 133,109,121 Non-trainable params: 0 ---------------------------------------------------------------- Input size (MB): 0.34 Forward/backward pass size (MB): 1218.39 Params size (MB): 507.77 Estimated Total Size (MB): 1726.50 ----------------------------------------------------------------",
…
