…
 ) # set x2 to FloatTensor x = torch . cat (( x1 , x2 ), 0 ) return F . log_softmax ( x , dim = 1 ), F . log_softmax ( x1 , dim = 1 ), F . log_softmax ( x2 , dim = 1 ) input1 = ( 1 , 300 ) input2 = ( 1 , 300 ) dtypes = ( torch . FloatTensor , torch . LongTensor ) total_params , trainable_params = mdnc . contribs . torchsummary . summary ( TestTupleOutModule (), ( input1 , input2 ), device = 'cpu' , dtypes = dtypes ) Output ---------------------------------------------------------------- Layer (type) Output Shape Param # ================================================================ Linear-1 [-1, 1, 50] 15,050 Linear-2 [-1, 1, 10] 510 Linear-3 [-1, 1, 50] 15,050 Linear-4 [-1, 1, 10] 510 TestTupleOutModule-5 [-1, 1, 10] 0 [-1, 1, 10] [-1, 1, 10] ================================================================ Total params: 31,120 Trainable params: 31,120 Non-trainable params: 0 ---------------------------------------------------------------- Input size (MB): 0.00 Forward/backward pass size (MB): 0.00 Params size (MB): 0.12 Estimated Total Size (MB): 0.12 ------------------------------------------------------------
…
